exports/AppleBlackRot.tflite (tflite, 485192 bytes, 16 tensors)

sequential_5/conv2d_6/Relu;sequential_5/conv2d_6/BiasAdd;sequential_5/conv2d_11/Conv2D;sequential_5/conv2d_6/Conv2D;sequential_5/conv2d_6/BiasAdd/ReadVariableOp f4 [64, 1, 1, 3]
-0.00030943356 0.0004645063 0.0005217175 0.00084975275 0.00020375272 7.4916716e-05 0.0006368777 -0.0006278948
0.00025793427 -0.00050018524 -0.00083290995 -0.0003163713 0.0012792405 -0.0003995014 -0.00044512475 0.00072868244
-0.00029311448 -8.434294e-05 0.0010317344 0.0007508167 0.0005111889 0.0006812933 0.0009096404 -0.0011399174
0.00066681043 -5.6400204e-05 0.0010300009 0.0011805359 0.00036057807 -0.0010931318 -0.00082509086 6.3194966e-05
0.0011727418 -0.00040027432 -0.0011117297 0.0009859763 -0.00013255085 -0.0014113609 -0.00020773624 0.00095787697
0.00080645917 -0.001225161 -0.00083015923 0.0010559077 0.0005376327 -0.00043983883 0.0006210028 -0.0011258632
-3.4900728e-05 -0.0010016935 0.0011903929 -9.76438e-05 -3.8053673e-05 0.000923916 0.00041143995 -0.0010649811
0.001149246 0.0010559773 -0.00068184163 -0.0007135536 -0.00068430166 -5.856554e-05 0.0007913253 -0.0011071704
-0.0013151574 0.0011330663 4.443007e-05 0.0005822488 -0.00040391705 4.6948575e-05 -0.00073324394 -0.0005104089
-0.00040078058 0.0009821574 -0.0006546513 -0.00072630064 -0.0008900889 -0.0010572397 0.00034569792 -0.0010038092
0.001012176 -0.00033048532 0.00012517456 0.0003105504 0.00094580185 -0.00014482142 -0.0002776468 0.0003948433
-0.00042037547 0.0005793514 -0.00028417064 -0.00096472783 -0.00047614507 -0.0010565354 -0.00075915625 -0.0007490219
0.00079704693 -0.00028146114 -0.00024018521 -0.0011123804 -0.0006416806 -0.0008064952 0.0009978601 0.0005800825
0.00033854914 -0.00028776538 0.0005273962 -3.918718e-05 0.00087307184 -4.731158e-05 -3.7278427e-05 -0.00043291048
-0.00018744283 -0.0008038934 -0.00045557055 9.625301e-05 0.0005364407 0.00058971846 0.00067288004 -0.0007528731
-0.0011826691 0.0008106645 0.00076586736 -0.0005489694 0.00058855966 0.0005578797 0.0012549013 0.00014140364
-0.001114804 0.0008687719 -0.0003672902 0.0007475189 -0.0010118106 -6.043654e-05 -0.00031459323 -0.0011406481
-0.00037054557 -0.00021024804 -0.00091376645 -0.0007401265 0.00048206362 -0.00073548453 0.0005853208 0.0005502589
-0.00010347481 -0.00010130507 2.772592e-05 -0.0003007785 0.0004725692 -0.00016708186 0.00023402348 -0.00018731582
-0.0002100191 -0.001113255 -0.0003445245 8.8906934e-05 -0.000646322 -0.00050920295 0.00024930888 -4.774994e-05
-0.0010640777 5.8170815e-05 -0.00090734527 0.00077986764 -0.0009389092 0.0006443281 -0.0010288474 0.00012179689
0.0013136788 -0.00078654266 -0.00028524958 0.001170039 -0.0002752732 -0.0007155374 0.00013206001 -0.0014374723
0.00075191876 0.00017458464 0.0007666828 -9.7474476e-05 -0.0010182831 -0.00013477031 0.0008624802 1.557838e-07
0.0002811069 0.00038749486 4.3000055e-05 -0.00018277827 0.00010690078 0.00010194446 0.0005744717 0.00023405638
00000000: 783b a2b9 fb88 f339 dec3 083a f1c1 5e3a
00000010: 74a6 5539 9b1c 9d38 24f4 263a 4f99 24ba
00000020: 5a3b 8739 dd1e 03ba a457 5aba a3de a5b9
00000030: 30ac a73a 2c74 d1b9 a25f e9b9 0d05 3f3a
00000040: 29ad 99b9 45e1 b0b8 433b 873a 75d2 443a
00000050: 4e01 063a d298 323a ef74 6e3a 4869 95ba
00000060: e4cc 2e3a 428f 6cb8 1801 873a 36bc 9a3a
00000070: f80b bd39 6b47 8fba e94a 58ba 8a87 8438
00000080: afb6 993a e9db d1b9 75b7 91ba e03b 813a
00000090: 59fd 0ab9 6afd b8ba c6d3 59b9 091a 7b3a
000000a0: 8f68 533a 9595 a0ba 0b9f 59ba 6266 8a3a
000000b0: ebef 0c3a 2b9a e6b9 cbca 223a b391 93ba
000000c0: 5f62 12b8 424b 83ba f506 9c3a 1ec6 ccb8
000000d0: d29b 1fb8 f432 723a 89b6 d739 d696 8bba
000000e0: 4ca2 963a b868 8a3a 9ebd 32ba c60d 3bba
000000f0: b562 33ba 45a4 75b8 f170 4f3a 791e 91ba
00000100: 5c61 acba 6583 943a 6d5a 3a38 0ea2 183a
00000110: d4c4 d3b9 a6ea 4438 2b37 40ba f6cc 05ba
00000120: dc1f d2b9 bcbb 803a e89c 2bba 3665 3eba
00000130: db54 69ba 1493 8aba ca3e b539 3f92 83ba
00000140: feaa 843a fd44 adb9 4a41 0339 5ed1 a239
00000150: b0ef 773a 34db 17b9 1f91 91b9 f802 cf39
00000160: d765 dcb9 9ddf 173a bdfc 94b9 cae5 7cba
00000170: 1ca3 f9b9 727b 8aba 1d02 47ba 025a 44ba
00000180: eaf0 503a 1391 93b9 3ada 7bb9 4bcd 91ba
00000190: 7536 28ba fa6a 53ba a1ca 823a ad10 183a
000001a0: 4c7f b139 37df 96b9 f640 0a3a ea5c 24b8
000001b0: dcde 643a 6c70 46b8 685b 1cb8 43f8 e2b9
000001c0: 4d8c 44b9 5fbc 52ba a5d9 eeb9 71db c938
000001d0: ed9f 0c3a 5697 1a3a 3764 303a 755c 45ba
000001e0: ca03 9bba c682 543a 7dc4 483a b6e8 0fba
000001f0: 9249 1a3a ac3e 123a 807b a43a c045 1439
00000200: 9d1e 92ba 4cbe 633a db90 c0b9 25f5 433a
00000210: bb9e 84ba 3e7d 7db8 fdef a4b9 cd81 95ba
00000220: c945 c2b9 0776 5cb9 d489 6fba 0c05 42ba
00000230: 7cbd fc39 88cd 40ba 3770 193a 403f 103a
00000240: 9e00 d9b8 bf73 d4b8 f694 e837 cfb1 9db9
00000250: 2ac3 f739 b232 2fb9 3364 7539 356a 44b9
00000260: 9338 5cb9 a4ea 91ba 4ca1 b4b9 8c73 ba38
00000270: ef6d 29ba 087c 05ba acb5 8239 1c47 48b8
00000280: 8678 8bba 70fc 7338 e9da 6dba 0870 4c3a
00000290: 2121 76ba 20e8 283a 64da 86ba 356d ff38
000002a0: bf2f ac3a fc2f 4eba 8d8d 95b9 fe5b 993a
000002b0: 8b52 90b9 e792 3bba 9779 0a39 9169 bcba
000002c0: 6a1c 453a b510 3739 36fb 483a 366b ccb8
000002d0: e977 85ba 2151 0db9 1118 623a 8645 2734
000002e0: 8861 9339 ae28 cb39 f55a 3438 2ba8 3fb9
000002f0: eb2f e038 04cb d538 2598 163a 086d 7539

sequential_5/conv2d_6/BiasAdd/ReadVariableOp f4 [64]
-0.039844345 -0.040651374 0.0008172725 0.0 -0.0057584313 -0.012076239 -0.035084687 4.516928e-05
-0.021101957 -0.013684131 0.007292978 0.04016668 0.041461386 0.0005942434 -0.03164942 0.013885112
0.026741635 -0.0464835 0.008245847 0.032426294 0.032274835 0.028429095 -0.04563601 -0.011140976
0.00590198 0.0 0.01689066 0.005001463 -0.012599975 -0.0052350233 0.0 0.0
-0.0072182436 0.0 -0.032861143 -0.019824807 -0.022665128 0.0 0.0028848264 -0.016645385
-0.0077349865 -0.026413737 0.010720972 -0.025883429 0.0 0.0 0.029725129 -0.014946178
0.00031202272 0.0041351556 -0.015635513 -0.017714476 -0.03422949 -0.0054188394 0.0141918715 -0.015106034
0.011864595 -0.006206719 0.0089716 -0.04506663 0.034331214 -0.059855673 -0.0026635558 -0.06615223
00000000: d333 23bd 0e82 26bd 3b3e 563a 0000 0000
00000010: 39b1 bcbb 6bdb 45bc f6b4 0fbd 2574 3d38
00000020: 03de acbc 6833 60bc eff9 ee3b d185 243d
00000030: 6ad3 293d 00c7 1b3a d2a2 01bd 617e 633c
00000040: 4611 db3c 7c65 3ebd 9719 073c 6fd1 043d
00000050: 9e32 043d 22e4 e83c d3ec 3abd a488 36bc
00000060: 6665 c13b 0000 0000 485e 8a3c 50e3 a33b
00000070: 2070 4ebc 8f8a abbb 0000 0000 0000 0000
00000080: 0487 ecbb 0000 0000 6899 06bd a267 a2bc
00000090: 38ac b9bc 0000 0000 5b0f 3d3b e75b 88bc
000000a0: c575 fdbb 9f61 d8bc 04a7 2f3c 7c09 d4bc
000000b0: 0000 0000 0000 0000 1d82 f33c d0e0 74bc
000000c0: fb96 a339 3380 873b 0c16 80bc f31d 91bc
000000d0: 3934 0cbd 8590 b1bb 0685 683c 4d7f 77bc
000000e0: b863 423c bc61 cbbb 9efd 123c c997 38bd
000000f0: e39e 0c3d 392b 75bd 0d8f 2ebb d27a 87bd

sequential_5/conv2d_7/BiasAdd/ReadVariableOp f4 [64]
-0.040464863 0.0077155884 0.008085307 0.008090413 -0.018830746 -0.032928552 -0.043766923 0.012431929
-0.008040889 -0.016586933 -0.0315396 0.0038626678 -0.010529409 0.0014661854 0.005024305 -0.03899984
-0.004776856 -0.04174904 -0.04167761 0.011899249 -0.0094946325 -0.04525588 -0.01747199 -0.030744513
-0.031859938 -0.00622597 0.0055153337 -0.022853527 -0.037621938 0.0049625332 0.010290585 -0.021434858
0.013219661 0.002038401 -0.014394511 -0.009117206 0.019049436 0.005354024 -0.020182814 -0.015037843
-0.013007398 -0.058183156 -0.008755212 -0.018900862 -0.035180677 -0.042445097 -0.01121815 -0.020888975
-0.02023749 -0.0075874724 -0.056639753 0.017565425 0.008497125 -0.0074945902 0.009899672 0.0069647883
-0.011517384 -0.0038377717 0.0105441855 -0.015254732 -0.003215403 -0.031168325 -0.021255812 -0.036872286
00000000: 7cbe 25bd 0cd3 fc3b 3c78 043c a78d 043c
00000010: f042 9abc 17e0 06bd f244 33bd 4aaf 4b3c
00000020: efbd 03bc 52e1 87bc ab2f 01bd d024 7d3b
00000030: 8b83 2cbc 052d c03a eda2 a43b 4cbe 1fbd
00000040: 2c87 9cbb 0b01 2bbd 24b6 2abd 11f5 423c
00000050: 608f 1bbc 3b5e 39bd 6b21 8fbc ebdb fbbc
00000060: 917f 02bd 3903 ccbb f9b9 b43b 5237 bbbc
00000070: 7619 1abd bf9c a23b d899 283c 2898 afbc
00000080: 4797 583c b296 053b f4d6 6bbc 5560 15bc
00000090: 900d 9c3c cf70 af3b 6e56 a5bc 4961 76bc
000000a0: fb1c 55bc 7651 6ebd 0572 0fbc fbd5 9abc
000000b0: 9d19 10bd e9da 2dbd 55cc 37bc 5b1f abbc
000000c0: 18c9 a5bc 55a0 f8bb 16ff 67bd 5ee5 8f3c
000000d0: 8637 0b3c 2e95 f5bb 3c32 223c e138 e43b
000000e0: 69b3 3cbc 2083 7bbb 85c1 2c3c fcee 79bc
000000f0: 83b9 52bb b754 ffbc ab20 aebc 6507 17bd

sequential_5/conv2d_8/BiasAdd/ReadVariableOp f4 [64]
0.022930734 -0.03633304 -0.042518325 -0.046640474 -0.020250935 0.009891009 0.019942796 -0.027223306
-0.009745713 -0.04428791 -0.034120012 -0.013924268 -0.009884479 -0.028493438 0.02224107 -0.05207426
-0.036118437 9.505583e-05 0.0076198126 0.033780303 -0.031660818 -0.014954349 -0.011614424 -0.049437843
-0.015762193 -0.021369917 0.0142972665 0.018836051 -0.0058989297 0.008744837 -0.014251316 -0.019110879
0.014516952 0.002440073 -0.04641351 -0.0068462505 -0.013444394 -0.020495752 -0.003071839 0.0115128
0.017095458 0.0054554073 0.014938957 0.010257757 0.0026245294 -0.0023448244 -0.021092491 -0.015669813
-0.036386337 0.0067212973 0.003167011 -0.035449717 -0.010053034 -0.026555428 -0.03944432 -0.044597793
-0.020324806 -0.01532177 -0.01911959 -0.008308125 -0.034826025 -0.018446183 -0.041739605 -0.016894205
00000000: 3cd9 bb3c f4d1 14bd b227 2ebd 150a 3fbd
00000010: 4ae5 a5bc e60d 223c 135f a33c 6903 dfbc
00000020: 7cac 1fbc 3d67 35bd 6dc1 0bbd 9d22 64bc
00000030: 83f2 21bc 126b e9bc e832 b63c d24b 55bd
00000040: edf0 13bd b658 c738 9faf f93b 375d 0a3d
00000050: c6ae 01bd 1603 75bc 6d4a 3ebc 567f 4abd
00000060: b71f 81bc f70f afbc 153f 6a3c 104e 9a3c
00000070: cf4b c1bb 8146 0f3c 5a7e 69bc 6b8e 9cbc
00000080: 83d8 6d3c a2e9 1f3b 181c 3ebd 8356 e0bb
00000090: e045 5cbc b5e6 a7bc e850 49bb 2fa0 3c3c
000000a0: c60b 8c3c 46c3 b23b 87c2 743c 2710 283c
000000b0: 4c00 2c3b a0ab 19bb 29ca acbc fb5d 80bc
000000c0: d709 15bd 543e dc3b a18d 4f3b b933 11bd
000000d0: 7bb5 24bc c58a d9bc 5e90 21bd 2dac 36bd
000000e0: 3580 a6bc 2908 7bbc b0a0 9cbc cd1e 08bc
000000f0: bca5 0ebd 731c 97bc 26f7 2abd b765 8abc

sequential_5/conv2d_9/BiasAdd/ReadVariableOp f4 [64]
-0.059822593 -0.02504626 0.020457385 0.015979111 0.028679462 0.02683669 -0.017860213 0.06653584
0.02395613 -0.02508456 0.006609874 0.045611527 -0.032963198 0.031816963 0.02041734 -0.008759652
-0.03910458 -0.017318513 -0.026621016 -0.049245127 -0.011801641 -0.020803317 0.03650005 -0.0031598157
-0.028457543 0.008536383 -0.01710927 0.016440408 -0.0034001798 -0.031739 -0.012367637 0.024190687
-0.038282856 0.024498448 0.025103996 -0.007658245 -0.022591813 -0.023898128 -0.02314963 -0.02236752
-0.010806969 -0.0064135105 -0.0077362303 -0.025900785 0.007506198 -0.02404726 0.020324621 -0.019114608
0.025304638 -0.022519294 -0.01729861 0.006194818 -0.00933281 -0.051077053 0.043126445 -0.01724202
-0.026915293 -0.004502844 -0.0016937973 -0.11008845 -0.037482906 -0.01981015 -0.039789747 0.023492264
00000000: 8908 75bd d02d cdbc 3f96 a73c a0e6 823c
00000010: 31f1 ea3c 9ed8 db3c 954f 92bc f143 883d
00000020: a53f c43c 237e cdbc a497 d83b 27d3 3a3d
00000030: 6b04 07bd 8152 023d 4442 a73c a584 0fbc
00000040: 202c 20bd 8edf 8dbc 5114 dabc 42b5 49bd
00000050: ac5b 41bc b86b aabc 1481 153d e914 4fbb
00000060: cb1f e9bc 2fdc 0b3c bd28 8cbc 09ae 863c
00000070: 8dd5 5ebb c100 02bd a1a1 4abc 8c2b c63c
00000080: 7cce 1cbd f8b0 c83c e5a6 cd3c 04f2 fabb
00000090: 7712 b9bc 02c6 c3bc 4ba4 bdbc 173c b7bc
000000a0: b70f 31bc 6d28 d2bb 3480 fdbb e22d d4bc
000000b0: 8df6 f53b c2fe c4bc d27f a63c 3d96 9cbc
000000c0: ac4b cf3c 627a b8bc d1b5 8dbc e6fd ca3b
000000d0: a4e8 18bc 2c36 51bd 5ba5 303d 233f 8dbc
000000e0: 767d dcbc 988c 93bb 6802 deba 0e76 e1bd
000000f0: ad87 19bd e548 a2bc 93fa 22bd d972 c03c

sequential_5/conv2d_10/BiasAdd/ReadVariableOp f4 [64]
0.010824497 -0.031519376 -0.014844539 -0.022505857 -0.029855806 -0.012589481 0.011791435 0.0019957798
0.022004936 -0.031386808 -0.016846474 -0.012367871 0.016621673 -0.022155497 0.046702106 -0.063065775
0.056637336 -0.05479561 -0.015022087 0.027051061 -0.0032367476 0.020822097 -0.014447825 -0.047681246
-0.020076761 -0.016994918 -0.029834965 -0.039904848 0.036463812 -0.00698518 -0.0111986855 -0.031866454
0.03606883 -0.024982302 -0.022131238 -0.030263359 -0.01687551 -0.022833344 -0.011364963 -0.030941255
0.0134771 0.06545362 0.050217282 -0.008338503 0.03882023 0.030541353 -0.04031131 0.07368759
-0.042035807 -0.014776211 -0.029255375 0.031455424 -0.12769406 -0.025135448 -0.009707036 -0.011798135
0.027305689 0.03387221 -0.023242528 0.022374893 -0.0037768173 -0.031355817 -0.01059443 -0.01970231
00000000: 3b59 313c 761a 01bd 8236 73bc 345e b8bc
00000010: 2a94 f4bc 1c44 4ebc dd30 413c a1cb 023b
00000020: b243 b43c 748f 00bd 9e01 8abc 9ca2 4abc
00000030: 2d2a 883c 727f b5bc b54a 3f3d a128 81bd
00000040: 8dfc 673d 5d71 60bd 331f 76bc 309a dd3c
00000050: 9d1f 54bb 1a93 aa3c 92b6 6cbc 694d 43bd
00000060: 0578 a4bc ed38 8bbc 7568 f4bc 4473 23bd
00000070: 145b 153d f0e3 e4bb b17a 37bc 6686 02bd
00000080: e9bc 133d afa7 ccbc 924c b5bc ddea f7bc
00000090: 823e 8abc fe0c bbbc 1c34 3abc 8478 fdbc
000000a0: 0ecf 5c3c 8c0c 863d a3b0 4d3d 379e 08bc
000000b0: f601 1f3d dc31 fa3c 791d 25bd 85e9 963d
000000c0: bd2d 2cbd ec17 72bc f8a8 efbc 67d7 003d
000000d0: 3bc2 02be dbe8 cdbc 430a 1fbc f74c 41bc
000000e0: 2eb0 df3c 96bd 0a3d 1d67 bebc 8d4b b73c
000000f0: 7b84 77bb f56e 00bd 4394 2dbc bd66 a1bc

sequential_5/conv2d_11/BiasAdd/ReadVariableOp f4 [64]
0.050777446 -0.02959282 0.030513883 -0.023001201 -0.02194687 -0.0071061063 -0.007352689 0.07625042
0.040602006 -0.017250793 0.11690232 -0.035041213 -0.0497654 0.027526215 0.03424083 0.005683701
-0.005061974 0.016570289 -0.009810831 -0.07202957 -0.005704231 -0.023944916 -0.010336888 0.032741323
0.02643123 0.077959366 -0.020626128 0.053298086 -0.029657647 0.03672164 0.017285123 0.047272068
0.039627142 -0.0059038233 -0.039378114 0.11841315 0.04427853 -0.013972646 -0.018633567 -0.01344734
-0.010715627 0.012342197 0.00246049 -0.021416388 -0.021211904 -0.01871984 0.020584427 -0.009621527
-0.00941672 0.032872457 0.04388491 -0.008398762 -0.03380765 -0.035330392 0.02745691 0.03555906
-0.018943356 0.027820386 -0.00068104314 -0.021658134 -0.034281418 -0.02177498 -0.029287916 -0.013727853
00000000: 03fc 4f3d a46c f2bc 40f8 f93c 046d bcbc
00000010: ecc9 b3bc 57da e8bb d3ee f0bb 2e29 9c3d
00000020: 4a4e 263d 8951 8dbc 7c6a ef3d 6087 0fbd
00000030: ced6 4bbd a87e e13c 1d40 0c3d 573e ba3b
00000040: eade a5bb 6abe 873c 9cbd 20bc 3d84 93bd
00000050: 8fea babb 2128 c4bc 0d5c 29bc c41b 063d
00000060: 4f86 d83c 29a9 9f3d 20f8 a8bc 184f 5a3d
00000070: 98f4 f2bc 6e69 163d 8899 8d3c 5ba0 413d
00000080: 1250 223d dc74 c1bb f24a 21bd 9882 f23d
00000090: 675d 353d 86ed 64bc 6ca5 98bc 3b52 5cbc
000000a0: 9990 2fbc ed36 4a3c 2c40 213b 6c71 afbc
000000b0: 96c4 adbc 5a5a 99bc aca0 a83c 9ca3 1dbc
000000c0: 9648 1abc 45a5 063d aac0 333d f69a 09bc
000000d0: e479 0abd 9ab6 10bd 50ed e03c 60a6 113d
000000e0: 192f 9bbc 94e7 e33c 0888 32ba 666c b1bc
000000f0: ac6a 0cbd 7161 b2bc 36ed efbc caea 60bc

sequential_5/conv2d_7/Conv2D f4 [64, 2, 2, 64]
-0.05923507 -0.13857698 -0.029662281 0.020112105 -0.16825363 0.08284134 -0.027237497 -0.17536357
-0.046977863 -0.064496316 0.060815327 0.05414929 0.09944268 -0.04507095 -0.14033705 -0.04000591
-0.063827954 -0.016456587 -0.044897266 0.006105337 0.013480046 0.3249977 -0.047464997 0.015444375
-0.014394602 0.0059067532 0.08315674 -0.044114392 -0.069245726 0.070291586 -0.03540097 -0.089048095
0.008868544 -0.051907144 0.05269865 0.05995924 -0.14329429 0.039283715 0.018905023 -0.041399635
-0.097788654 -0.030501736 -0.17223525 0.032655064 -0.06940281 0.049484454 0.08786841 0.08104768
0.13192993 -0.13371822 -0.045763947 -0.035981897 -0.037058245 0.07994891 0.049682178 0.09544511
-0.0068664826 -0.0467521 0.17089535 0.005848075 0.10578728 -0.083958454 0.008197214 -0.07409815
0.055255063 -0.022206657 0.06893058 -0.05097565 -0.1631559 -0.029251171 -0.076017715 -0.10489442
-0.06397446 -0.10525318 -0.04560959 -0.010459202 0.13708423 -0.030801851 -0.16174094 -0.062025223
0.0010943924 -0.031658668 0.08182599 -0.046152554 -0.019610113 0.22714087 -0.08748661 0.034281477
-0.17197025 -0.085379004 0.050276183 0.0663127 -0.0126286 -0.09469462 -0.039438024 0.07459771
-0.097101666 0.0055590197 -0.12531115 -0.04317196 0.015150219 0.061748333 -0.020136744 -0.005501158
0.050605405 -0.041160397 -0.1679431 -0.110342674 -0.060705807 -0.039572626 0.03478031 -0.12302503
0.08660327 -0.16961265 -0.08297804 -0.034833644 -0.041586854 -0.026003283 0.06920871 0.036544945
0.04764756 0.1555447 0.17149554 -0.17339025 0.04317612 0.022716425 -0.072402015 -0.031454522
0.0005534692 -0.009940025 0.16787644 -0.059241038 -0.06482125 0.08559156 0.024725847 -0.09650401
-0.003913788 0.038729507 0.13898161 -0.03185579 0.09997004 -0.09531323 0.0710521 -0.082448766
-0.035304938 0.13925868 0.15228857 -0.05651738 0.028073821 0.17837076 0.040661108 0.0044630975
-0.13072708 0.009031855 0.14197488 -0.060685243 -0.068657905 0.049107585 0.07503288 0.09479184
0.061930194 0.05291619 0.036560185 -0.07229383 0.0940444 0.014308564 0.058533374 0.05852431
-0.08505885 -0.09264118 -0.13940485 0.07387444 -0.05839709 0.02520021 0.04093123 -0.06294951
-0.020868676 -0.12091308 -0.09355041 0.02217932 0.002825828 0.096869364 -0.022899345 0.025825232
-0.061815277 0.18422437 0.0791722 -0.10554111 0.043861765 0.047980506 0.033218224 -0.044694975
0.0019618266 0.052339796 0.20268182 -0.097462244 0.0068729906 0.16712837 0.081553645 0.029441562
0.027764598 -0.017830346 0.019157669 0.0041761594 -0.009990549 -0.06540618 -0.06364331 -0.037007242
0.16176558 0.12069631 0.0509793 0.054497678 -0.04834094 0.26525393 0.0068177395 -0.08121357
-0.124818444 -0.03557588 0.18467881 -0.05441179 0.12740973 0.054098163 0.038469575 0.08614949
0.096947774 0.0014029071 -0.015298327 -0.13143669 -0.0068838317 0.015040167 0.089731924 -0.06095113
-0.029249111 0.079388365 -0.057493374 0.12311231 -0.07491356 0.049912088 0.098353386 -0.056953
0.08532421 -0.21417062 -0.08826591 -0.067003146 -0.008371674 0.07480066 -0.018418116 0.09515906
0.11060561 0.1221907 0.031173455 0.07911922 -0.07728301 -0.06994278 0.11932996 0.10180605
00000000: 79a0 72bd 20e7 0dbe 50fe f2bc 24c2 a43c
00000010: ae4a 2cbe b8a8 a93d 2c21 dfbc 8292 33be
00000020: dc6b 40bd a516 84bd 7e19 793d a5cb 5d3d
00000030: 9ba8 cb3d 519c 38bd 84b4 0fbe 3ddd 23bd
00000040: 3bb8 82bd f7cf 86bc 32e6 37bd 470f c83b
00000050: 69db 5c3c 1966 a63e a86a 42bd 670a 7d3c
00000060: 56d7 6bbc 708d c13b 154e aa3d 4bb1 34bd
00000070: b4d0 8dbd 09f5 8f3d 9c00 11bd d95e b6bd
00000080: 5f4d 113c 969c 54bd 8ada 573d d297 753d
00000090: bdbb 12be f6e7 203d b5de 9a3c aa92 29bd
000000a0: 6b45 c8bd c7de f9bc 705e 30be 51c1 053d
000000b0: 0f23 8ebd 36b0 4a3d 5af4 b33d 53fc a53d
000000c0: a418 073e 6eed 08be fa72 3bbd c161 13bd
000000d0: 63ca 17bd 41bc a33d 8a7f 4b3d ba78 c33d
000000e0: 3b00 e1bb 217f 3fbd 31ff 2e3e 35a1 bf3b
000000f0: 00a7 d83d 69f2 abbd 9c4d 063c c5c0 97bd
00000100: 2253 623d bcea b5bc 7a2b 8d3d d8cb 50bd
00000110: 5712 27be 27a0 efbc 2daf 9bbd e3d2 d6bd
00000120: 0b05 83bd fb8e d7bd 1fd1 3abd 135d 2bbc
00000130: cf5f 0c3e 2a54 fcbc 6b9f 25be 290e 7ebd
00000140: b771 8f3a 85ac 01bd 6294 a73d 760a 3dbd
00000150: 63a5 a0bc 9e97 683e 2e2c b3bd bc6a 0c3d
00000160: f818 30be 30db aebd 66ee 4d3d f4ce 873d
00000170: 30e8 4ebc 41ef c1bd c489 21bd afc6 983d
00000180: 3ddd c6bd 7028 b63b 9151 00be 15d5 30bd
00000190: a038 783c d2eb 7c3d d0f5 a4bc 0f43 b4bb
000001a0: 9d47 4f3d ce97 28bd 47f9 2bbe 57fb e1bd
000001b0: a7a6 78bd e816 22bd cc75 0e3d 8cf4 fbbd
000001c0: 0e5d b13d f0ae 2dbe 64f0 a9bd b9ad 0ebd
000001d0: fa56 2abd d604 d5bc 4cbd 8d3d 27b0 153d
000001e0: 162a 433d 1c47 1f3e 879c 2f3e 378d 31be
000001f0: 71d9 303d cc17 ba3c 8247 94bd 75d6 00bd
00000200: b016 113a 7ddb 22bc cde7 2b3e bba6 72bd
00000210: 01c1 84bd a14a af3d dc8d ca3c e5a3 c5bd
00000220: 3c3f 80bb d5a2 1e3d 3251 0e3e 387b 02bd
00000230: 18bd cc3d 9533 c3bd c383 913d e6da a8bd
00000240: e99b 10bd d499 0e3e 89f1 1b3e c57e 67bd
00000250: 12fb e53c d3a6 363e 438c 263d 2d3f 923b
00000260: 52dd 05be 58fa 133c dd61 113e 1791 78bd
00000270: 849c 8cbd 0925 493d d7aa 993d 3922 c23d
00000280: 84aa 7d3d a6be 583d 22c0 153d ca0e 94bd
00000290: 5a9a c03d 786e 6a3c b1c0 6f3d 30b7 6f3d
000002a0: 5633 aebd a9ba bdbd 25c0 0ebe 7b4b 973d
000002b0: c931 6fbd ac70 ce3c 81a7 273d aceb 80bd
000002c0: c9f4 aabc 47a1 f7bd 5b97 bfbd 68b1 b53c
000002d0: 8731 393b 7263 c63d 6897 bbbc 708f d33c
000002e0: 0432 7dbd 50a5 3c3e 0925 a23d f025 d8bd
000002f0: 65a8 333d 3587 443d d50f 083d 1412 37bd
00000300: fd91 003b 4162 563d d38b 4f3e 499a c7bd
00000310: d336 e13b b323 2b3e 9905 a73d 6e2f f13c
00000320: 9572 e33c f210 92bc 8bf0 9c3c 2ad8 883b
00000330: 66af 23bc adf3 85bd 6c57 82bd e894 17bd
00000340: e0a5 253e a12f f73d accf 503d f538 5f3d
00000350: 2601 46bd 5dcf 873e 5867 df3b 4d53 a6bd
00000360: d0a0 ffbd 04b8 11bd 711c 3d3e e6de 5ebd
00000370: b277 023e 0996 5d3d 4692 1d3d 256f b03d
00000380: 8e8c c63d c0e1 b73a d6a5 7abc 5797 06be
00000390: c491 e1bb 086b 763c 5fc5 b73d e4a7 79bd
000003a0: d59b efbc 5e96 a23d 2c7e 6bbd 4f22 fc3d
000003b0: 486c 99bd 9e70 4c3d 806d c93d 8d47 69bd
000003c0: 76be ae3d 8b4f 5bbe c2c4 b4bd f238 89bd
000003d0: 5929 09bc 1731 993d 97e1 96bc c1e2 c23d
000003e0: 3285 e23d 1e3f fa3d 795f ff3c 4209 a23d
000003f0: 8e46 9ebd 293e 8fbd 4463 f43d b17f d03d

sequential_5/conv2d_8/Conv2D f4 [64, 3, 3, 64]
0.038877573 0.06555455 0.026052399 0.04017474 0.00055854925 -0.077346966 -0.007782461 -0.045770723
0.026940359 -0.08246464 -0.040968698 -0.044917345 -0.10828255 0.002502396 0.006629872 -0.0039909724
-0.015322283 -0.076988325 -0.017081065 0.044385985 0.108715475 0.018931758 -0.022368245 -0.04323256
-0.013825412 -0.0801379 -0.13258392 0.009033704 -0.0082755005 0.06802388 -0.12725486 -0.022053232
0.01520549 -0.0318332 -0.05416021 -0.015663465 0.049841635 -0.006666263 0.012671653 -0.024305206
-0.02275625 -0.021965494 0.018212415 -0.058500685 -0.004482249 0.062653825 -0.04861869 -0.09280601
-0.024009412 -0.05430167 -0.04979244 -0.01114951 -0.002302696 -0.10871805 0.06346072 0.0073722973
-0.058599714 -0.047702264 0.081634305 -0.021466935 -0.08363949 -0.018744519 0.013034714 -0.027226513
0.040811352 0.024124965 0.03559699 -0.002469847 -0.112717226 -0.06879836 0.032159306 0.06797867
0.050476685 0.03221609 -0.0022339153 0.046163153 -0.06803963 -0.11399961 0.06178076 0.03798199
0.0045226985 -0.022597047 0.03243703 -0.00082208426 -0.0038838394 -0.03563131 0.0036410934 -0.028369807
0.030214699 -0.07139189 -0.035684485 -0.05137379 -0.05122808 0.08535866 -0.04974578 0.010903765
0.05337917 -0.031306874 -0.0452933 -0.053457502 0.027032418 0.009241153 -0.07524326 0.006809235
-0.0011917991 0.034945834 0.006517407 -0.009627004 -0.062151093 -0.03247446 0.030981475 -0.053434648
-0.03532783 -0.10578835 0.030748583 -0.08743053 0.027995396 -0.15206985 -0.005037024 0.030572565
0.012592031 -0.035709128 -0.008552532 -0.023253838 -0.027397132 0.06492345 -0.08305495 -0.09118768
-0.10865936 -0.047143932 0.0076319375 -0.051048383 -0.05106468 -0.08724167 0.016586551 0.09185553
-0.04650458 -0.050209288 -0.028471889 -0.050700445 -0.08057906 -0.033728335 0.009250478 0.047216125
0.030091355 0.014911785 0.007374017 -0.029375141 0.095073216 -0.0613684 -0.0782483 -0.04055465
-0.077617325 -0.14768578 -0.14838423 -0.005311559 0.020926023 0.13238312 -0.06308892 0.0470995
-0.035454705 0.058380224 -0.081488445 -0.08875886 0.044432003 -0.04241699 -0.013196139 -0.030882603
0.028960098 0.026033984 -0.062163506 0.06978383 0.016939433 -0.022133967 -0.05660354 0.0011902858
0.06405758 -0.060773063 -0.05791141 0.0021144338 -0.030513769 -0.12333319 -0.013314431 -0.06873372
0.015046322 0.02320343 0.014349974 0.05357771 -0.11150319 0.04681018 -0.045234933 -0.1259384
-0.06621259 0.02986878 0.100220345 -0.018960642 -0.03965302 -0.022576194 0.005524505 0.05514726
0.02815661 -0.050326124 -0.041218564 -0.034571268 -0.08415881 -0.039737195 0.06856915 -0.043370854
0.0071936944 0.05385029 0.058504555 -0.013455065 -0.023136493 0.05255505 -0.053916853 -0.01723558
0.011426502 -0.049388092 -0.08285296 -0.0071972194 0.07139476 0.11726108 -0.026370574 0.047491528
0.005379434 -0.0022923965 -0.011771122 -0.051444877 -0.020710705 0.078034356 -0.026062232 -0.021885436
0.050385833 0.06422538 -0.001463969 0.044169385 0.014848394 0.1215278 0.02705141 -0.12936912
0.020006098 -0.0057376814 0.012990266 -0.13492557 -0.053942807 -0.14456207 0.11354199 0.05020349
-0.040389095 -0.076704524 -0.012932987 0.009808736 -0.015110772 0.008393353 -0.082827985 -0.04005154
00000000: 173e 1f3d 7741 863d d76b d53c 458e 243d
00000010: 9b6b 123a 1668 9ebd 0404 ffbb 157a 3bbd
00000020: 07b2 dc3c 39e3 a8bd cbce 27bd 40fb 37bd
00000030: 3ec3 ddbd 3dff 233b 663f d93b b4c6 82bb
00000040: 500a 7bbc 0eac 9dbd 97ed 8bbc 14ce 353d
00000050: 38a6 de3d c616 9b3c 9c3d b7bc a014 31bd
00000060: fb83 62bc 571f a4bd 14c4 07be 1a02 143c
00000070: f795 07bc 1b50 8b3d 194f 02be fba8 b4bc
00000080: 7320 793c 8863 02bd 19d7 5dbd ab50 80bc
00000090: be26 4c3d ab70 dabb c49c 4f3c b61b c7bc
000000a0: 516b babc fbf0 b3bc 3432 953c 6a9e 6fbd
000000b0: d4df 92bb a650 803d 6424 47bd 1411 bebd
000000c0: 63af c4bc 6e6b 5ebd 28f3 4bbd 6fac 36bc
000000d0: d4e8 16bb 92a7 debd b2f7 813d 5093 f13b
000000e0: 4106 70bd 7363 43bd e32f a73d 6ddb afbc
000000f0: 2e4b abbd 1b8e 99bc 8e8f 553c 230a dfbc
00000100: ce29 273d b8a1 c53c 26ce 113d 28dd 21bb
00000110: 4ad8 e6bd 28e6 8cbd 7ab9 033d 6738 8b3d
00000120: a4c0 4e3d 05f5 033d e166 12bb 9315 3d3d
00000130: 5d58 8bbd a178 e9bd d20d 7d3d 0193 1b3d
00000140: 2533 943b 711d b9bc b1dc 043d 2481 57ba
00000150: 0388 7ebb 23f2 11bd 699f 6e3b cc67 e8bc
00000160: d184 f73c e935 92bd e529 12bd 536d 52bd
00000170: 89d4 51bd 85d0 ae3d 3bc2 4bbd b5a5 323c
00000180: 1ea4 5a3d a33b 00bd 7885 39bd 41f6 5abd
00000190: 1773 dd3c 3468 173c 2319 9abd 0120 df3b
000001a0: 2436 9cba 5d23 0f3d f98f d53b 95ba 1dbc
000001b0: 2592 7ebd f003 05bd ddcc fd3c 4ade 5abd
000001c0: eab3 10bd 90a7 d8bd 74e4 fb3c c70e b3bd
000001d0: 9a56 e53c 33b8 1bbe 9f0d a5bb 5173 fa3c
000001e0: ce4e 4e3c bc43 12bd eb1f 0cbc d57e bebc
000001f0: f36f e0bc 96f6 843d b718 aabd 9bc0 babd
00000200: cc88 debd ff19 41bd 5515 fa3b 1c18 51bd
00000210: 3329 51bd c3ab b2bd 85e0 873c c11e bc3d
00000220: 967b 3ebd 41a8 4dbd e13d e9bc 45ab 4fbd
00000230: a206 a5bd b926 0abd 518f 173c b265 413d
00000240: 2582 f63c 8f50 743c bda1 f13b 23a4 f0bc
00000250: bfb5 c23d 6e5d 7bbd a540 a0bd a21c 26bd
00000260: d5f5 9ebd f13a 17be 09f2 17be 960c aebb
00000270: 0d6d ab3c 718f 073e c434 81bd 68eb 403d
00000280: f438 11bd 1a20 6f3d 6ae3 a6bd 35c7 b5bd
00000290: 55fe 353d 70bd 2dbd 9e34 58bc 83fd fcbc
000002a0: ba3d ed3c 3945 d53c 299f 7ebd d3ea 8e3d
000002b0: 91c4 8a3c 4b52 b5bc 1dd9 67bd 5d03 9c3a
000002c0: 9f30 833d 2ded 78bd 8434 6dbd 5092 0a3b
000002d0: 03f8 f9bc 1d96 fcbd c524 5abc 44c4 8cbd
000002e0: d984 763c 1f15 be3c 271c 6b3c 4d74 5b3d
000002f0: c95b e4bd 08bc 3f3d 4448 39bd fff5 00be
00000300: 779a 87bd 5faf f43c 5340 cd3d 5953 9bbc
00000310: 356b 22bd b6f1 b8bc e806 b53b 18e2 613d
00000320: b1a8 e63c c422 4ebd ccd4 28bd 9a9a 0dbd
00000330: 745b acbd 78c3 22bd fc6d 8c3d a3a5 31bd
00000340: 15b9 eb3b 1f92 5c3d 79a2 6f3d a272 5cbc
00000350: be88 bdbc f743 573d ebd7 5cbd a231 8dbc
00000360: 3936 3b3c 2b4b 4abd d0ae a9bd a7d6 ebbb
00000370: 6a37 923d 9426 f03d 1a07 d8bc 7a86 423d
00000380: f745 b03b 083c 16bb aadb 40bc ddb7 52bd
00000390: 7fa9 a9bc 7ad0 9f3d 7680 d5bc 1649 b3bc
000003a0: 6061 4e3d 9988 833d a6e2 bfba f5ea 343d
000003b0: ae46 733c 91e3 f83d eb9a dd3c 5779 04be
000003c0: d4e3 a33c 2903 bcbb 20d5 543c ee29 0abe
000003d0: 22f3 5cbd 1408 14be b488 e83d 2da2 4d3d
000003e0: 096f 25bd 4317 9dbd e1e4 53bc d2b4 203c
000003f0: 2c93 77bc 4684 093c b8a1 a9bd 150d 24bd

sequential_5/conv2d_9/Conv2D f4 [64, 2, 2, 64]
0.094770476 -0.11787552 0.088796414 -0.0013221907 -0.0058698948 -0.123770244 -0.06635779 0.010253754
0.0162001 0.047018137 -0.03475101 0.07889901 -0.037901692 0.003086673 0.01975308 0.046025693
0.11256645 -0.0016033485 0.0465463 -0.047360383 0.017197622 -0.055916328 0.001046963 0.07228556
-0.08673642 0.036876094 0.013695574 -0.012281986 -0.025680188 0.048713334 0.014640436 0.0022361795
-0.13449955 0.039789427 -0.08872474 -0.0815128 0.05318534 0.0092271045 -0.09724466 0.06795294
-0.052790355 -0.080467306 0.055414062 -0.056394406 -0.029811906 0.024233274 0.094374016 -0.06971426
0.008888687 -0.055389725 -0.1570054 0.06627075 0.057302482 -0.04046064 -0.009161017 0.04672113
-0.08960154 -0.09155195 -0.002676056 0.07774276 -0.075567074 -0.06745509 -0.04568298 0.0073946454
0.0028915051 -0.108098574 -0.028862698 0.078419365 -0.103211425 0.022190195 -0.10757974 -0.054543197
0.08877934 -0.03748221 0.06198791 -0.081691615 0.0013776502 -0.03804826 -0.101745255 0.12745206
0.11248844 -0.04001708 -0.123552926 0.0419178 -0.07142404 -0.09187884 -0.026385877 0.04148067
0.06804282 -0.1329929 0.039442666 0.05138803 0.0019598345 0.041861333 0.07575055 0.0014382427
-0.009472644 -0.08030195 0.055022065 0.05595673 -0.009989655 -0.021464406 0.025277853 -0.009501142
-0.024082012 -0.09113479 -0.012632689 -0.073723376 -0.02487835 -0.10777207 -0.037559412 -0.03932793
-0.10410759 -0.07097599 -0.037080955 0.065122545 -0.062984794 0.016941031 0.080182455 -0.012200133
-0.089858636 -0.042034626 -0.0044953558 0.08617699 0.012923479 -0.059184194 0.039454117 -0.019546516
0.027875787 -0.07088249 -0.05949694 0.018519634 -0.043678895 -0.03538303 -0.08043416 -0.11446428
-0.032224406 0.009957282 -0.08998022 0.0019456103 0.07855746 0.020829458 0.0060436307 -0.0237926
0.021179765 0.117110506 -0.11907585 0.07836579 -0.07851449 0.08440948 0.009408702 -0.073765196
0.07286726 0.0025718024 0.018824315 -0.0943684 -0.034785964 0.045218125 0.09420744 -0.076950304
-0.044363014 -0.07720961 -0.09006791 -0.009960524 0.05540929 0.062957324 -0.0023504733 0.07039842
0.10271329 0.025600297 -0.13282256 0.053487144 0.061103858 0.02878637 0.019550774 0.06286419
0.02106023 0.034194723 -0.12692022 -0.006284665 -0.024791317 -0.025960304 -0.033137128 -0.0638176
-0.055785194 -0.018370388 -0.09470566 0.06995089 0.038179114 0.054686066 0.066768825 0.056713637
0.048131622 -0.017607907 -0.0024256816 0.03863643 -0.09628279 -0.07246764 -0.0018486043 0.031240404
-0.024321381 0.024197971 -0.010496051 -0.053821635 -0.11311396 -0.012118987 -0.022222036 0.13439432
-0.0140968785 -0.055141553 -0.07809091 0.027770733 -0.015080203 0.038036745 0.010620606 0.041166935
-0.011291177 -0.10947251 -0.07441485 -0.038660884 -0.091253735 -0.13764857 0.10669529 0.03440003
-0.014662189 -0.056301903 -0.062035445 -0.08573706 -0.0140288975 0.09796707 0.053401798 -0.09882225
0.07429912 -0.092546806 0.03792693 -0.085908644 -0.06607365 -0.107405916 0.05909735 0.03720876
-0.032441482 -0.03891095 0.07963571 0.06411808 0.021728612 0.10094752 0.030481085 0.024584904
0.012634852 -0.07792783 0.012287478 -0.025682347 -0.04290188 -0.070539095 0.074826635 -0.044977736
00000000: 0617 c23d b868 f1bd e5da b53d 5c4d adba
00000010: 3f58 c0bb 417b fdbd 98e6 87bd 5dff 273c
00000020: 12b6 843c 1796 403d 1357 0ebd ce95 a13d
00000030: ce3e 1bbd c849 4a3b 36d1 a13c 7085 3c3d
00000040: 3d89 e63d 7327 d2ba 55a7 3e3d f6fc 41bd
00000050: 07e2 8c3c 8508 65bd 403a 893a 740a 943d
00000060: dda2 b1bd 630b 173d 6763 603c 623a 49bc
00000070: 425f d2bc a287 473d 70de 6f3c de8c 123b
00000080: 40ba 09be 3dfa 223d 51b5 b5bd 2ff0 a6bd
00000090: dfd8 593d 482d 173c 3528 c7bd e92a 8b3d
000000a0: b33a 58bd 0bcc a4bd dbf9 623d d2fd 66bd
000000b0: 1938 f4bc dc84 c63c 2a47 c13d 5ac6 8ebd
000000c0: dba1 113c 56e0 62bd 06c6 20be f5b8 873d
000000d0: 02b6 6a3d 0eba 25bd 1718 16bc a85e 3f3d
000000e0: 0381 b7bd 977f bbbd c560 2fbb 9937 9f3d
000000f0: e9c2 9abd e525 8abd 141e 3bbd c84e f23b
00000100: 687f 3d3b c962 ddbd 7771 ecbc 559a a03d
00000110: 8360 d3bd 36c8 b53c c452 dcbd b068 5fbd
00000120: f1d1 b53d f286 19bd 09e7 7d3d ef4d a7bd
00000130: 4592 b43a 7ed8 1bbd d15f d0bd cb82 023e
00000140: 5760 e63d f3e8 23bd 5109 fdbd 00b2 2b3d
00000150: c446 92bd f92a bcbd 3227 d8bc a3e7 293d
00000160: 095a 8b3d 4a2f 08be a28e 213d 417c 523d
00000170: 9170 003b ca76 2b3d 1b23 9b3d 6b83 bc3a
00000180: 2633 1bbc 5975 a4bd d15e 613d e232 653d
00000190: a6ab 23bc 1fd6 afbc 8013 cf3c aeaa 1bbc
000001a0: a447 c5bc e0a4 babd 57f9 4ebc 48fc 96bd
000001b0: aecd cbbc 9ab7 dcbd e6d7 19bd 5316 21bd
000001c0: 5c36 d5bd dc5b 91bd 33e2 17bd f85e 853d
000001d0: 2cfe 80bd ebc7 8a3c b336 a43d 11e3 47bc
000001e0: ce07 b8bd 802c 2cbd c74d 93bb 907d b03d
000001f0: 00bd 533c 206b 72bd a49a 213d 0420 a0bc
00000200: c35b e43c d72a 91bd 10b3 73bd 7db6 973c
00000210: a4e8 32bd cced 10bd aaba a4bd 406c eabd
00000220: bdfd 03bd de23 233c 8d47 b8bd d903 ff3a
00000230: bce2 a03d 8aa2 aa3c a609 c63b b3e8 c2bc
00000240: 3081 ad3c a2d7 ef3d 0ade f3bd 3e7e a03d
00000250: 34cc a0bd e1de ac3d f526 1a3c 3512 97bd
00000260: 6e3b 953d af8b 283b 7335 9a3c 3844 c1bd
00000270: ba7b 0ebd a436 393d d5ef c03d 1f98 9dbd
00000280: feb5 35bd 1220 9ebd 8675 b8bd 7731 23bc
00000290: daf4 623d c5ef 803d 660a 1abb 0c2d 903d
000002a0: 585b d23d b7b7 d13c a302 08be 5615 5b3d
000002b0: 0a48 7a3d 65d1 eb3c f228 a03c f1be 803d
000002c0: 8186 ac3c c40f 0c3d 60f7 01be 97ef cdbb
000002d0: 2917 cbbc b4aa d4bc ccba 07bd cdb2 82bd
000002e0: 047f 64bd 7f7d 96bc 0bf5 c1bd 6a42 8f3d
000002f0: b461 1c3d 7ffe 5f3d 18be 883d 8f4c 683d
00000300: aa25 453d 753e 90bc 2ff8 1ebb 3c41 1e3d
00000310: e92f c5bd ea69 94bd de4c f2ba e0eb ff3c
00000320: a23d c7bc d33a c63c a1f7 2bbc 1374 5cbd
00000330: 4ba8 e7bd b78e 46bc fd0a b6bc aa9e 093e
00000340: 98f6 66bc 1cdc 61bd 21ee 9fbd 737f e33c
00000350: f512 77bc 6bcc 1b3d 0d02 2e3c a99e 283d
00000360: a1fe 38bc 2033 e0bd d066 98bd e05a 1ebd
00000370: 3de3 babd bff3 0cbe 0f83 da3d 0ce7 0c3d
00000380: ae39 70bc d39c 66bd e118 7ebd e996 afbd
00000390: 76d9 65bc f6a2 c83d d8bb 5a3d 5263 cabd
000003a0: 232a 983d 2e89 bdbd 4559 1b3d dff0 afbd
000003b0: 9f51 87bd a2f7 dbbd 1010 723d 3668 183d
000003c0: 5ce1 04bd 1761 1fbd 0c18 a33d 5750 833d
000003d0: 3400 b23c 93bd ce3d 78b3 f93c 4866 c93c
000003e0: 6902 4f3c a098 9fbd 6b51 493c c963 d2bc
000003f0: e2b9 2fbd cd76 90bd b53e 993d 933a 38bd

sequential_5/conv2d_10/Conv2D f4 [64, 2, 2, 64]
-0.015213307 -0.005613843 0.10665035 0.037524544 -0.09809891 -0.08838142 -0.04424127 0.08746145
0.17404327 0.06267608 -0.08031471 0.055156074 0.08636652 -0.012520771 0.08744286 -0.12359151
-0.040175065 0.18823837 0.014981486 -0.058168348 0.12141692 0.098589614 0.0007925319 0.17783445
0.038855135 0.08339647 -0.0006847653 0.0819461 0.08068911 -0.086883515 0.062399734 -0.06546598
0.1473848 0.11287686 0.027366659 -0.009508508 0.040665444 -0.017797647 -0.040107578 0.107033364
-0.015925996 0.27668816 -0.005136605 -0.021136831 0.09785316 -0.12925442 0.029115178 0.021511165
-0.07208176 0.12003117 0.054644044 -0.0048842747 -0.0002672989 -0.077418365 -0.11591405 -0.022847775
-0.044454362 -0.097846866 0.010781679 -0.15248227 -0.011939758 0.21498781 0.042695977 -0.10889482
-0.037062537 0.050396014 0.0024473476 0.04472003 -0.101827 0.025194831 -0.060357865 -0.031291656
-0.018573713 0.019610869 0.053208996 0.008648336 0.10653547 -0.09158088 0.052506737 -0.014614821
0.006246894 0.12132458 -0.05346553 0.08146413 0.14528106 0.07707229 0.0013332369 0.112338506
0.017826151 0.011998223 -0.019977635 0.020277811 0.059639264 0.05809845 0.1634305 -0.01868538
0.11543651 0.03948643 0.032705866 -0.02295538 -0.058839735 -0.027455758 0.017233001 -0.019226357
-0.038165327 0.14126472 -0.00025629447 -0.055077676 0.012138219 0.080862366 -0.047862984 0.054295607
-0.029971458 -0.007923242 0.026042646 0.023599079 0.039509907 0.00018536599 -0.06477711 0.09354103
-0.052591145 -0.0063893045 0.13221377 -0.13777362 0.045475386 0.06861936 0.04658784 0.0187704
0.056262698 0.014176175 0.03239522 0.06479006 -0.052316397 -0.09890071 -0.06857701 0.08187727
-0.10305724 0.0404501 -0.0010844128 -0.07222078 0.015253187 0.052310135 0.026165592 0.12445051
0.040412016 -0.06424088 -0.09578267 0.009638699 0.025050316 0.053068403 0.07033341 -0.124771394
-0.06572596 0.0016878528 -0.0082175005 -0.027916683 0.07359011 0.0952912 -0.06211016 -0.054568663
0.095595464 0.051267028 -0.047950685 0.0064558242 0.10171313 0.08357511 0.024441188 -0.06139888
-0.021244945 -0.12517802 0.06756266 -0.1259918 -0.011919573 0.07466864 -0.08796433 -0.06927251
0.10482718 -0.09944782 -0.00819953 -0.041661564 0.06150064 -0.005235175 -0.047663976 -0.060415465
-0.060167767 -0.07666236 -0.11098727 -0.21772526 -0.07894027 -0.00839185 0.09183252 -0.01689264
0.07934554 -0.14532351 -0.10993832 -0.015543262 -0.103288956 -0.1085135 0.022308655 -0.11873405
-0.12583469 0.019794164 0.07127835 -0.15876324 -0.10674367 -0.059832655 0.0031019775 -0.021630613
-0.0015362714 -0.14301242 -0.034460675 -0.0736908 -0.067803055 0.08769829 0.055011842 -0.14911687
-0.07140749 -0.0063071605 -0.07972607 0.007494893 0.086008415 0.06124085 -0.13540137 0.06794118
0.09935241 0.081527114 -0.07505368 0.083355755 -0.07116832 -0.10595342 -0.06552853 0.09204878
-0.051240407 -0.07295251 0.056768153 0.018501695 0.04905512 0.05973425 -0.037970155 -0.15367013
0.018157443 -0.116113394 -0.03813838 -0.08826372 -0.07657309 0.025883993 0.081197806 0.04047558
-0.012260725 -0.07829169 -0.15377706 -0.18194906 -0.11022597 -0.12638661 -0.020876054 0.046368595
00000000: 3c41 79bc 54f4 b7bb 806b da3d 56b3 193d
00000010: 15e8 c8bd 5101 b5bd 5536 35bd fd1e b33d
00000020: 6638 323e 515c 803d 0a7c a4bd 56eb 613d
00000030: eee0 b03d eb23 4dbc 3e15 b33d 8c1d fdbd
00000040: 9c8e 24bd 8fc1 403e e874 753c ef41 6ebd
00000050: 6fa9 f83d 5ae9 c93d eac1 4f3a 3c1a 363e
00000060: 9026 1f3d c5cb aa3d d281 33ba 5bd3 a73d
00000070: 5540 a53d fcef b1bd dd96 7f3d 0713 86bd
00000080: 0aec 163e fc2b e73d 0b30 e03c 93c9 1bbc
00000090: cf90 263d 5fcc 91bc d847 24bd 4f34 db3d
000000a0: 3c77 82bc 12aa 8d3e f750 a8bb 2627 adbc
000000b0: 3d67 c83d 455b 04be f482 ee3c 2f38 b03c
000000c0: 9a9f 93bd e7d2 f53d 6fd2 5f3d 440c a0bb
000000d0: 4024 8cb9 858d 9ebd 5864 edbd 422b bbbc
000000e0: c715 36bd f063 c8bd a4a5 303c 5024 1cbe
000000f0: fa9e 43bc c425 5c3e fae1 2e3d 3f04 dfbd
00000100: e3ce 17bd 0d6c 4e3d ae63 203b 5a2c 373d
00000110: ad8a d0bd 6465 ce3c cf39 77bd ae2b 00bd
00000120: e627 98bc f9a6 a03c adf1 593d c0b1 0d3c
00000130: 452f da3d c28e bbbd 4e11 573d 0173 6fbc
00000140: bfb2 cc3b 0579 f83d acfe 5abd aad6 a63d
00000150: 8fc4 143e 14d8 9d3d 02c0 ae3a bb11 e63d
00000160: 2608 923c 3294 443c 23a8 a3bc a71d a63c
00000170: 4d48 743d a4f8 6d3d 535a 273e 1512 99bc
00000180: fa69 ec3d 86bc 213d 96f6 053d ec0c bcbc
00000190: ef01 71bd e6ea e0bc 392c 8d3c 9880 9dbc
000001a0: 3f53 1cbd b3a7 103e 435f 86b9 2199 61bd
000001b0: 61df 463c 2b9b a53d fa0b 44bd 1265 5e3d
000001c0: b486 f5bc 7cd0 01bc 6357 d53c db52 c13c
000001d0: 24d5 213d ce5e 4239 dda9 84bd 7192 bf3d
000001e0: d069 57bd 5f5d d1bb 0c63 073e 8714 0dbe
000001f0: 6644 3a3d 4f88 8c3d e4d2 3e3d 62c4 993c
00000200: b773 663d 3043 683c dab0 043d a7b0 843d
00000210: b849 56bd 758c cabd 1a72 8cbd 45af a73d
00000220: ad0f d3bd 01af 253d db22 8eba 7de8 93bd
00000230: 81e8 793c 2743 563d 3959 d63c e9df fe3d
00000240: 1287 253d b990 83bd b429 c4bd a2eb 1d3c
00000250: 5236 cd3c 415e 593d f60a 903d 2588 ffbd
00000260: 559b 86bd f13a dd3a b2a2 06bc 87b1 e4bc
00000270: 69b6 963d 0828 c33d 3967 7ebd 6483 5fbd
00000280: 8ec7 c33d 60fd 513d f067 44bd 618b d33b
00000290: f94e d03d 6d29 ab3d e338 c83c 647d 7bbd
000002a0: e109 aebc ab2e 00be 4b5e 8a3d ff03 01be
000002b0: 504a 43bc dfeb 983d a526 b4bd bfde 8dbd
000002c0: a2af d63d 4cab cbbd 5257 06bc 51a5 2abd
000002d0: 18e8 7b3d d58b abbb 4d3b 43bd 3576 77bd
000002e0: 7a72 76bd 2801 9dbd 4b4d e3bd 5ff3 5ebe
000002f0: 70ab a1bd f87d 09bc b012 bc3d 6f62 8abc
00000300: ea7f a23d b0cf 14be 5827 e1bd 2aa9 7ebc
00000310: 2989 d3bd 533c debd a4c0 b63c d62a f3bd
00000320: cfda 00be 5f27 a23c 62fa 913d d592 22be
00000330: 6d9c dabd 1613 75bd 8c4a 4b3b af32 b1bc
00000340: b75c c9ba d971 12be a326 0dbd 34eb 96bd
00000350: 54dc 8abd 299b b33d 1954 613d 18b2 18be
00000360: 173e 92bd 4cac cebb 6c47 a3bd b897 f53b
00000370: 2e25 b03d afd7 7a3d a8a6 0abe bf24 8b3d
00000380: 4779 cb3d b0f7 a63d beb5 99bd 6cb6 aa3d
00000390: b2c0 91bd 1bfe d8bd d233 86bd 1284 bc3d
000003a0: 76e1 51bd 2068 95bd b985 683d de90 973c
000003b0: 06ee 483d e7ab 743d 9886 1bbd b45b 1dbe
000003c0: ebbe 943c dccc edbd fd36 1cbd 9cc3 b4bd
000003d0: 5ad2 9cbd ab0a d43c 094b a63d b9c9 253d
000003e0: 35e1 48bc 6557 a0bd bc77 1dbe db50 3abe
000003f0: 27be e1bd 7e6b 01be 4204 abbc ffec 3d3d

sequential_5/conv2d_11/Conv2D f4 [64, 2, 2, 64]
-0.060412172 -0.022492718 0.048989233 -0.029115615 0.052475303 0.06764281 -0.050186586 -0.0972092
-0.1377927 -0.0018863934 0.07403404 0.024371102 -0.085059926 -0.06013529 -0.16562584 0.04085867
0.008483162 0.12882982 0.10788025 -0.141415 0.07187389 -0.023689074 -0.050978344 -0.02757037
0.13359906 -0.09912247 -0.015803726 0.08493918 -0.044259526 0.09085372 -0.071390815 -0.10725474
-0.1582936 0.09162117 -0.07155465 0.08730448 0.020762473 0.054643977 0.008288724 -0.12570992
-0.052769873 -0.11181963 0.06872071 0.058342036 0.019788558 -0.12526354 -0.029966123 -0.055052232
0.017428888 -0.03137045 -0.024980336 -0.13540049 -0.14857954 0.04996686 0.07751161 0.020685626
-0.06366459 -0.05266695 0.06318618 -0.06449786 0.12376522 0.018321574 -0.06286984 0.034234844
0.024579175 0.063588575 0.10121847 -0.01814405 -0.010947065 0.057728127 -0.035472587 -0.009664936
0.06000054 -0.04950286 -0.044902623 0.1047314 -0.10654668 0.011714406 -0.08442833 -0.082532376
-0.07435745 0.007624716 -0.00306266 -0.034625445 0.1275066 0.03942354 -0.08205186 0.06787789
-0.06060035 -0.082082994 0.08288146 0.009348594 0.0373692 0.030350264 0.023334876 -0.051664416
-0.08088581 -0.079186276 -0.06109008 0.0374494 -0.066570476 0.040563714 -0.11933373 -0.022250462
-0.0546353 -0.0932312 -0.019548448 -0.09731119 -0.094605505 0.042865623 -0.030203147 0.01969702
-0.0487364 0.027737565 -0.07228989 -0.079299875 -0.038518257 -0.02075844 -0.025783772 0.022928623
0.10538761 0.07488624 0.019182038 -0.099937536 0.06957801 0.07386652 -0.07312416 0.014167848
-0.06926432 0.073095866 0.10915723 -0.08072259 -0.15628438 -0.032831974 0.18274619 0.055017415
-0.013249572 0.08066022 0.030447386 -0.023968533 -0.026576685 0.07302297 0.059481084 0.089588955
0.061847456 0.028336048 -0.012495686 -0.007578757 -0.010693909 0.05356147 -0.0022301767 0.015507944
-0.0599377 -0.06717964 0.051807106 0.06253375 -0.030904671 0.030946964 -0.099255994 0.0018051859
0.076552145 0.03836872 -0.086423434 -0.079131566 -0.04107594 -0.013749591 0.050710067 -0.0052108853
0.109863296 0.027046558 0.00019787606 0.01987202 0.100016676 0.038431454 -0.00022674017 0.043734245
-0.104705974 0.026179435 -0.031192008 0.093270235 0.0034789043 -0.041573726 0.08996077 0.067755714
0.032132067 0.054860715 0.055766646 0.09740434 0.047362 -0.12940738 0.05148933 0.12282563
-0.03585427 -0.06536571 -0.022265008 -0.16793852 -0.1770551 0.09074476 -0.072247185 0.06911353
-0.10830083 0.02643049 0.11226322 -0.0027003011 0.07987317 0.05511528 -0.085207336 0.00065453415
0.009558183 0.06883304 -0.07525126 0.12220734 -0.046536382 0.014127201 0.09567408 -0.11831335
-0.040748183 -0.048246592 0.084720865 -0.030189773 0.11616018 0.003919039 -0.056183856 0.059773635
0.060141355 -0.04053345 0.04669326 0.035574652 -0.08656821 0.055350617 -0.04929701 -0.07771991
0.048905015 0.10810165 -0.054008536 -0.09075279 -0.07284218 0.06871475 -0.16115673 0.08641997
0.04836506 0.04781869 -0.015549486 -0.07442276 -0.015172985 -0.0761358 0.040506035 -0.039667767
0.02218978 0.07631549 -0.10618618 0.007124952 0.0045005726 0.009172338 -0.06207257 0.0001499122
00000000: c172 77bd a642 b8bc efa8 483d df83 eebc
00000010: 58f0 563d 5088 8a3d 7390 4dbd 9e15 c7bd
00000020: 8819 0dbe dc40 f7ba 299f 973d e8a5 c73c
00000030: e633 aebd 6c50 76bd d299 29be 6c5b 273d
00000040: f6fc 0a3c f7eb 033e 52f0 dc3d 18cf 10be
00000050: 9e32 933d 970f c2bc abce 50bd 42db e1bc
00000060: 31ce 083e b900 cbbd d176 81bc 98f4 ad3d
00000070: 7a49 35bd 8411 ba3d 5935 92bd 60a8 dbbd
00000080: b817 22be e1a3 bb3d 3f8b 92bd b1cc b23d
00000090: 1016 aa3c 5dd2 5f3d 6ecd 073c 1aba 00be
000000a0: 3925 58bd b101 e5bd 72bd 8c3d 0ff8 6e3d
000000b0: 9d1b a23c 1645 00be 847b f5bc 737e 61bd
000000c0: 07c7 8e3c 4d7e 00bd 90a3 ccbc 6da6 0abe
000000d0: 3c25 18be 0daa 4c3d 68be 9e3d e774 a93c
000000e0: 9562 82bd 4db9 57bd c267 813d 7417 84bd
000000f0: 9f78 fd3d 2017 963c e7c1 80bd d639 0c3d
00000100: 445a c93c ba3a 823d a14b cf3d d5a2 94bc
00000110: 525b 33bc 5474 6c3d b44b 11bd ae59 1ebc
00000120: 20c3 753d 83c3 4abd d0eb 37bd 6b7d d63d
00000130: 2535 dabd c8ed 3f3c c3e8 acbd bc06 a9bd
00000140: b848 98bd c1d8 f93b e9b6 48bb 69d3 0dbd
00000150: 1791 023e 947a 213d ce0a a8bd 9003 8b3d
00000160: 1338 78bd 211b a8bd c1bd a93d d82a 193c
00000170: 7210 193d 1ea1 f83c c828 bf3c 119e 53bd
00000180: 76a7 a5bd 6a2c a2bd 9739 7abd 8b64 193d
00000190: 1a56 88bd 2326 263d 3e65 f4bd 9a46 b6bc
000001a0: 44c9 5fbd 00f0 bebd 1124 a0bc 174b c7bd
000001b0: 88c0 c1bd dd93 2f3d 976c f7bc a55b a13c
000001c0: d29f 47bd e439 e33c b90c 94bd f967 a2bd
000001d0: 52c5 1dbd 9b0d aabc 7d38 d3bc cfd4 bb3c
000001e0: 76d5 d73d f55d 993d a623 9d3c 0dac ccbd
000001f0: ea7e 8e3d 5447 973d 1fc2 95bd 4320 683c
00000200: 74da 8dbd 49b3 953d d38d df3d e351 a5bd
00000210: 0309 20be d27a 06bd d121 3b3e f159 613d
00000220: bc14 59bc 2f31 a53d cc6c f93c a859 c4bc
00000230: 59b7 d9bc 118d 953d 70a2 733d 6a7a b73d
00000240: c253 7d3d 0021 e83c b5ba 4cbc 3957 f8bb
00000250: 8135 2fbc 4663 5b3d 2828 12bb 0815 7e3c
00000260: 3c81 75bd 7b95 89bd b033 543d b211 803d
00000270: cb2b fdbc 7d84 fd3c ba46 cbbd fd9b ec3a
00000280: 5fc7 9c3d 8528 1d3d c5fe b0bd bb0f a2bd
00000290: 3f3f 28bd f745 61bc 5cb5 4f3d 13c0 aabb
000002a0: 0200 e13d be90 dd3c f37c 4f39 a6ca a23c
000002b0: 8bd5 cc3d 4d6a 1d3d 1ac1 6db9 ae22 333d
000002c0: 1670 d6bd 4176 d63c 6286 ffbc 7704 bf3d
000002d0: 54fe 633b 3649 2abd 5a3d b83d 82c3 8a3d
000002e0: ea9c 033d a1b5 603d 916b 643d ed7b c73d
000002f0: a8fe 413d 5e83 04be 7ae6 523d 018c fb3d
00000300: eddb 12bd 75de 85bd 1b65 b6bc 13f8 2bbe
00000310: ef4d 35be 64d8 b93d 55f6 93bd 658b 8d3d
00000320: d3cc ddbd c184 d83c 42ea e53d 89f7 30bb
00000330: 8b94 a33d 8fc0 613d 2f81 aebd 0b95 2b3a
00000340: ed99 1c3c 56f8 8c3d 551d 9abd d847 fa3d
00000350: ef9c 3ebd c775 673c c6f0 c33d 454e f2bd
00000360: 91e7 26bd 389e 45bd 2282 ad3d 8b50 f7bc
00000370: 63e5 ed3d 486b 803b 0b21 66bd 33d5 743d
00000380: c856 763d 6706 26bd 6f41 3f3d bab6 113d
00000390: ac4a b1bd 54b7 623d a9eb 49bd 9e2b 9fbd
000003a0: a050 483d 6664 dd3d 0e38 5dbd 99dc b9bd
000003b0: 482e 95bd 52ba 8c3d 4506 25be f4fc b03d
000003c0: 711a 463d 88dd 433d 45c3 7ebc f66a 98bd
000003d0: 1d98 78bc 16ed 9bbd a8e9 253d ab7a 22bd
000003e0: 57c7 b53c 4c4b 9c3d 2478 d9bd 6e78 e93b
000003f0: 8a79 933b 9347 163c cf3f 7ebd c031 1d39

sequential_5/dense_3/BiasAdd/ReadVariableOp f4 [2]
0.0035804347 -0.0035804452
00000000: baa5 6a3b e7a5 6abb

sequential_5/dense_2/BiasAdd/ReadVariableOp f4 [64]
-0.014348959 -0.011282675 0.021976829 -0.017828612 0.03648479 0.0709748 0.043177474 0.0209763
0.044274896 -0.003486273 -0.017044662 -0.025242737 0.007140421 -0.0009368949 0.049790762 0.0034600853
0.03249516 -0.0029995337 0.01688123 0.049562156 0.054697085 -0.0077968724 0.038814723 -0.010238134
-0.009106608 0.019661672 0.062129214 0.001838888 0.023499914 -0.048657853 0.042447496 0.06417584
0.06313099 -0.0061182147 0.05187374 0.028676037 -0.042434383 -0.010816897 0.026409956 0.034544326
0.026755333 0.017093545 0.03790824 0.045143217 -0.021494685 -0.011225263 0.011217742 0.017800927
0.021681568 0.016508298 0.051431004 0.07940358 -0.040685307 -0.02777435 7.588497e-05 0.028679946
0.009437329 0.05657701 0.00902252 0.060289305 0.021498546 0.05782992 -0.043464813 0.026212309
00000000: e517 6bbc f8da 38bc c008 b43c 4f0d 92bc
00000010: 1371 153d 3c5b 913d ddda 303d 7dd6 ab3c
00000020: 9859 353d f579 64bb 3fa1 8bbc dbc9 cebc
00000030: 31fa e93b f499 75ba 66f1 4b3d 99c2 623b
00000040: a519 053d d393 44bb 814a 8a3c b001 4b3d
00000050: 0d0a 603d e87c ffbb 30fc 1e3d d9bd 27bc
00000060: e233 15bc 8411 a13c 347b 7e3d d806 f13a
00000070: e482 c03c 754d 47bd 6ddd 2d3d 9f6e 833d
00000080: d24a 813d 4e7b c8bb 8f79 543d 02ea ea3c
00000090: adcf 2dbd 5b39 31bc b159 d83c 5a7e 0d3d
000000a0: 002e db3c c307 8c3c ac45 1b3d 18e8 383d
000000b0: 9f15 b0bc 2aea 37bc 9fca 373c 40d3 913c
000000c0: 8b9d b13c 693c 873c 51a9 523d 589e a23d
000000d0: a3a5 26bd 0987 e3bc 6f24 9f38 35f2 ea3c
000000e0: 079f 1a3c 4bbd 673d 31d3 133c ebf1 763d
000000f0: b81d b03c 11df 6c3d 2908 32bd 32bb d63c
