exports/Apple scab.tflite (tflite, 485192 bytes, 16 tensors)

sequential_5/conv2d_6/Relu;sequential_5/conv2d_6/BiasAdd;sequential_5/conv2d_11/Conv2D;sequential_5/conv2d_6/Conv2D;sequential_5/conv2d_6/BiasAdd/ReadVariableOp f4 [64, 1, 1, 3]
000000 d0 13 28 3a 47 2f e8 b9 43 f6 8c 3a 0b 8f 4f 3a
       0.00064116437 -0.00044285713 0.0010754544 0.00079177384
000010 65 58 1a 39 4c ea 55 3a 99 03 6c ba 9f 15 70 3a
       0.00014719514 0.0008160218 -0.00090032216 0.0009158495
000020 73 35 aa 39 52 99 ad ba 89 be a4 ba 1f dd 5b 3a
       0.0003246475 -0.0013244546 -0.0012568991 0.00083871366
000030 ca 57 80 3a 9f ea 31 b7 0c 6f f4 b9 98 c2 34 b9
       0.0009791788 -1.0604649e-05 -0.00046622043 -0.0001723863
000040 66 f9 0b ba 2e 72 c9 39 ea 5e 18 b9 eb 71 7e 3a
       -0.00053395925 0.00038422778 -0.00014531208 0.0009706306
000050 f7 3f 41 ba b0 38 b0 39 2c cc 11 ba 7b 7d cc b8
       -0.0007371897 0.0003361157 -0.0005561735 -9.7508506e-05
000060 71 f2 90 3a 19 54 1d ba 1d c0 02 ba c8 be 6b ba
       0.0011058581 -0.0006001606 -0.00049877336 -0.0008992967
000070 9b 7b 4e 3a b8 fc 67 3a 6a b0 cf 39 af aa 4b 3a
       0.0007876695 0.0008849609 0.00039613555 0.0007769269
000080 be 88 7d ba f9 5e 59 3a 16 f0 ff 37 f0 81 92 b9
       -0.000967156 0.0008292045 3.0510168e-05 -0.000279441
000090 ec f4 6e ba 6b cf 8b 3a 70 9f f0 b9 38 fa 08 3a
       -0.00091154757 0.0010666674 -0.00045895157 0.0005225274
0000a0 18 21 b3 39 28 d1 6a 3a a2 bb e2 39 68 95 02 3a
       0.00034166197 0.00089575583 0.00043245876 0.000498137
0000b0 0d 24 80 ba 33 b1 21 3a 39 9d 4e ba e8 bb 7e b8
       -0.0009776369 0.00061680673 -0.00078817044 -6.073332e-05
0000c0 58 a9 3a 3a e7 4a 1f ba ca 34 24 ba 3e 2b de b9
       0.0007120571 -0.000607653 -0.00062639697 -0.00042375358
0000d0 5e 1b 47 3a 3d 19 73 39 36 0f 3f 3a 1c 31 22 ba
       0.00075953256 0.00023183688 0.00072883384 -0.00061871274
0000e0 f5 98 7c 39 12 6f dd 37 96 41 48 3a f4 93 90 3a
       0.00024089574 2.6396974e-05 0.00076391676 0.0011030422
0000f0 2e ed 4f 39 70 11 24 39 5c 39 1d b9 a2 c5 5d 3a
       0.00019829415 0.00015646755 -0.00014994055 0.00084599305
000100 a0 d4 41 3a af b4 84 b7 bd f3 fb b9 62 16 98 ba
       0.00073940493 -1.5819764e-05 -0.0004805605 -0.001160335
000110 db f2 4c ba 21 4e 35 ba ae 66 2e 3a 8e f6 b7 b8
       -0.00078181707 -0.0006916244 0.00066528737 -8.7720444e-05
000120 2f 26 a3 3a c6 4c 94 b9 92 6e 6e ba 99 78 9a 3a
       0.0012447293 -0.0002828596 -0.0009095456 0.0011785208
000130 83 88 9d 39 6c db 8d ba 1c 12 64 b7 49 3e 2f ba
       0.00030047083 -0.0010822839 -1.3594075e-05 -0.00066850014
000140 6c ef 51 3a 13 2a ef b8 38 c5 9f 39 65 7a 31 39
       0.0008008394 -0.00011404245 0.00030473783 0.00016925631
000150 fd be 59 ba 11 97 e4 39 44 15 92 3a 02 ea 68 ba
       -0.00083063525 0.00043600102 0.0011145254 -0.00088849675
000160 a8 ee 08 3a 6a 76 86 b9 eb 64 b5 b9 a4 df 73 3a
       0.0005223551 -0.00025646697 -0.000345982 0.00093030394
000170 ae 20 61 3a 6f 4e 1f 39 97 92 51 3a c0 73 a5 b8
       0.00085879385 0.0001519264 0.0007994561 -7.889373e-05
000180 83 3b 3b 3a 12 46 4f ba bb 3d 1f 37 22 d1 7e 3a
       0.0007142352 -0.00079068646 9.491511e-06 0.0009720494
000190 f8 e1 2e 3a ab 09 26 b9 02 25 02 3a b5 d3 d9 39
       0.0006671245 -0.00015834595 0.0004964621 0.000415472
0001a0 cc 54 d1 b9 4b ab 8b ba e0 96 7d ba 28 1c 8f 3a
       -0.00039926765 -0.0010655908 -0.0009673666 0.0010918425
0001b0 39 43 b6 b8 9a 5b 9b 39 c4 2e 9b b9 25 74 a4 3a
       -8.6909575e-05 0.00029632152 -0.00029598747 0.0012546821
0001c0 9b 3b 26 b9 25 33 a3 ba 41 76 00 ba a5 08 5f 3a
       -0.00015853198 -0.0012451155 -0.00049004337 0.0008508063
0001d0 5c 1c 35 3a c9 19 58 3a c3 16 36 3a c4 29 2b 3a
       0.0006908828 0.00082435884 0.0006946141 0.0006529356
0001e0 7d bf 05 ba e3 eb 2f 3a 61 28 29 39 87 89 8f 39
       -0.00051020813 0.000671087 0.00016132138 0.0002737755
0001f0 03 de 0a 3a da 00 01 ba 39 a1 30 3a 8b 4d 04 3a
       0.00052973646 -0.00049210864 0.0006737891 0.0005046955
000200 ad 13 95 ba 1d 70 91 ba 87 02 61 39 3b a2 ee b9
       -0.0011373662 -0.0011096034 0.00021458614 -0.0004551577
000210 1a 84 29 3a c1 cc a2 39 02 01 75 ba 91 62 09 ba
       0.0006466523 0.000310516 -0.00093461585 -0.0005240823
000220 1a e3 01 3a 42 b4 64 b8 92 1d b8 3a ac 23 63 ba
       0.00049548 -5.4527314e-05 0.0014046899 -0.00086646783
000230 83 6c 5d ba 85 e5 2c b9 a5 8d 63 3a 72 66 18 3a
       -0.00084466505 -0.00016488701 0.00086804695 0.00058136054
000240 01 c7 19 ba 41 4d 2b 3a e1 46 04 b9 20 96 2f b8
       -0.0005866141 0.0006534644 -0.00012614905 -4.1863066e-05
000250 30 b2 02 3a e4 31 f8 b9 d4 12 d1 b7 e3 d1 37 ba
       0.00049856585 -0.00047339418 -2.4923509e-05 -0.00070121716
000260 95 2b 81 ba a7 8c 37 3a eb 29 b3 39 24 e6 3f b9
       -0.0009854907 0.0007001855 0.00034172772 -0.00018300914
000270 8e cb 02 ba e2 28 59 38 19 49 4f 39 98 9a 83 3a
       -0.00049894385 5.1774907e-05 0.0001976829 0.0010040579
000280 8f 06 96 38 3b d0 f1 38 59 3f 3e ba c6 52 d0 39
       7.153779e-05 0.000115305615 -0.00072573643 0.00039734523
000290 7c d2 94 3a 97 6e 37 39 b2 b4 66 3a bb e7 1f 3a
       0.0011354233 0.00017493438 0.00088007294 0.0006099899
0002a0 83 e0 9a 38 cd 3c 44 3a 94 4d 3d ba fc 56 1b 3a
       7.385111e-05 0.00074858667 -0.0007221338 0.00059257424
0002b0 4f 19 eb b9 01 c6 c4 b7 7b 94 92 3a 1b 50 1c 3a
       -0.0004484155 -2.3457224e-05 0.0011183167 0.00059628644
0002c0 a4 97 9c ba f7 fd 4d 3a 28 d1 a9 38 18 de a7 b9
       -0.0011947048 0.0007857973 8.097506e-05 -0.00032018195
0002d0 f3 33 4d b8 7f ef 41 3a 23 5d 2a ba 1b 1e 47 3a
       -4.892419e-05 0.00073980534 -0.0006498864 0.00075957336
0002e0 86 a6 e3 b8 fb 41 8c 3a 3e 8f c5 b9 97 c0 63 ba
       -0.00010855221 0.0010700816 -0.00037681492 -0.0008688061
0002f0 a8 9d 40 ba 12 c9 55 ba 20 df 90 3a c8 34 45 ba
       -0.00073477114 -0.0008155267 0.0011052825 -0.00075228186

sequential_5/conv2d_6/BiasAdd/ReadVariableOp f4 [64]
000000 9c c8 da bc 60 09 b2 bc b4 29 b2 bc 01 a0 c5 3c
       -0.026706986 -0.021732986 -0.021748401 0.024124147
000010 48 55 1f bd fe 93 07 bd 80 de 3b bc 93 c3 55 3d
       -0.03889969 -0.03310012 -0.011466622 0.052188467
000020 dc 8b 98 3c 84 db 42 bd 47 36 da bc c1 58 6e bd
       0.018621378 -0.047572628 -0.02663721 -0.05819011
000030 d8 93 97 3c 7c 59 f5 bd d2 63 f4 3b 23 78 2d 3d
       0.018503115 -0.119799584 0.0074581886 0.0423509
000040 01 56 a1 3c ed c6 38 bd 49 85 39 bd 0f f8 54 bd
       0.01969433 -0.045111585 -0.045293126 -0.05199438
000050 93 69 39 bd 0b ff 62 bd 00 00 00 00 33 a9 3e 3c
       -0.0452667 -0.05541901 0.0 0.01163702
000060 80 11 9f 3b 9a fa 98 3c 80 c9 50 3b 5e 11 81 bd
       0.004854381 0.018674184 0.0031858385 -0.06302141
000070 2c 7a 19 bd 2a 8a db 3c 70 02 0e bd 52 a0 a5 bd
       -0.037470028 0.02679928 -0.034670293 -0.08087219
000080 26 4c ff 3c 4d 3b 69 bc 8d f7 40 bd 9e a7 cc 3c
       0.03116424 -0.01423533 -0.047111083 0.02498227
000090 7c ba b6 bc 8b 44 12 bd df c0 9d bd 25 c7 a7 bd
       -0.02230572 -0.0357099 -0.07702803 -0.08192281
0000a0 67 d1 ba bc 06 06 e7 bc f6 89 3f 3c e0 59 70 3d
       -0.022804929 -0.028201114 0.011690607 0.05867946
0000b0 81 a4 36 3c b8 1d 23 3c 26 99 9b 3d e4 f8 dc bd
       0.011147619 0.009955816 0.0759757 -0.107896596
0000c0 54 31 cd 3b 7a d5 54 bb 00 00 00 00 0e 9a 9c bd
       0.006261984 -0.0032475875 0.0 -0.07646571
0000d0 91 fc 62 3d cb 6e 99 bd 89 68 39 bd f8 33 8c bb
       0.055416647 -0.07491835 -0.045265708 -0.004278656
0000e0 f1 09 2e bc 0f d6 ba bc 9a 32 5f 3b a4 89 8f bc
       -0.010622487 -0.02280715 0.003405726 -0.017521687
0000f0 ab a1 e8 bb 93 72 9a bd 00 00 00 00 ca 54 a8 3c
       -0.0070993504 -0.075413845 0.0 0.020548243

sequential_5/conv2d_7/BiasAdd/ReadVariableOp f4 [64]
000000 64 08 86 3d 5d 4a 15 bc 28 0c 8c bc 0f 4d 03 bc
       0.06544569 -0.009111968 -0.01709564 -0.008013978
000010 65 6a 8c bc ec 68 1f 3d fd 5c 55 bd 43 48 91 3c
       -0.017140577 0.03891842 -0.052090634 0.017734652
000020 62 57 a2 bc 05 3d 61 bc b8 a0 f5 3c 72 de 23 bc
       -0.019817058 -0.013747458 0.029983863 -0.010001766
000030 3e 0e 00 3c df c0 c6 bc 58 1e 56 bd 86 50 6f bc
       0.007815896 -0.02426189 -0.05227503 -0.014606601
000040 d5 fc b8 39 33 18 5d bc 86 2c 90 bb 54 17 90 bc
       0.0003528359 -0.013494539 -0.004399839 -0.017589249
000050 4d 1f 91 bc f8 37 c5 b8 e0 af a0 3c 1c 82 c8 3c
       -0.01771512 -9.404117e-05 0.019615114 0.024476103
000060 c1 f2 a9 bc 31 87 3f bc 66 e2 20 bc 26 61 6b bd
       -0.020745637 -0.011689947 -0.009819603 -0.057465695
000070 a6 89 97 bc eb 33 2f 3d 58 88 76 3c 3e 26 7b 3b
       -0.018498253 0.042774122 0.015047155 0.0038322355
000080 da 73 16 bc 07 38 24 bc 79 ad c0 bc 35 32 03 bc
       -0.009182895 -0.010023124 -0.023520218 -0.008007576
000090 4f 31 95 3d 96 7a 8d bc 9d 0d 32 bc ab 30 7a 3b
       0.072847955 -0.017270368 -0.0108675035 0.003817598
0000a0 27 9e 3c bc 47 46 d1 bc b3 26 96 ba d1 29 2d bc
       -0.011512316 -0.025546206 -0.0011455625 -0.010569052
0000b0 94 c4 f5 bb 48 5e da bc 02 9b 35 bb 14 e4 45 3d
       -0.0075002406 -0.026656285 -0.00277108 0.048313215
0000c0 49 66 fa 3b 98 08 b9 3b 6c 4e 22 3d 6c b7 5c 3c
       0.007641588 0.0056467764 0.03962557 0.013471466
0000d0 1c 64 1f bd b2 f5 77 ba cb a2 2d 3c a4 e6 9a 3a
       -0.03891383 -0.00094589137 0.010597895 0.0011818004
0000e0 e4 51 3f bc b8 a3 c9 bd cf 39 cb 3c 21 ae 81 3c
       -0.011677239 -0.0984568 0.024807839 0.015830101
0000f0 2c 81 f2 bb b5 e3 1f bc 56 8b b9 ba 65 0f 65 bc
       -0.0074006524 -0.009758879 -0.0014155905 -0.013980721

sequential_5/conv2d_8/BiasAdd/ReadVariableOp f4 [64]
000000 42 0a f6 bc 95 6e a3 3c d2 76 14 3b da ff 93 bd
       -0.030034188 0.01995019 0.002265383 -0.07226534
000010 71 bb 00 3d 64 cf ad bc a5 ec 30 bc 69 57 5e 3d
       0.031428758 -0.021217056 -0.010798608 0.05428258
000020 6a f2 43 bc b6 8f 19 3c d8 cd c7 bc 7d 07 d4 3c
       -0.0119596515 0.009372642 -0.024390146 0.025882477
000030 ef 95 88 bc bf da 21 bc 84 dc 59 3d 40 77 15 bd
       -0.016673056 -0.009878813 0.053188816 -0.03649068
000040 bf 5d 12 bc 2c ec bc 3c f2 74 6d bc cc b3 44 3d
       -0.008933484 0.023061834 -0.014493214 0.04802303
000050 61 ec 03 bd 2f d1 90 bc 44 18 2f bd 77 96 c1 3c
       -0.03220785 -0.017677872 -0.04274775 0.023631318
000060 70 9f 4e 37 8f 37 51 bc f1 0c e5 bb 03 44 eb bc
       1.2315679e-05 -0.012769594 -0.006990068 -0.028718954
000070 70 13 3f bc d6 08 a2 3c 58 a1 86 bd fe 40 02 bc
       -0.011662349 0.019779604 -0.06573743 -0.007950066
000080 fb 18 26 3d a8 6b 19 bc d5 19 90 bd e2 17 88 bd
       0.040551167 -0.009364046 -0.07036177 -0.0664518
000090 af f0 d4 bc 68 81 a1 3c aa 58 8e 3c 3c f7 47 bc
       -0.025993673 0.019715026 0.017376263 -0.012204941
0000a0 90 fa 6c bc 78 1a 07 3d a4 6f ce 3c 63 1f a9 bc
       -0.014464036 0.032984227 0.025199719 -0.02064485
0000b0 54 b6 78 bd a5 cb 72 bc b5 bf e0 bb 79 41 45 bc
       -0.060720757 -0.01481906 -0.0068587908 -0.012039536
0000c0 2b 50 21 bd 8f cc b9 3c 2b 48 ce 3c ed b1 4c bc
       -0.039383095 0.022680549 0.025180897 -0.012493593
0000d0 46 ee 91 bc b5 7e 05 bd 0d c3 c4 bc 0b 0e 49 bc
       -0.017813813 -0.03259154 -0.024018789 -0.0122714145
0000e0 3b 85 5d 3d da 7b 0a bd a4 cf 95 bc 5a 1f 15 3c
       0.054082137 -0.03380952 -0.018287487 0.009101713
0000f0 d0 ba 28 3d 7a cd 09 3d 48 55 5e 3d a1 f3 15 3d
       0.041193783 0.033643223 0.05428055 0.036609296

sequential_5/conv2d_9/BiasAdd/ReadVariableOp f4 [64]
000000 34 bc 3c bd 5d ac 80 bd ba 04 ef 3c f3 b2 8c 3c
       -0.046077922 -0.06282876 0.029177058 0.017175173
000010 0f 20 2d 3d ca 42 a9 3c 4a 20 d8 bc bc b5 0e bc
       0.0422669 0.02066173 -0.026382584 -0.008710321
000020 3a ef 9e bc f4 04 4e bc 82 90 6b bc 72 25 18 3c
       -0.019401181 -0.012574423 -0.014377715 0.009286271
000030 4a 98 e4 bc 9f bc ee bc aa 19 a2 3b d7 1f 07 3d
       -0.027904648 -0.029142676 0.004946907 0.03298935
000040 63 44 c6 bc 87 70 08 bd 30 0a 39 3c e9 9c 40 3d
       -0.024202531 -0.03331044 0.011293933 0.04702464
000050 98 50 c6 3b 9c ef e5 bc 62 c7 35 3b a3 fd 6d 3c
       0.006052088 -0.028068356 0.002773725 0.014525804
000060 11 03 7b bc e6 28 38 3b 8c 52 76 bc ac eb 43 3d
       -0.015320555 0.002810055 -0.015034329 0.047832176
000070 42 b8 88 3c 75 24 38 bc b7 30 0a 3d 6d 91 eb bc
       0.016689423 -0.011239161 0.033737864 -0.028755868
000080 35 1a 3d 3c 74 af 54 bd a5 6b 23 bc d9 79 02 bd
       0.011541893 -0.051925138 -0.009974395 -0.031854484
000090 06 dc 9c bb 21 53 27 3d 0d 0c 33 bb 65 0b 45 bc
       -0.004786971 0.040850762 -0.0027320415 -0.012026642
0000a0 16 7e d7 bb f3 08 3c bc f8 8d 82 bc 3e 61 1f bc
       -0.00657631 -0.011476743 -0.015936837 -0.009727774
0000b0 55 ab b4 bc ea 23 9a 3c 3f 54 3b bd 8c 83 79 bb
       -0.022054354 0.018815953 -0.04573464 -0.0038072793
0000c0 7b de 19 bd ec 25 c6 bc f9 dd 61 3c 56 33 e3 bc
       -0.03756569 -0.024188004 0.013785833 -0.02773444
0000d0 2f 30 25 bd f6 03 44 bd e5 b6 f5 3c 1e 6e e2 3c
       -0.040329155 -0.04785534 0.029994437 0.027640399
0000e0 2e b4 17 bd d7 4d 78 bc dc f5 80 3c 37 b4 10 bd
       -0.037037067 -0.015155277 0.015742235 -0.035328116
0000f0 7d fd fb bb d9 0d 97 bc 62 ef 7f 3d f3 fb b0 3b
       -0.0076901303 -0.01843922 0.062484153 0.0054011284

sequential_5/conv2d_10/BiasAdd/ReadVariableOp f4 [64]
000000 ec b7 6e bc 39 71 5e 3b 49 05 3e 3d 7e 8e 8a ba
       -0.014570218 0.0033941998 0.04639176 -0.001057103
000010 ed 67 1e bc d2 d6 ce bb 6e bf 3e bd 2e a3 51 3d
       -0.0096683325 -0.0063122297 -0.04656928 0.05118101
000020 6f 9e 37 bd 1b a6 9d bb 61 eb 93 bc 54 d1 10 3d
       -0.04482883 -0.004811061 -0.018056573 0.03535588
000030 a1 ba c3 bc 9d a1 35 bc af aa 68 3b 0b 04 12 bc
       -0.023892703 -0.011085895 0.0035502126 -0.008912097
000040 0a 9e 32 3d b5 00 0f bd 2c 2d 04 3c a0 29 9b 3d
       0.04360775 -0.034912784 0.00806741 0.07576299
000050 55 60 36 bd 56 3b a5 bc 83 d1 0f bd 71 ef df 3b
       -0.044525463 -0.020169895 -0.035111915 0.0068339636
000060 31 db 8e bc 96 6e 5b bc 5e a3 45 bd 43 ec de 3c
       -0.017438503 -0.013393065 -0.048251502 0.027212268
000070 3b 35 46 3c f9 0c c0 3a c6 36 8c bd 33 ec 29 3c
       0.012097652 0.0014652304 -0.06846385 0.010371256
000080 20 89 ca bc 9a 8a 55 3d 82 92 09 3d 48 97 89 bb
       -0.02472359 0.052134134 0.033586986 -0.0041989423
000090 93 f3 3b 3d b5 03 d6 bc 89 49 0a bd 4a 1d d4 bc
       0.045886587 -0.026124815 -0.033761535 -0.025892872
0000a0 02 1f 8e bc be d0 d4 bc 8b 7c a1 3d 91 c2 05 3d
       -0.01734877 -0.025978442 0.07885083 0.032656256
0000b0 1c b7 f0 3c 5d b8 43 bd 56 b3 d1 3c 0e 7b 35 3c
       0.029384188 -0.047783244 0.02559821 0.011076702
0000c0 a8 6a 25 bc a1 ee 34 bc 7d a6 ad bc e3 66 43 bc
       -0.01009623 -0.011043222 -0.021197552 -0.011926386
0000d0 08 bd d1 3d 54 50 0b 3b 4f 1c 88 3d 91 78 a6 bd
       0.10241133 0.0021257596 0.066460244 -0.08128465
0000e0 71 4e 4b bc d1 f6 05 bd 16 2e c7 bc 1e f1 8d bc
       -0.012408839 -0.032706086 -0.024313968 -0.017326888
0000f0 60 69 05 3d ad cf 24 3d c1 d0 e2 bc 00 5f ab bb
       0.032571197 0.040237118 -0.027687432 -0.0052298307

sequential_5/conv2d_11/BiasAdd/ReadVariableOp f4 [64]
000000 2c 9f d0 3d 34 92 6e 3d 5b 33 11 bd df 97 1a bc
       0.101866096 0.0582449 -0.035449367 -0.009435623
000010 1a c3 18 bc ff cc 81 bc 71 45 15 bd e0 3d 2f bd
       -0.00932386 -0.01584482 -0.036443178 -0.042783618
000020 a4 e6 af bc a5 53 53 3d 0e 3f ad bc 3e c3 96 bc
       -0.021472283 0.05159344 -0.02114823 -0.018403646
000030 f4 cf 0e 3d a8 6f 24 bd fb 3e 78 bc b0 bf af bb
       0.03486629 -0.040145546 -0.015151734 -0.005363427
000040 d3 21 8e bc 2f 37 16 bc dc e3 1d bc 51 ec 61 3d
       -0.017350113 -0.00916843 -0.009636845 0.05515701
000050 22 d6 e0 3c f6 28 25 bc 69 ef 6e bc 9a 7a bf bc
       0.027445856 -0.010080567 -0.014583447 -0.02337389
000060 c2 56 34 bc 18 75 19 bc fd 59 a8 bb 44 0f 37 bc
       -0.011007013 -0.009366296 -0.0051376806 -0.011173073
000070 a3 76 86 3c 94 bf 02 bd a8 66 4f 3c c0 5e 67 bd
       0.016413992 -0.031920984 0.0126587525 -0.056486845
000080 0c 34 6f 3c f7 70 1b 3d 84 46 6e 3d 93 f1 f1 bb
       0.014599811 0.03794953 0.058172718 -0.007383534
000090 eb 71 74 bc 13 ff 82 bc 2c 6e b8 bc c1 89 21 bd
       -0.014919738 -0.01599077 -0.022513472 -0.039438013
0000a0 81 86 4f 3b 4e 02 66 bc a5 13 01 bc 52 6a ed bb
       0.0031665864 -0.014038635 -0.007878219 -0.0072453404
0000b0 e2 f9 9f 3d 85 43 c5 3c 1f 14 aa 3d 03 be fa bc
       0.07811333 0.024080047 0.08304619 -0.030608183
0000c0 60 52 12 bd df ed f4 3d ec a2 cf bb de 27 86 3c
       -0.03572309 0.11959433 -0.0063365605 0.016376432
0000d0 3c 5b 4e 3d e8 32 6f 3d 79 3f de bc 81 66 61 3d
       0.050379977 0.058398157 -0.027129875 0.055029396
0000e0 12 96 4f bc ab 15 5e 3b 24 93 c6 3c cf d0 39 bd
       -0.012670057 0.0033887427 0.024240084 -0.04536515
0000f0 9a bc 46 3d c3 69 a0 bc d7 b8 9f 3d 06 22 ba bb
       0.04851971 -0.019581681 0.07798927 -0.0056803254

sequential_5/conv2d_7/Conv2D f4 [64, 2, 2, 64]
000000 ea fa 89 3d 8a ec 01 3c 84 cc 8c 3c b4 4e 0a be
       0.06737311 0.00792993 0.017187364 -0.13506585
000010 69 f3 73 3d ce 9a 55 3d a9 4a 32 be 0e 26 95 3d
       0.059558306 0.052149586 -0.17411293 0.07282649
000020 e0 3f bb 3d 61 96 1e 3d 7c 5b f6 bd 34 98 c9 bd
       0.091430426 0.03871763 -0.12029168 -0.098434836
000030 e7 d1 65 be 49 b6 7a bc cc ab c4 bd f8 c8 e0 3d
       -0.22443353 -0.015302249 -0.0960308 0.10975832
000040 65 22 35 be 34 d4 bd bd e3 92 05 be cb 4b 32 bd
       -0.17688902 -0.0926899 -0.13044314 -0.043529313
000050 ba 50 b7 bd e9 b8 13 3d 27 c7 a2 bd 49 c4 29 be
       -0.08950944 0.036065016 -0.079481415 -0.16578783
000060 d8 ab 51 bc 37 30 d5 3d ae 3a 6c bd e2 4d 0d be
       -0.012797318 0.10409587 -0.05767315 -0.13799241
000070 f8 f8 6e bd cb da 4f be c0 b9 26 bd a2 5c ee 3c
       -0.058342904 -0.20298307 -0.04070449 0.029096905
000080 bf 38 e7 3d 13 90 92 3d e0 25 71 bc 91 fe 36 be
       0.1129012 0.07156386 -0.014718503 -0.17870547
000090 d1 12 bf bc 64 ae 93 be 73 cf ac bd 1b ae 2c 3d
       -0.023324402 -0.28843987 -0.08438005 0.042158227
0000a0 94 ca 94 bc d7 08 b3 3d 83 3f 24 bc 86 d7 f5 bd
       -0.018163003 0.087419204 -0.010024908 -0.120039985
0000b0 a5 b2 8f 3d cf c7 2c be 20 32 36 3e 96 81 ad bd
       0.070164956 -0.16873096 0.17792559 -0.08471982
0000c0 4a 07 34 be 50 d8 2b bd cf 1c a8 3d 9a 66 d5 bd
       -0.17580906 -0.04195434 0.0820862 -0.1041996
0000d0 ba 21 f4 3d bd c9 79 bd 9a 02 52 3d 80 90 c7 bd
       0.11920495 -0.06098341 0.051272012 -0.09744358
0000e0 8b de 85 bd c6 e2 8d be 6c e7 d1 3d 44 59 b7 3d
       -0.06536587 -0.27712077 0.10249218 0.08952573
0000f0 a7 df 5d bc 8d 99 04 3d 3c b5 9c 3c 12 f5 d9 bd
       -0.013542092 0.032373 0.019129388 -0.106424466
000100 8b 30 06 bc f3 28 1a 3d 5f 8f 04 be f5 2f 1c be
       -0.0081902845 0.03763671 -0.12945317 -0.15252669
000110 39 95 05 3c 70 1a 15 bd 3b 88 10 be ce fb 06 3e
       0.008153253 -0.036402166 -0.14114468 0.13181993
000120 5a 27 38 3e 5e af 32 3d 26 42 3b 3d e3 dd 86 3d
       0.17983761 0.043624274 0.04571738 0.0658529
000130 c7 04 7b be e2 b0 31 bc 3e d4 67 3d d0 90 13 3e
       -0.24513541 -0.010845395 0.056598894 0.1441071
000140 9d e7 ce bd 73 64 02 3d d5 85 91 be a7 b3 94 bd
       -0.101027705 0.031834077 -0.28422418 -0.072608285
000150 0d bd 63 bc 35 ff 2c bd 30 66 99 bc 13 45 44 be
       -0.013900054 -0.042235572 -0.018725485 -0.19166975
000160 94 32 be 3c 23 34 31 3e 60 58 08 3c 00 47 db bc
       0.023217477 0.17305045 0.0083218515 -0.026767254
000170 c6 3b 1d be 7a 46 9b be e5 b6 38 bd 97 65 77 3d
       -0.15354833 -0.30327207 -0.045096297 0.060399618
000180 85 00 16 3e b6 08 de 3b 02 8b d1 bd 30 43 ad bd
       0.14648636 0.006775941 -0.10231592 -0.084600806
000190 f3 56 38 3d fd 2d 04 be 5b 3d c4 bd 70 4c 6b 3d
       0.045004796 -0.12908168 -0.09582015 0.057445943
0001a0 66 5c 21 bd 29 89 85 bd 8c 71 15 3e cb 6b 07 be
       -0.03939476 -0.06520302 0.14594096 -0.13224714
0001b0 20 27 9a 3d d9 d3 09 be 6c 92 1d 3e 68 18 f0 3c
       0.07526994 -0.1345972 0.15387887 0.029308513
0001c0 c0 ed f5 bc 71 79 31 be 72 5e 86 bd a1 79 80 bb
       -0.030020595 -0.17331482 -0.06560983 -0.0039207493
0001d0 a6 05 0e bd 09 a3 63 3d 78 1d af bc e4 88 51 3d
       -0.034673356 0.055575404 -0.021376356 0.05115594
0001e0 28 88 1d 3d 9b 8d 8d be 7e 7d 2d bc e9 d6 f9 3c
       0.038459927 -0.276471 -0.010589002 0.030497985
0001f0 e6 cc 5d bd 1d 22 ef bd 25 c7 c2 3d 19 55 62 be
       -0.054150485 -0.116764285 0.0951064 -0.22102775
000200 c3 86 b4 3b c5 8d da 3d 1d 64 e5 bd c2 9c 1b be
       0.005509229 0.10671572 -0.11200736 -0.15196517
000210 bb 1c 55 bd 77 97 2a bd f8 77 e3 bc f8 95 1a 3d
       -0.052029353 -0.041648354 -0.027767166 0.037740678
000220 c4 f3 90 3d 5c 84 7d bd 6a 48 d6 bd 0b 55 e0 bd
       0.070777446 -0.061893806 -0.10463031 -0.10953721
000230 57 55 88 be 12 49 91 bd bf f7 9a bd 88 2c 04 3e
       -0.2662761 -0.07094015 -0.07566785 0.12907612
000240 48 c0 4d 3c 40 2e d0 bd 60 6f 06 be 3c 8c 18 3d
       0.01255805 -0.101650715 -0.13128424 0.037243113
000250 f9 8c b2 3d 20 6f b4 bd 5a be 49 3d 18 98 6b bd
       0.08718295 -0.08810258 0.0492538 -0.057518095
000260 2c 1d 30 3e bc 47 81 3d 86 df e7 bd 8a 7b a7 bc
       0.17198628 0.0631251 -0.113219306 -0.02044465
000270 f9 8f 04 be 06 3b 71 be 85 2b c0 3d 4a 69 63 bd
       -0.12945546 -0.23557672 0.09383301 -0.055520333
000280 42 d9 e7 3d 75 b8 c7 3c ca c1 b5 3d 3a d6 17 be
       0.113207355 0.024379948 0.08874853 -0.14827815
000290 26 9f 5e bd 45 1f 25 be 07 28 ce bd 5d 4e 65 bd
       -0.054350995 -0.1612521 -0.10066228 -0.055982936
0002a0 3a 87 80 bc 45 42 34 3d 05 17 5f 3c 4f a8 0c be
       -0.015689481 0.044008512 0.013616328 -0.1373608
0002b0 1a 11 5e 3d 36 7c 2b be 71 5f 4a 3d 5d 0d 01 be
       0.054215528 -0.16746601 0.049407426 -0.12602754
0002c0 fd 68 04 be 7d 9a 1e be 10 d6 c0 bb 0a 36 b2 bc
       -0.12930675 -0.1548862 -0.0058848932 -0.021754283
0002d0 15 64 89 bd 82 f8 59 3c ab b0 10 be ca 23 aa 3d
       -0.06708542 0.013303878 -0.14129893 0.083076075
0002e0 e4 8b 89 bd 95 e9 b6 bd 9d 95 ee 3d df 1f 1a 3d
       -0.06716135 -0.08931271 0.1164963 0.03762805
0002f0 bc 7b 3e bd 68 0c 06 3d 1b 67 51 bd 4a ed ad bd
       -0.04650472 0.032726675 -0.05112372 -0.08492525
000300 ca 74 7b 3c d5 ef 5a 3d ec 01 09 bd 0b f4 0d bc
       0.015347669 0.053451378 -0.0334491 -0.008664141
000310 6d 54 03 3b 03 a4 ae 3c 4a 07 a6 bd ae f0 fd 3d
       0.0020039335 0.021318441 -0.08106859 0.12399422
000320 b0 d4 fd 3d 58 e3 e5 bd 2d cc e7 bc fe 38 9a bd
       0.123940825 -0.11225003 -0.0282956 -0.07530402
000330 96 18 65 be 50 58 a1 3d 27 2f e4 bc 9a ba d9 3d
       -0.2237266 0.078781724 -0.027854515 0.106312945
000340 78 85 1e be ee be 02 be a6 70 d2 bd 62 8e 03 3d
       -0.15480602 -0.12768146 -0.10275392 0.03211821
000350 d7 8d 19 bd ce 1b 46 3c 2e 8d 9c bd 70 6a 21 be
       -0.037488785 0.01209159 -0.076441154 -0.15763259
000360 ff 19 1f 3e c8 1f 0c 3e f3 a9 98 b9 6d 35 32 bd
       0.1553726 0.13683999 -0.0002911832 -0.043507982
000370 3b 5a c6 bd e2 a3 ec bd 14 2e 82 ba 4b 74 58 bd
       -0.09685179 -0.11554696 -0.0009931945 -0.05284528
000380 f8 cf ae 3d 62 19 ed 3c 7c 5d b2 3d 53 63 3f be
       0.08535761 0.028942768 0.08709237 -0.18690233
000390 2b 65 db bd d4 5c 12 be bc ff 72 bd 28 d2 86 bd
       -0.10712656 -0.14293224 -0.05932592 -0.06583053
0003a0 46 80 68 bd 1a 56 52 3d cf d9 e8 3d 57 96 34 be
       -0.056762956 0.051351644 0.11369669 -0.17635475
0003b0 85 9d ec ba 45 fb 09 be e7 8e 01 3e 1d bf 21 3d
       -0.0018052316 -0.13474758 0.12652169 0.0394889
0003c0 1c 27 2f be c8 e1 97 bc 60 e4 35 bd e4 7b f6 3c
       -0.17104763 -0.018540278 -0.04440725 0.030088373
0003d0 3c 2d 50 bd 13 23 9c 3b 7a d2 ed bc e0 21 43 bd
       -0.05082439 0.0047649234 -0.029031027 -0.047639728
0003e0 f9 0f 6e bd a4 2d 35 be 9d eb 10 3e 5d 4e 73 bd
       -0.0581207 -0.17693192 0.1415238 -0.059400905
0003f0 52 4b e3 bd 95 75 94 bd c2 8e 2c 3d e8 d2 9f bd
       -0.110983506 -0.072489895 0.042128332 -0.07803899

sequential_5/conv2d_8/Conv2D f4 [64, 3, 3, 64]
000000 94 ee c0 bd 5c 49 08 3c 2f 0f fc bc e7 70 55 3d
       -0.09420505 0.0083182715 -0.030768959 0.052109625
000010 19 26 2a bd b9 bc 3a 3d 4c 75 4f bd 1c 22 07 bd
       -0.04154024 0.045590136 -0.050648972 -0.032991514
000020 b6 b4 2a bd 50 8f 35 3d 62 60 5b 3c ae 71 ae 3c
       -0.041676246 0.044326127 0.013389679 0.021294441
000030 fd fb 00 3d c9 64 8d 3d 95 bb b5 bc d4 8a bc 3d
       0.031490315 0.06903989 -0.022184173 0.09206167
000040 58 29 a7 3d 38 fd 95 3d 4a 23 b1 bc 82 7c 5f bd
       0.081621826 0.07323688 -0.021623272 -0.0545621
000050 2f b4 18 3c fd 5b a0 bc ea 6f ba bd 86 51 7e bd
       0.009320303 -0.019575113 -0.09103377 -0.062089466
000060 e2 e2 6c bb 52 d3 85 bd 95 e7 22 bd 0b 95 da bc
       -0.0036145975 -0.06534447 -0.039771635 -0.026682397
000070 67 a2 ac 3c bf 25 43 3d 3a a3 4d bd aa 0b 2e 3d
       0.021073533 0.04764342 -0.050204493 0.042491592
000080 cb 71 8c 3a cf 14 4a bc 41 f4 34 3d ce 49 5d bd
       0.0010715065 -0.012334063 0.04417825 -0.054025464
000090 f1 06 e1 bd 33 5e 20 bd c4 1f 1f 3c f0 c7 6e bd
       -0.10987652 -0.039152335 0.009712163 -0.058296144
0000a0 e7 32 07 3d f9 ae b0 bc b0 1a d6 3c 8d ea d1 3d
       0.03300753 -0.021567808 0.026135772 0.10249815
0000b0 5c 72 87 3d a4 67 f1 bb eb 92 3e bd 50 08 b8 3c
       0.06613609 -0.0073670913 -0.04652683 0.022464901
0000c0 e1 10 b5 3c e6 94 a5 3d c5 bf 9d 3b cd 8d 2e bd
       0.022102775 0.08085041 0.0048141205 -0.0426157
0000d0 32 8d f9 3c f1 78 40 3d 5c 3d 4c bb 39 d5 c4 bc
       0.030462835 0.04699034 -0.0031164503 -0.024027454
0000e0 f3 fe 86 3d ad e1 f3 bc 2b 89 4a bc 95 9a 8f bd
       0.065915965 -0.029770697 -0.012361805 -0.07011906
0000f0 fe 88 6e bd ff 41 19 bd 47 a7 35 bd 98 a4 a2 3d
       -0.058236115 -0.037416454 -0.04434898 0.0794155
000100 9c 98 fa bc 47 8e 65 bb 25 db 89 bd 6f 18 1a bd
       -0.030590348 -0.003502743 -0.067312516 -0.037620958
000110 2e 63 8d bd ad 29 d1 3c 56 84 cc 3c c6 6a 59 bd
       -0.06903683 0.025532568 0.024965446 -0.053080343
000120 12 6b 7b 3d 3c 19 1b 3d 3c 6b 5d bd 83 c4 a8 bd
       0.061381407 0.037865862 -0.054057345 -0.08240607
000130 0c 9e 0a bd ee b5 21 3d 98 af 17 bd 8a b3 81 3d
       -0.03384213 0.039480142 -0.037032694 0.063330725
000140 79 05 68 3d a5 ec 4b 3d 12 71 24 bd 80 c7 b4 bb
       0.056645844 0.04978623 -0.040146895 -0.0055169463
000150 e8 45 55 bd 6a de 2d bd fb aa e5 3c 8e 5f 09 be
       -0.05206862 -0.04244844 0.028035631 -0.13415357
000160 32 a7 19 3d 33 92 e7 3b fa ce 51 3d 87 ec ac bc
       0.037512966 0.007066989 0.05122278 -0.021108879
000170 bc 5b 3d bd 6d cc 46 3d 61 2a 26 3d e4 ca 14 bd
       -0.046230063 0.0485348 0.04056776 -0.036326304
000180 6d 7b 87 bc 57 05 89 bd f8 47 78 bc d4 ad 76 bd
       -0.016538346 -0.066904716 -0.015153877 -0.06022437
000190 3f b8 be bc 57 16 8b 3c a4 f0 3f 3c c5 1f 06 3c
       -0.023281215 0.016978426 0.011715088 0.008186285
0001a0 3a 85 91 3d d4 f7 54 3d f7 49 05 3d c2 8a 89 3d
       0.07105489 0.05199416 0.03254124 0.06715919
0001b0 6d 5e 64 bd 61 bf f3 3c 5e 06 48 bd e8 f0 b0 bc
       -0.055754114 0.029754343 -0.048834197 -0.021599248
0001c0 4d 62 3c bc 15 0e 13 bd 8d 4e 13 3d ab 28 7a 3d
       -0.011498046 -0.0359021 0.035963584 0.06107394
0001d0 e3 d4 93 3b 1f 20 88 3d 1f 5f a6 3c 25 bb 1a bd
       0.004511462 0.066467516 0.02030903 -0.03777613
0001e0 2b 1e 09 bc 55 dc 31 3d b4 57 30 bd c5 ae 53 bb
       -0.008369009 0.043423016 -0.04305239 -0.0032300216
0001f0 7e be bb 3b e8 dc 60 3d 8b 60 3b bd 37 f8 54 3d
       0.0057294955 0.054898173 -0.045746367 0.05199453
000200 c4 db aa bc 0a 84 1a bd 80 a0 ac bc 01 31 82 3d
       -0.020856746 -0.03772358 -0.021072626 0.06357003
000210 f5 78 8f 3d 3b 6d 32 3d 3e f0 cc 3d ad a2 02 bd
       0.070054926 0.0435612 0.1000676 -0.03189342
000220 95 5d 60 3c 2b 28 54 bd a3 4b 00 3d b9 d9 8c bb
       0.013694187 -0.05179612 0.031322133 -0.0042984155
000230 ed 29 16 bc 90 00 46 3d 29 a7 a6 bb cc ba c2 3d
       -0.009165269 0.04834038 -0.005085845 0.09508285
000240 7d f1 7b 3b 42 cd 0a 3b 35 06 ce 3c 13 b5 0f 3d
       0.0038443499 0.0021179472 0.025149444 0.035084795
000250 ca b2 6a bc 70 08 64 3d 4b e7 cc bd 5d c6 e3 bc
       -0.014324853 0.05567211 -0.10005053 -0.027804548
000260 d8 81 8b bc 21 ed eb bb 6c b4 08 bd 2b 39 db 3c
       -0.017029688 -0.007199899 -0.03337519 0.026760658
000270 c5 6b 98 3d 8e d9 57 3b d2 26 90 bc d3 e7 3b 3c
       0.074424304 0.003293607 -0.017596636 0.011468845
000280 3a c8 02 bd 50 ad 1e bd 95 43 c9 bc 3b 3b 8c bd
       -0.031929232 -0.038739502 -0.024568358 -0.06847235
000290 92 ee 84 bb 67 6e 7e bd ed c3 53 bd ab 56 d8 bb
       -0.00405676 -0.062117007 -0.05170052 -0.0066021285
0002a0 9a fd e6 3d 36 ee 3a bc 79 18 07 3c 25 2e e6 3d
       0.112788394 -0.011409333 0.008245581 0.1123927
0002b0 4c 95 83 bd 1b b6 a9 3b a4 a9 8d bc 1b 93 75 bd
       -0.064249605 0.0051791794 -0.017292805 -0.059954744
0002c0 03 a3 7c bd bc 11 0c bd 5a 4c dc 3c b5 79 6d bd
       -0.061678898 -0.0341966 0.026891876 -0.057977397
0002d0 ef a2 39 bd 50 ea 29 3d 26 4b 46 bd 31 6c a2 3c
       -0.0453214 0.041483223 -0.04841151 0.01982698
0002e0 16 10 2c bd 88 47 fa 3c 41 d3 29 3c c4 29 0b bc
       -0.04200753 0.030551687 0.010365308 -0.008493844
0002f0 8c b9 91 bc 22 e0 40 3d 17 86 37 3d a1 f9 1f bd
       -0.017788671 0.04708875 0.044805612 -0.039056424
000300 90 07 8a bc a8 c5 20 bb 37 61 28 3d 4b dc cd 3c
       -0.01684931 -0.0024531875 0.041108336 0.025129458
000310 27 8c 87 bc 0c c1 0e bd 0f 5c 03 3d 1c b3 65 bd
       -0.016546322 -0.034852073 0.032070216 -0.056079015
000320 e7 3a 28 3c 6d 93 0c 3d 38 fd 1e bd f6 44 7f bc
       0.01026795 0.034320284 -0.038815707 -0.015580406
000330 db bb 49 bc 85 27 17 3c 4d 03 02 bd b8 39 bf bc
       -0.012312855 0.009225731 -0.03174143 -0.023342952
000340 89 0f 5a 3d 36 52 86 3c 34 ba b7 39 38 b8 30 bd
       0.05323747 0.016396623 0.00035043212 -0.043144435
000350 da d3 6e bd 05 5d aa 3c b5 1f 63 bc 59 bf 43 bd
       -0.058307506 0.020796308 -0.01386254 -0.047789905
000360 0b ef c5 bb bc 1b 55 bd 99 04 3e 3d 8a 41 6a 3d
       -0.006040459 -0.052028403 0.046391103 0.05719141
000370 80 11 7c 3c bd 10 89 3c 31 d8 00 bc 72 2b a3 bc
       0.015385032 0.016731614 -0.007864044 -0.019918177
000380 78 e8 de bd 94 9b d1 bb f1 0d 3d bb fb 85 f5 3c
       -0.10884184 -0.00639672 -0.002884742 0.029971113
000390 4c 65 6b bd e7 52 a3 3c ec 22 7e 3d 70 52 a2 bb
       -0.05746965 0.019936992 0.062045023 -0.004953675
0003a0 74 66 bf 3d 83 0e b8 3c af 01 43 bc 4b 4f 40 3c
       0.09345713 0.022467857 -0.011902257 0.011737655
0003b0 67 76 bc bb ab 5a 52 bd 51 b9 3e 3d e0 08 72 3c
       -0.0057514193 -0.051356 0.04656345 0.014772624
0003c0 0d 72 9b bc b9 e1 2a 3d af 78 36 bc 50 d1 b8 3b
       -0.018975282 0.041719172 -0.011137172 0.0056401864
0003d0 93 90 a8 3c bb 19 8b 3d f4 03 93 bd 51 95 4b bd
       0.02057675 0.06792017 -0.071784884 -0.049702946
0003e0 66 8e 69 bb f6 85 41 bb dd 5b b3 bc cf 1e 5c bd
       -0.0035637855 -0.002952931 -0.02189439 -0.05374032
0003f0 5f 99 fc 3c 19 df 85 3d 55 31 ea 3b 72 67 a5 bb
       0.030834852 0.06536693 0.007146994 -0.005047732

sequential_5/conv2d_9/Conv2D f4 [64, 2, 2, 64]
000000 6b 0d 1e 3d 32 fb db bd 9a 7e 14 bd aa da 90 bd
       0.038587015 -0.10741271 -0.03625355 -0.07072957
000010 a4 20 1d bd 61 25 29 3c 26 0a dc bd 0f 93 c6 bd
       -0.038361207 0.010323853 -0.10744123 -0.09696018
000020 9f 84 ca bd dd ed f2 bd 1f de 33 3d 50 3d d4 3a
       -0.09888577 -0.11861775 0.043913003 0.0016192589
000030 4c 35 e2 3c 25 f1 2c 3c d4 2a a4 bd 6b b9 2a bd
       0.027613305 0.01055554 -0.08015981 -0.041680735
000040 13 c5 b7 3d b5 2c 6b bc 95 f4 a2 bd 2b 36 f8 bb
       0.08973136 -0.014353921 -0.079568066 -0.0075748167
000050 e7 1b a1 bd 54 53 a8 bc 56 4d 6f 3d 2f 0f 9c 3d
       -0.0786665 -0.020547546 0.058423363 0.076200835
000060 5b de a9 3d 72 ac 9e bd 74 54 bb bd 1f 87 d1 bd
       0.08294364 -0.07747735 -0.091469675 -0.102308504
000070 f7 e6 90 3d 69 cf 16 3d eb 56 00 3e 0f 80 23 bd
       0.07075303 0.036818895 0.12533157 -0.039917048
000080 e6 41 17 3d 23 c2 b3 3d 92 cf 98 3c c4 6b d7 bb
       0.03692808 0.08777263 0.018653665 -0.006574126
000090 e5 0a e1 bd ce 19 8a 3d 1f a6 47 3d 45 7f 32 bd
       -0.10988406 0.06743203 0.04874241 -0.043578405
0000a0 44 5f e4 bd 8f 31 34 bd fe 77 a4 3b a5 23 49 3d
       -0.11150983 -0.043992575 0.005019187 0.04910626
0000b0 a6 3d 97 bc 3a 3f c3 bd 6b 34 b6 3d 02 41 12 3d
       -0.018462013 -0.09533544 0.08896717 0.035706528
0000c0 54 5a a2 bd 21 5f d2 bc 02 6f ad 3c 85 8b bb 3b
       -0.07927385 -0.025680127 0.021171097 0.005723419
0000d0 22 7e 4b 3d c3 66 20 3d c0 c2 f4 ba fb 6a 0b bd
       0.049680836 0.0391605 -0.0018673763 -0.03403757
0000e0 dd d9 d2 bc ae b2 a3 3d 07 c3 b4 bd 25 b7 8c 3c
       -0.025738651 0.07993065 -0.08826261 0.017177174
0000f0 64 00 ca bd c5 fa 0b 3d f1 18 4d bd 02 ad 45 3d
       -0.09863356 0.0341747 -0.050072614 0.048260696
000100 f3 1a d8 bd ac 36 0a bd 0b e7 86 3d 36 7f 0d bd
       -0.10552015 -0.033743545 0.06587037 -0.034545146
000110 3d 65 fa bc d7 01 b8 bd 5f 22 18 3d ab 85 f2 ba
       -0.030565852 -0.08984726 0.037142154 -0.0018502971
000120 43 20 7b 3d ad b8 27 bd a2 fa 4f bd f2 2a b3 bd
       0.061310064 -0.040947605 -0.05077613 -0.087484255
000130 2f c5 21 3d ef 6d 72 bd fa 72 62 3d c8 9a 6f bd
       0.03949469 -0.059186872 0.05528543 -0.05849722
000140 02 af 06 3d ce c7 ee bd f1 bc 03 bd 7c 09 8b bd
       0.032881744 -0.116592035 -0.03216261 -0.067889184
000150 97 db 63 3c 7b 57 9e 3d 01 d2 92 bc 5b c2 17 be
       0.013907335 0.07731529 -0.017922403 -0.14820234
000160 2d 04 bc bb 47 95 9b 3d 3d b7 29 bd 10 3d ad 3d
       -0.0057378025 0.07596832 -0.041434515 0.084589124
000170 d6 e1 66 bd 97 1e 45 3d ac c2 41 3d 89 d3 b9 bd
       -0.056367718 0.048124876 0.047304794 -0.0907355
000180 7b b9 f2 3c 74 81 8a 3b a2 21 8e 3d 23 bd 91 3d
       0.02962946 0.004226858 0.06940009 0.07116153
000190 1b e2 bc bd bf 4b 82 bb ce 0f 91 3d cb e0 b3 3d
       -0.09222814 -0.003976315 0.07083093 0.0878311
0001a0 cb eb e1 bc ae 17 ca bd 82 22 bc bc bb f6 ba 3c
       -0.027578255 -0.09867798 -0.022965673 0.022822728
0001b0 54 45 01 3e ea ba 3c bd 82 a2 9a bc 73 d5 68 3d
       0.12624103 -0.046076693 -0.018876318 0.056844186
0001c0 92 90 b6 bd 29 5a 0b be b9 e5 a9 3d a7 12 77 bd
       -0.08914293 -0.13608612 0.08295769 -0.060320523
0001d0 f1 01 cd bc 05 95 11 3d 0c d0 9b 3d ad 1b 63 bd
       -0.02502534 0.035542507 0.07608041 -0.055446316
0001e0 22 5f 0d be 44 b0 b1 3d ef d8 ff bc 76 70 9e bd
       -0.13805822 0.08676198 -0.031231372 -0.07736294
0001f0 2a bb 73 3c cf 7c 03 3d bb a2 3e bd a9 a1 89 3c
       0.014876166 0.03210145 -0.04654191 0.016800718
000200 9f 93 e7 bc 0b 6a 75 3c 25 69 67 3b 2e ab bf 3d
       -0.028268633 0.014978896 0.0035310474 0.09358822
000210 cd 7c e6 3c 8b d8 19 3d 33 34 1e bd 44 e0 8b bd
       0.028135682 0.037560027 -0.038624 -0.06829885
000220 32 5d aa bc 50 56 e3 bd 2f 35 63 bd 8f be f7 3c
       -0.020796392 -0.11100447 -0.05547064 0.030242233
000230 f6 29 8e bd fb 60 d6 bd 3c 57 3b 3c 8a e7 99 3d
       -0.06941597 -0.10467716 0.0114343725 0.07514866
000240 87 d8 e4 3c 8e 6f 06 be d5 3f 41 3c 76 22 91 3d
       0.02793528 -0.13128492 0.011795004 0.07086651
000250 5c 9f 47 bd 42 3f 6c 3d d9 e1 92 bd 8d a9 4a bd
       -0.04873596 0.057677515 -0.07171983 -0.049478102
000260 4d 40 32 bd 70 90 3c bc c1 50 d2 3d 90 38 c6 bd
       -0.043518353 -0.011509046 0.10269309 -0.09678757
000270 a8 6e 91 bd 24 87 a7 3d a5 bc 67 3d 40 e4 2d bd
       -0.07101184 0.08180073 0.05657639 -0.042454004
000280 60 77 ca bd 4b fe 01 3c 63 d6 04 3e 35 20 d1 bc
       -0.0988605 0.007934163 0.12972407 -0.025528053
000290 0a a4 14 bd 1d 48 8f 3d 66 a9 df bd f8 3b bf bd
       -0.036289252 0.069961764 -0.10920982 -0.0933761
0002a0 c4 e7 c2 3d 70 09 5a bc 0c e3 80 bd 77 4f af bd
       0.09516862 -0.013307914 -0.06293306 -0.085600786
0002b0 cf 59 4d 3c 0d 54 62 3d a6 ee d2 bc 0b 0f 2f 3c
       0.012533619 0.05525594 -0.025748562 0.010684739
0002c0 a0 2d b2 bd 14 e0 ef bd a1 bc 70 bd 8e 7f 26 3d
       -0.087001085 -0.117126614 -0.05877364 0.04064899
0002d0 0e 8f a3 3d 28 40 71 bd 1c c2 a0 bd 33 78 00 3d
       0.0798627 -0.058899075 -0.078495234 0.03136463
0002e0 85 cf 10 3d 79 72 a9 3d b3 b8 2b 3c e8 35 6f bd
       0.035354156 0.08273787 0.010481047 -0.05840102
0002f0 f9 af da bd a2 07 a7 bd 87 82 47 3b d6 ef e1 bd
       -0.10678095 -0.08155753 0.003044279 -0.11032073
000300 db b9 9e 3c 93 dd db bd 6b 75 7f bd 41 35 e6 bd
       0.019375732 -0.10735621 -0.062367838 -0.11240626
000310 a8 e1 5a bc 89 3b 7b 3d 04 72 b6 bd 06 1b ae bd
       -0.013359465 0.061336074 -0.089084655 -0.08501248
000320 c6 18 80 bd 77 e3 8d bd 7b f1 92 3d b2 7d 99 3d
       -0.06254725 -0.06928151 0.07174965 0.074946776
000330 de 9a ad bd b5 64 99 bd 32 6f c4 bd 50 f1 6e bc
       -0.08476804 -0.074899115 -0.09591521 -0.014583901
000340 c0 58 b8 3d 92 e2 16 be 50 72 78 bd fe 30 7e bd
       0.09001303 -0.14734867 -0.060655892 -0.06205844
000350 29 85 f7 bd 7c c8 81 3d 5c 4d 7c bc 66 c7 aa 3c
       -0.12085945 0.063370675 -0.015399303 0.020847034
000360 80 e6 1a be aa 64 7c 3d 6c 27 45 bd b0 d9 ab bd
       -0.15126991 0.06161944 -0.0481333 -0.0839113
000370 4c 39 01 bd 7d 95 ec 3d 1e 75 af bd 4a ff a2 3d
       -0.031548783 0.1155195 -0.0856726 0.07958849
000380 49 e4 c3 bd 6b 6a cb bd a1 3e 74 3d b5 c1 0c be
       -0.09565026 -0.09932407 0.05963004 -0.13745768
000390 0b 46 90 bd 74 78 7a 3d cc fb b7 bd 9c 9a 46 3d
       -0.0704461 0.06115003 -0.08983573 0.04848729
0003a0 db cc b2 bc 12 80 23 3d 74 48 97 bd 2e 36 6f bd
       -0.021826198 0.03991706 -0.07386866 -0.05840128
0003b0 49 74 db 3d 92 e9 91 bd 98 6f dc 3d dd a8 96 3d
       0.10715539 -0.07124628 0.10763472 0.07356427
0003c0 0c a5 b4 bd 88 55 8c bc 54 c6 a4 bd 8b 31 e5 3c
       -0.08820543 -0.017130628 -0.080456406 0.027977725
0003d0 c9 56 b8 bd 70 50 f5 3c ea b9 d4 bd ee e8 bc bc
       -0.09000928 0.029945582 -0.10387023 -0.023060288
0003e0 6d 8c b0 bc e6 a2 ff bc 78 f5 75 bd 62 ef 66 bd
       -0.021551335 -0.031205606 -0.06004855 -0.056380637
0003f0 f5 09 ff bc 95 e0 8f 3d c2 a2 9e 3d ea 70 8a 3d
       -0.031132678 0.070252575 0.07745887 0.06759818

sequential_5/conv2d_10/Conv2D f4 [64, 2, 2, 64]
000000 15 82 45 3d a7 b1 66 3d cc ac d9 bb b1 fa 1e bd
       0.04821976 0.056321766 -0.0066429134 -0.038813297
000010 b4 fd fa 3c d8 60 75 bd ca 76 75 bb 2e 77 3e bd
       0.030638553 -0.05990681 -0.0037454837 -0.046500377
000020 6d 68 96 3b eb ee ad 3d b9 29 d5 ba dc 08 33 3d
       0.0045900852 0.084928356 -0.0016263045 0.04370962
000030 87 b6 93 3c 26 18 dc bd 7f e4 6e bd e0 39 80 bd
       0.018031372 -0.107467934 -0.05832338 -0.06261039
000040 73 f3 3a 3c 5d dd 00 3e 9a 12 a5 bd d8 91 4f bd
       0.011410582 0.12584443 -0.080601886 -0.050676197
000050 91 30 b4 3d 86 f0 17 bd 7b cc b8 bc 6e 40 53 3d
       0.08798326 -0.037094615 -0.022558441 0.051575117
000060 16 a5 54 bd 9d 3e 0d bd 79 e5 a8 bc 11 e7 3b 3d
       -0.05191525 -0.03448354 -0.020617234 0.04587466
000070 7a 28 e0 bd 74 d4 70 3d e3 27 55 bd d3 6f f9 3d
       -0.1094522 0.05879636 -0.052039992 0.12179532
000080 7e 62 89 bc 59 32 0d 3d a1 20 70 bc 1b 50 95 3d
       -0.016770598 0.034471843 -0.014656217 0.072906695
000090 b2 97 68 3d e6 05 d5 bd 7d 81 b7 3c 0e 75 00 ba
       0.056785293 -0.10401516 0.022400612 -0.0004900255
0000a0 fa db 90 bd b5 37 a5 3d 56 6e 12 3d 2e 69 bb 3d
       -0.07073207 0.08067266 0.035749756 0.09150921
0000b0 0c d6 86 bd b8 6c 99 3a d6 de 39 bd 27 93 a0 bc
       -0.06583795 0.0011705374 -0.04537853 -0.019601418
0000c0 4e 8a 9e 3d de 8c 41 3d 42 9a 58 bd a7 7f 7b bd
       0.07741223 0.047253482 -0.052881487 -0.061401036
0000d0 4e 0b 13 3d b5 b2 02 bc 04 c6 2e bd e7 08 cf 3d
       0.035899453 -0.007977177 -0.04266931 0.1010912
0000e0 8e 66 93 ba a2 25 8a bd ca 43 d2 3a 8c 91 37 bd
       -0.0011245774 -0.06745459 0.0016041931 -0.04481654
0000f0 e8 fa 90 bd 60 fc 81 bd 4e 1f b2 3d cd 1d c7 bd
       -0.070791066 -0.06346965 0.08697377 -0.09722481
000100 b5 06 13 bc 6f 47 e3 3d a1 96 b7 3d 6e 86 c5 3d
       -0.008973767 0.11097609 0.08964277 0.09644781
000110 ae cc af 3d 63 b0 6f bd bb a6 05 bd 36 43 1f 3c
       0.085839614 -0.058517825 -0.03262971 0.009720614
000120 50 68 50 bd 4e 73 77 3d 5b e6 ce 3c 24 92 79 bd
       -0.05088073 0.060412697 0.025256326 -0.060930386
000130 1e 0b af 3d 6a c5 c6 bd 62 29 a5 3d 99 4d 94 bc
       0.08547042 -0.097056225 0.08064534 -0.018103408
000140 f9 13 0d 3d 12 4d dd bd cb d3 0d 3d d4 a7 b1 bc
       0.034442876 -0.108057156 0.03462581 -0.021686472
000150 71 3c 91 bd 06 43 74 bc 42 c4 a9 3c 73 e2 b2 bc
       -0.070916064 -0.014908558 0.020723466 -0.021836495
000160 19 99 57 bd 1f e9 8f 3d 9a 48 aa 3d 50 bd 94 3d
       -0.05263624 0.07026886 0.08314629 0.07262671
000170 a9 69 89 bd ab da 57 bd 55 a3 5c bd 16 15 64 3e
       -0.06709606 -0.052698772 -0.053866703 0.22273669
000180 91 d3 de 3d 88 79 a1 bb f2 5f 56 3a 85 2f 21 bd
       0.10880197 -0.0049278177 0.0008177749 -0.03935196
000190 70 c3 00 3c 08 62 be bc ae a9 5d bd 64 46 1d 3d
       0.007859096 -0.023240104 -0.054116897 0.038397208
0001a0 41 0c ef bc 30 39 3d bd 86 e0 98 bc ed 6a 3e bd
       -0.029180648 -0.046197116 -0.018661749 -0.04648869
0001b0 8f ad 7a 3a a6 af 2f 3d 6a b2 67 bd 85 6e aa bd
       0.00095626054 0.04289212 -0.056566633 -0.08321861
0001c0 46 da 1d be 35 e4 f1 3d 8f e4 92 bd 5b db 91 3c
       -0.15415296 0.11811105 -0.071725 0.017804792
0001d0 41 60 1d bd 20 b4 88 3b d2 35 b8 3d 3f c2 1b 3c
       -0.038421873 0.004171863 0.089946404 0.009506761
0001e0 3f 64 4b 3d b0 a3 4b 3d fe 64 2b 3e af 09 5b 3d
       0.04965615 0.04971665 0.16737744 0.053476032
0001f0 a0 fa 96 bd 99 ec d4 3c e0 7a aa 3d 51 bd 80 3d
       -0.07372022 0.025991725 0.08324218 0.06286109
000200 07 2b 51 bc 57 35 02 be fc 13 ee 3c fb 9b 68 bd
       -0.012766606 -0.1271566 0.029062264 -0.05678938
000210 23 7b ea 3c bd ba ed 3d 4a b7 42 bd 2c 75 5e bd
       0.02862317 0.11607883 -0.04753808 -0.054310963
000220 77 91 fc bb 5c 8f 94 bd 0c fc 41 bd c0 79 6a 3d
       -0.0077077704 -0.07253906 -0.04735951 0.057245016
000230 28 e6 65 3c 85 38 bd 3c b2 eb 9c 3d 82 b7 13 3c
       0.014031924 0.02309824 0.07662143 0.00901592
000240 51 e8 bb bd fc 05 0a 3e 5c fa b0 3d 6a ea 52 bd
       -0.0917517 0.13478845 0.08641502 -0.051493086
000250 2b 5b a9 3b 38 b5 29 3d 55 e4 05 3d 66 be d6 bc
       0.005168339 0.04143259 0.032688458 -0.026213836
000260 8f 36 cc 3d f5 45 15 3e d3 6f 46 3d fc 4f 68 bd
       0.09971344 0.14577468 0.048446488 -0.056716904
000270 05 68 2c be 3f c6 84 3d 4f 3f 2e 3d ee cf 31 3d
       -0.16836555 0.06483125 0.042540845 0.043411188
000280 65 31 03 bc 66 32 ad 3d a9 68 9e bd 25 fc e0 3c
       -0.008007382 0.08456878 -0.07734806 0.027463982
000290 9e e7 8d 3d 2f e5 8f bd 06 53 ea bd d2 40 88 bc
       0.06928943 -0.07026135 -0.11441617 -0.016632471
0002a0 e9 17 19 3d 31 8c e9 3b 8a 2a dd 3d 5e e6 80 3d
       0.037376318 0.007127308 0.10799129 0.06293939
0002b0 23 e0 09 3d 65 8b 47 bd db 24 94 bd 0a 4f 6d 3c
       0.03366102 -0.04871692 -0.07233592 0.014484176
0002c0 2c 48 98 bd ef 9b 06 3e 2c 86 be bd d7 64 18 bd
       -0.07435641 0.13145421 -0.09302935 -0.037205543
0002d0 61 47 2c 3d 77 54 05 3c 92 10 16 3e 49 31 73 3c
       0.04206026 0.008137814 0.14654759 0.0148432935
0002e0 98 87 c4 3c aa ee 45 bd 43 ef 13 3a df 88 be 3d
       0.023990437 -0.04832331 0.0005643258 0.0930345
0002f0 f1 c4 cd 3d 26 32 ce 3b 39 f4 77 3d 0c af 6a bd
       0.10047329 0.0062925993 0.060535643 -0.057295844
000300 de 5f 7b bc 77 d9 55 3d 7a 9a 79 3d 57 5a b4 3d
       -0.015342681 0.052209344 0.060938336 0.088062935
000310 99 7c e0 3d 28 32 5e bd d8 5b e4 3c 9e 1e 9a bd
       0.10961265 -0.05424705 0.027875826 -0.07525371
000320 92 b2 44 bd 47 37 a4 3d 48 98 78 bd 92 7a c7 3d
       -0.04802186 0.08018356 -0.0606921 0.09740175
000330 9f b5 cb 3d a7 63 d8 bd c1 e8 fd 3d 64 e3 c8 bd
       0.09946751 -0.10565882 0.1239791 -0.09808996
000340 fe b7 5b 3d c6 07 cc 3b f0 fe f3 3d 32 cf cf 3d
       0.053642265 0.0062265126 0.1191386 0.10146941
000350 65 0b 1f 3d 84 72 41 bd 8b 72 0e 3e 50 4d 50 3d
       0.038829226 -0.04722835 0.13910882 0.05085498
000360 59 65 88 bd 99 c6 79 3d 77 23 8a bd 5f 57 28 bd
       -0.066599555 0.060980413 -0.06745046 -0.04109895
000370 64 33 fb bc e2 56 3e 3e d4 ad 6a bd f3 27 7e 3e
       -0.030664153 0.1858783 -0.05729468 0.24819927
000380 58 1c 05 3d 8c 07 c8 3d 28 53 91 bd 1c 10 86 bd
       0.032497734 0.097670645 -0.07095939 -0.06546041
000390 19 41 38 3c 59 a9 0c 3e 37 e0 0e be 4d 6f af bd
       0.011245989 0.13736476 -0.13952719 -0.08566151
0003a0 ea 2b 80 3c 85 6e 80 3b ac 64 38 3c 2f 7e ef 3c
       0.01564594 0.003919425 0.011254471 0.029234974
0003b0 36 68 ee 3d e9 dd 97 bd 6a 64 bc bd fa 13 1e 3d
       0.116409704 -0.07415373 -0.0919884 0.03859327
0003c0 d2 7c c6 bd 4d e6 d3 3d a8 6c 6c bd c5 fc a1 3c
       -0.09691776 0.10346661 -0.05772081 0.01977385
0003d0 58 2a b7 3c 10 73 a6 3d 76 c6 88 3d 40 a8 c9 bc
       0.022359058 0.08127415 0.066784784 -0.02461636
0003e0 7c ac 9b 3d 50 b6 a9 3d 07 95 de 3d 56 89 13 3e
       0.07601258 0.082867265 0.108682685 0.14407858
0003f0 7d 0e d5 3c 88 16 d5 3d b1 15 10 bd fa 9a ce bc
       0.026007885 0.10404688 -0.035176937 -0.025220383
