exports/CedarAppleRust.tflite (tflite, 485128 bytes, 16 tensors)

sequential_2/conv2d/Relu;sequential_2/conv2d/BiasAdd;sequential_2/conv2d_5/Conv2D;sequential_2/conv2d/Conv2D;sequential_2/conv2d/BiasAdd/ReadVariableOp f4 [64, 1, 1, 3]
0	0x383caf8b	4.498618e-05
1	0xba214070	-0.00061512645
2	0x3a55a0ae	0.00081492483
3	0x395345eb	0.00020148575
4	0x39cf5d72	0.0003955174
5	0x3a84fdcd	0.0010146439
6	0x3a0759db	0.0005163231
7	0xba85fc06	-0.0010222204
8	0xba33a8df	-0.0006853472
9	0x37a96985	2.0195506e-05
10	0x3a68c123	0.0008878877
11	0xba1b9dcf	-0.0005936296
12	0xb798f751	-1.8234978e-05
13	0x393b7c6a	0.00017880058
14	0xba5e5cd2	-0.0008482459
15	0xba775ca9	-0.00094361097
16	0xba8e85c0	-0.0010873601
17	0xba0e6ca5	-0.00054330594
18	0xba86a842	-0.0010273533
19	0xb9d84931	-0.00041253262
20	0x3aa39f95	0.0012483472
21	0xba1ff229	-0.00061014533
22	0xb9813ebf	-0.00024651547
23	0xba6cb6a1	-0.00090298994
24	0xb93fbf08	-0.00018286344
25	0xba53f8e4	-0.0008086099
26	0xb9a288f0	-0.00031001074
27	0x3a893a6d	0.0010469683
28	0xba354649	-0.00069150754
29	0xb9ba948f	-0.0003558737
30	0xba48ad50	-0.000765522
31	0x380176ca	3.0866628e-05
32	0xba4dc066	-0.0007848799
33	0x3a08b776	0.0005215326
34	0xba5e5569	-0.0008481355
35	0x38f3476d	0.00011600447
36	0x39665592	0.00021966387
37	0x3a2dd250	0.0006630765
38	0xba90042f	-0.0010987575
39	0xba1b3f24	-0.00059221894
40	0xb8c06374	-9.173798e-05
41	0xba762475	-0.0009389588
42	0x3a94bb4c	0.0011347323
43	0x3a42aa7c	0.0007425917
44	0x37af90ff	2.0929145e-05
45	0xba910721	-0.0011064747
46	0x3a091e43	0.00052306446
47	0xb983c92b	-0.0002513615
48	0xbaa0d0da	-0.0012269274
49	0xbabfb7e6	-0.001462695
50	0xb856b0ab	-5.118611e-05
51	0xba75eede	-0.0009381602
52	0x3a8e7d54	0.0010871091
53	0x3a97077e	0.0011522619
54	0xba101243	-0.0005495885
55	0x39c409c6	0.00037391315
56	0xba6e4deb	-0.000909059
57	0x3a1ef585	0.0006063807
58	0xb92258ab	-0.00015482555
59	0x3a6c823e	0.0009022093
60	0x37df2fa5	2.6605858e-05
61	0xba0cb73a	-0.0005367879
62	0x3a84735a	0.0010105178
63	0x37a8100f	2.0034639e-05
64	0xb9d1db00	-0.00040026754
65	0x3a364a7e	0.0006953849
66	0x3900fb13	0.00012300564
67	0xb9ce3260	-0.00039328914
68	0x39eb8787	0.0004492367
69	0xba0c9b91	-0.00053637574
70	0xb8f2c475	-0.00011576052
71	0xba20709a	-0.00061202946
72	0x38099158	3.2798707e-05
73	0x3a90b9f7	0.001104175
74	0xba71f218	-0.0009229495
75	0xba18a686	-0.0005823154
76	0xba8e53d9	-0.0010858729
77	0xb983af1c	-0.00025116734
78	0xb966f464	-0.00022025552
79	0x39cb98ab	0.00038832924
80	0x39a0c9ec	0.00030668022
81	0x3a45b290	0.00075415615
82	0x39bd733f	0.00036134754
83	0xba8f385d	-0.0010926832
84	0x39db2746	0.00041800196
85	0x3a4bd9e9	0.00077763066
86	0x3a8f8072	0.0010948314
87	0xb99954a6	-0.00029245502
88	0x3a442147	0.00074817654
89	0x39eda4a3	0.00045326827
90	0xb9975d24	-0.0002887036
91	0xb82b1fa0	-4.079903e-05
92	0xba15f04b	-0.00057197054
93	0xba0f36e1	-0.00054631947
94	0x3a1f5764	0.0006078391
95	0xba5d8728	-0.0008450621
96	0x3a258b26	0.0006314985
97	0x3a6293e0	0.0008643251
98	0xb8dc912d	-0.000105174586
99	0xba89e125	-0.0010519369
100	0xba9ed3f9	-0.0012117616
101	0x3a5cced5	0.00084231544
102	0xba47050a	-0.00075919984
103	0x38813467	6.16096e-05
104	0x3a4ff490	0.0007932866
105	0xba805b22	-0.0009792785
106	0x392b6ac2	0.00016347601
107	0xba8d6cea	-0.0010789905
108	0x39223ed9	0.00015472937
109	0x3a8ac86d	0.0010588296
110	0x3a920e95	0.0011143262
111	0xb97993a0	-0.00023801485
112	0xb9ed5461	-0.0004526703
113	0x39b5268a	0.00034551724
114	0x39e0c0f8	0.00042868382
115	0x3a3f1782	0.0007289575
116	0x3a6cc7db	0.00090324663
117	0xba71ad67	-0.00092192594
118	0x3a6f73b3	0.0009134367
119	0x3a8b8d4d	0.0010646969
120	0xb9dfede2	-0.0004271111
121	0x396aa7a4	0.0002237843
122	0x3a3fade9	0.00073119864
123	0xba720e94	-0.00092337397
124	0xb8dea60c	-0.000106167136
125	0x398d1df4	0.00026915933
126	0x3a50722a	0.0007951582
127	0x3a8eef24	0.001090501
128	0x38a4d2ab	7.859369e-05
129	0xba820697	-0.0009920177
130	0xb9c400c8	-0.00037384615
131	0x3a4c2312	0.00077872083
132	0x3a402dbb	0.0007331033
133	0x397163e9	0.0002302077
134	0xba94b788	-0.00113462
135	0x3a7623a8	0.00093894685
136	0x39bbe8ea	0.00035840954
137	0xba34d12d	-0.00068976247
138	0xb95248ba	-0.00020054253
139	0xb97bd3ad	-0.0002401608
140	0xb90bfd2e	-0.0001335039
141	0xb7bb7bf9	-2.2349866e-05
142	0x3a804b67	0.0009788097
143	0x3a6dcf47	0.0009071719
144	0x39ed566b	0.0004526855
145	0x3a60a0c2	0.00085688767
146	0xba1fea8d	-0.00061003194
147	0xba7756cd	-0.00094352366
148	0xb9d98605	-0.00041489318
149	0xb9a6e8d9	-0.00031835472
150	0x3a8a123b	0.0010533998
151	0x39666440	0.00021971855
152	0xba531712	-0.0008052449
153	0x3ab458fe	0.0013759432
154	0xba5836bb	-0.00082479016
155	0xba178fa7	-0.0005781599
156	0x3a568afc	0.00081841624
157	0xb9ba829d	-0.00035574
158	0x39a02351	0.0003054389
159	0xba3646d8	-0.00069533056
160	0xba0f1ce6	-0.00054593233
161	0xba97c728	-0.0011579739
162	0x3a9bede7	0.0011896462
163	0xba91c876	-0.0011122364
164	0x39a41c1e	0.00031301467
165	0x39b5096f	0.0003453004
166	0x39defd27	0.00042531753
167	0xb932f641	-0.0001706714
168	0x3a3e7aaa	0.0007266203
169	0xb88e92f5	-6.7984605e-05
170	0xba1b908b	-0.00059343193
171	0xba473b9e	-0.0007600131
172	0x37a61ec2	1.9803065e-05
173	0x38ca2fff	9.6410506e-05
174	0x3a1ff7ed	0.00061023125
175	0x394f1dbc	0.00019752135
176	0xba5581da	-0.00081446546
177	0xb93dff08	-0.00018119451
178	0xba45b11d	-0.00075413455
179	0xba253790	-0.000630253
180	0x3a2a9989	0.0006507864
181	0x39fdb07e	0.00048387417
182	0xba82a8bf	-0.0009968503
183	0x3753677e	1.2600676e-05
184	0xba5a016a	-0.0008316251
185	0xba874429	-0.0010319996
186	0x39b3bbad	0.0003428137
187	0xba1991ac	-0.00058581936
188	0x37b76095	2.1860275e-05
189	0x3a84b301	0.0010124148
190	0xba901558	-0.0010992689
191	0x39f5078f	0.00046735673

sequential_2/conv2d/BiasAdd/ReadVariableOp f4 [64]
0	0xbce24c65	-0.027624318
1	0xbd18fff1	-0.03735346
2	0x3cf19448	0.029489651
3	0xbc1d5fdb	-0.009605373
4	0x3d205bac	0.039149925
5	0x00000000	0.0
6	0x3d0fed6b	0.03513853
7	0x00000000	0.0
8	0x00000000	0.0
9	0x3c2b4a33	0.010454702
10	0xbc0bcacb	-0.008532236
11	0xbcb88391	-0.022523673
12	0xbc32c4d2	-0.010911183
13	0x00000000	0.0
14	0xbc62183f	-0.013799726
15	0xbce2a1f2	-0.027665112
16	0x3d0abb50	0.03387004
17	0xbc689b62	-0.014197202
18	0x3d7ddcdf	0.061978217
19	0xbd138f38	-0.036025256
20	0xbc0b95d6	-0.00851961
21	0xbb4ab992	-0.0030933362
22	0xbc16739e	-0.009182839
23	0x00000000	0.0
24	0x3c260a0d	0.010134232
25	0x00000000	0.0
26	0xbd588ddf	-0.052869674
27	0x3ca031ab	0.019554934
28	0xbda20123	-0.07910373
29	0xbcbbcc7c	-0.022924654
30	0x00000000	0.0
31	0x3d4f1e98	0.050566286
32	0xbdade84b	-0.08491572
33	0xbca00ef1	-0.019538375
34	0xbbdea15e	-0.006794139
35	0xbcbddbe0	-0.023176134
36	0xbc991a08	-0.01868917
37	0xbcdf3f9f	-0.027252017
38	0xbd22bfec	-0.039733812
39	0xbcb32045	-0.021865973
40	0xbb85708b	-0.004072254
41	0xbc860ec7	-0.016364468
42	0xbca6e8b3	-0.020374632
43	0xbcf655b8	-0.03007017
44	0xbca6bd26	-0.020353865
45	0xbc3db2b9	-0.011578255
46	0x00000000	0.0
47	0xbdd02045	-0.10162405
48	0xbc88a20f	-0.016678838
49	0x00000000	0.0
50	0xbba2d0b9	-0.0049687293
51	0x3bf2a23e	0.0074045947
52	0xbd152632	-0.03641338
53	0x00000000	0.0
54	0x3a9f2e47	0.0012144529
55	0xbd7da500	-0.061924934
56	0x3bab8614	0.005234489
57	0xbc3c313c	-0.011486348
58	0x3c39d9c5	0.011343424
59	0x00000000	0.0
60	0x3bf19585	0.0073725604
61	0xbbbb5af4	-0.0057176296
62	0xbc0b3597	-0.0084966635
63	0x3a0ed13a	0.00054480473

sequential_2/conv2d_1/BiasAdd/ReadVariableOp f4 [64]
0	0xbc72d923	-0.014822277
1	0xbb898b26	-0.004197496
2	0xbb37e35a	-0.0028059096
3	0xbb8b1ae6	-0.00424515
4	0xbd0d67f0	-0.03452295
5	0x3c23d959	0.01000055
6	0xbc61a5ca	-0.013772437
7	0x3c16698a	0.009180436
8	0xbc4a77aa	-0.012357632
9	0xbc4449f0	-0.011980519
10	0xbd052c60	-0.032513022
11	0x3bb137b4	0.0054082517
12	0x3b955096	0.0045567257
13	0xbc28abd6	-0.010294875
14	0xbbac2fa8	-0.0052547045
15	0xbc04602f	-0.008079573
16	0x3c3eacf4	0.011637915
17	0xbb3e95b3	-0.0029080927
18	0x3c815a40	0.015790105
19	0xbcc85e20	-0.024458945
20	0x3c659edd	0.014014927
21	0xbb17e46c	-0.0023176922
22	0xbbd01a66	-0.006350803
23	0xbcb7ba56	-0.02242772
24	0xbc8b7bcd	-0.017026806
25	0x3baffabf	0.0053704674
26	0xbb47aad3	-0.003046681
27	0xbb871cce	-0.004123307
28	0xb9b7baf7	-0.0003504378
29	0xba4f07be	-0.0007897577
30	0xbc7c5917	-0.0154021
31	0xbc8abe13	-0.016936338
32	0xbd19a69c	-0.037512407
33	0xbce8eed2	-0.02843419
34	0xbb208bc4	-0.002449737
35	0xbc83213e	-0.016007062
36	0xbc9499a0	-0.01813966
37	0x3d0327b3	0.032020282
38	0xbc029c09	-0.007971772
39	0xbc3e1ad4	-0.011603076
40	0xbca76e9c	-0.020438485
41	0xbc058cf2	-0.00815128
42	0xbc971970	-0.018444747
43	0xbc7774af	-0.015103503
44	0xbc1a742b	-0.009427111
45	0x3c3f8e65	0.011691664
46	0x3a4878f9	0.0007647421
47	0xbc94ee77	-0.018180115
48	0xbbe389d6	-0.0069439216
49	0xbb65a92a	-0.0035043457
50	0xbd5168a4	-0.051125184
51	0x3b775143	0.0037737645
52	0xbb3cdf3c	-0.0028819581
53	0xbbeacd35	-0.007165576
54	0xbbc385c2	-0.005966873
55	0xbd69e8d0	-0.057106793
56	0xbcc26763	-0.02373094
57	0xbc6e4da2	-0.014544876
58	0x3ab2c2d5	0.0013638387
59	0xbbf572fb	-0.0074905134
60	0xbbadfd5c	-0.005309744
61	0x3b64f958	0.003493866
62	0x3b3ef74d	0.0029139102
63	0x3bde192a	0.006777902

sequential_2/conv2d_2/BiasAdd/ReadVariableOp f4 [64]
0	0xbc96dc35	-0.01841555
1	0xbc9ae868	-0.018909648
2	0xbc467050	-0.012111738
3	0xbd0cdf3f	-0.03439259
4	0xbcc9b1b8	-0.024620876
5	0xbd136285	-0.035982627
6	0xbcab25e5	-0.020892093
7	0xbabb9b08	-0.0014313171
8	0xbba87c6b	-0.005141785
9	0xbbb3b40d	-0.00548411
10	0xbaf72329	-0.0018855083
11	0xbc557493	-0.013028282
12	0x3ca0b4c6	0.01961745
13	0x3c971ab4	0.01844535
14	0x3c74a0de	0.014930932
15	0xbc59ad12	-0.013285892
16	0xbc6bcff7	-0.014392844
17	0x3cb58e9c	0.022162728
18	0xbc6b8de8	-0.014377095
19	0x3c3916e1	0.011296959
20	0x3ce2a874	0.027668215
21	0xbcaa123f	-0.020760654
22	0x3bbd7aff	0.0057824845
23	0xbc8334a3	-0.01601631
24	0xbb98bd1b	-0.004661215
25	0xbc421f09	-0.01184822
26	0xbc8b24d5	-0.016985336
27	0xbba85813	-0.0051374524
28	0xbcc1b9da	-0.023648191
29	0x3c66bd0e	0.01408316
30	0x3b8d8eff	0.004320025
31	0xbc7a7c05	-0.015288358
32	0xbca2fa88	-0.019894853
33	0x3cae3477	0.021265252
34	0x3c44fc61	0.012023062
35	0xbb848c06	-0.0040450124
36	0xbcf8995a	-0.030346561
37	0xbc9794bc	-0.01850354
38	0xbc6c27f8	-0.014413826
39	0xbd2b3dcc	-0.04180698
40	0xbc4a1dc6	-0.0123362
41	0xbcc14030	-0.023590177
42	0x3cac77e2	0.021053258
43	0x3c39ad90	0.011332884
44	0xbcab6583	-0.020922428
45	0xbcc13550	-0.023584992
46	0xbce04a2b	-0.027379116
47	0xbc8f1ae8	-0.017468885
48	0xbd022575	-0.031774003
49	0x3c69f489	0.014279493
50	0xbbdecb03	-0.006799103
51	0x3c80c59e	0.015719231
52	0xbc88468b	-0.0166352
53	0x3d2a839c	0.04162942
54	0xbb8441e8	-0.004036177
55	0xbb5dd043	-0.0033846057
56	0xbd7c2103	-0.06155492
57	0xbc301b8a	-0.010748753
58	0xbd5740a7	-0.05255189
59	0xbc3cb0ff	-0.0115168085
60	0xbc3b2ccb	-0.011424254
61	0x3c723fed	0.014785749
62	0xbcaf6b7f	-0.021413563
63	0xbd1718f4	-0.03688903

sequential_2/conv2d_3/BiasAdd/ReadVariableOp f4 [64]
0	0xbc5d211b	-0.0134966625
1	0xbcd072d8	-0.025445387
2	0xbd0ed4da	-0.03487096
3	0xbcbb654d	-0.022875452
4	0xbc7bc06f	-0.015365704
5	0x3c42f8b9	0.01190012
6	0x3c9adca4	0.018904038
7	0x3a810e55	0.000984619
8	0xbd42d525	-0.04756655
9	0xbca0abe4	-0.019613214
10	0xbccebdcd	-0.025236988
11	0xbd1594cd	-0.03651886
12	0xbd21fd5d	-0.039548267
13	0x3c37776e	0.011197908
14	0x3c7c9bb3	0.015417981
15	0x3d084b00	0.03327465
16	0xbc718998	-0.014742278
17	0xbc494ef6	-0.012286892
18	0x3af0b9ee	0.0018365958
19	0x3b7e3966	0.0038791536
20	0x3cbcffc8	0.023071185
21	0xbd009b29	-0.031397972
22	0xbce0f09f	-0.027458487
23	0xbc958799	-0.018253135
24	0x3caeab62	0.021321956
25	0xbc422719	-0.011850142
26	0xbbed4509	-0.0072408956
27	0xbaa4dccb	-0.0012578008
28	0x3c321941	0.010870279
29	0x3c915087	0.017738594
30	0x3bd82706	0.006596449
31	0xbc66fc75	-0.014098276
32	0xbc5dc95d	-0.013536778
33	0x3c147792	0.009061711
34	0x3c7954b6	0.015217951
35	0xbc3a5fe0	-0.011375397
36	0x3c15fbbf	0.009154259
37	0x3c8afb0c	0.016965412
38	0xbc72d835	-0.014822056
39	0x3c9f2078	0.019424662
40	0x3c7f30f2	0.015575634
41	0x3c76f277	0.015072457
42	0x3a508b3a	0.00079553167
43	0xb861be09	-5.3821164e-05
44	0xbca1464d	-0.019686842
45	0xbcc583fe	-0.02411079
46	0x3ab7193f	0.0013969316
47	0x3c0a7367	0.008450366
48	0xbd0aa7de	-0.033851497
49	0x3c80578e	0.01566675
50	0xba435e70	-0.0007452732
51	0x3bfe761d	0.007765545
52	0xbb8a710d	-0.0042249025
53	0xbd0dbf2a	-0.034606136
54	0xbd51f503	-0.051259052
55	0xba9bae8e	-0.0011877583
56	0xbbc3761f	-0.005965009
57	0xbbd8c368	-0.006615091
58	0xba482869	-0.0007635416
59	0xbc7b543c	-0.015339907
60	0xbc47bc2c	-0.01219086
61	0xbc85f5cd	-0.016352559
62	0xbc32b59e	-0.010907559
63	0xbc91c050	-0.017791897

sequential_2/conv2d_4/BiasAdd/ReadVariableOp f4 [64]
0	0xbcb3e2fd	-0.021958822
1	0xbc7b61a3	-0.015343103
2	0xbd52b5ae	-0.051442795
3	0x3ada6fc3	0.0016665388
4	0x3b931042	0.004488022
5	0x3c068d5f	0.008212416
6	0xbccb198b	-0.024792453
7	0x3b5e963d	0.003396406
8	0x3bd8f1e3	0.006620632
9	0x3ce87dbb	0.028380265
10	0xbcd06094	-0.025436677
11	0xbcbb81a1	-0.02288896
12	0xbc258aa4	-0.010103855
13	0xbcccc980	-0.024998426
14	0xbc8c237f	-0.01710677
15	0xbc1069a6	-0.008814251
16	0xbc7f95b8	-0.015599661
17	0x3ca6337b	0.02028822
18	0x3bd37e36	0.0064542545
19	0xbba753fd	-0.0051064477
20	0xbb4173e0	-0.002951853
21	0x3c8cd7ea	0.0171928
22	0x3bb4765b	0.005507273
23	0x3bf6ad30	0.00752797
24	0xbb778255	-0.0037766893
25	0x3c9316d7	0.017955227
26	0x3c092ab0	0.008371994
27	0x3b8e8676	0.004349525
28	0xbb1a1d37	-0.0023515949
29	0x3c894b4e	0.01675954
30	0xbc8abd2d	-0.01693591
31	0xbd89f7d0	-0.067367196
32	0x3c30fb13	0.010802048
33	0x3c818f5c	0.01581543
34	0xbc759ce6	-0.014991021
35	0x3c66df34	0.014091302
36	0x3b79ba08	0.0038105268
37	0xbcabe813	-0.020984685
38	0x3c83dcc0	0.016096473
39	0xbd4e76a3	-0.05040611
40	0x3cd75b4a	0.026288647
41	0xbcba5af1	-0.022748442
42	0xbcc18fa1	-0.023628058
43	0xbd192b4b	-0.037394803
44	0x3ace4c9f	0.0015739388
45	0x3ce038bb	0.027370801
46	0x3a3663dc	0.0006957629
47	0x3c1e0f64	0.009647224
48	0x3ca40114	0.020020045
49	0xbce18f86	-0.027534258
50	0xbd825f85	-0.06365875
51	0x3d2b42a6	0.041811608
52	0xbcaea812	-0.021320377
53	0x3c9969f0	0.018727273
54	0xbccb6ccf	-0.024832157
55	0x3b5798d4	0.003289749
56	0x3c7e1bf5	0.015509595
57	0xbc263000	-0.01014328
58	0xbc6ae5ed	-0.014337045
59	0xbd1f9ce3	-0.03896798
60	0xbc7776aa	-0.015103975
61	0xbc289d32	-0.0102913845
62	0xbd41c74b	-0.0473092
63	0xbc26d52b	-0.010182659

sequential_2/conv2d_5/BiasAdd/ReadVariableOp f4 [64]
0	0x3c4af448	0.012387343
1	0x3cb74adf	0.022374569
2	0xbc8ff955	-0.017574945
3	0x3c321d77	0.010871283
4	0x3d27d540	0.040974855
5	0x3cd1658d	0.025561118
6	0xbc1a63b6	-0.009423187
7	0x3d541af3	0.051783513
8	0xbc43d626	-0.011952912
9	0x3cb2e76a	0.021838862
10	0xbc95f5e7	-0.018305732
11	0x3cc1030a	0.02356102
12	0x3d7e0b55	0.062022526
13	0xbcc2deca	-0.023787875
14	0xbcef88f4	-0.029240109
15	0xbc2a33ac	-0.010388296
16	0xbd1eedfb	-0.038801175
17	0x3cb9f612	0.022700343
18	0xbbce6250	-0.006298341
19	0x3c3173c8	0.010830827
20	0xbc98e375	-0.018663147
21	0x3ca5d108	0.020241275
22	0x3ca11d39	0.019667255
23	0x3bdbbe21	0.0067060147
24	0xbcdc03c0	-0.026857257
25	0x3c796bb2	0.0152234305
26	0x3c66e4ce	0.014092637
27	0xbcc19a47	-0.023633135
28	0xbc1c71bd	-0.009548602
29	0x3d7f6ae7	0.06235781
30	0xbbc0525e	-0.005869194
31	0xbcb5db16	-0.022199195
32	0xbc364af8	-0.011126272
33	0x3d04b85f	0.032402392
34	0xbc0ec9cb	-0.008715103
35	0x3d077a41	0.033075575
36	0xba826b37	-0.0009950165
37	0xbccbafce	-0.024864104
38	0x3d20e656	0.039282165
39	0xbc6ac96d	-0.01433025
40	0xbc3967ee	-0.011316283
41	0x3c70e4be	0.014702974
42	0xbce8e9be	-0.02843177
43	0xbc563b43	-0.0130756525
44	0xbcdcab22	-0.026937071
45	0x3c63ace4	0.013896201
46	0x3cbe8ea0	0.023261368
47	0x3c1b41b2	0.009476112
48	0x3cb67a48	0.022275105
49	0xbc7c1b1e	-0.015387325
50	0x3c0f729d	0.008755353
51	0x3ccc8746	0.024966847
52	0xbb174d34	-0.0023086788
53	0xbce31429	-0.027719574
54	0x3c847129	0.01616724
55	0xbc29a0fc	-0.010353323
56	0xbbfb30ca	-0.007665728
57	0x3ca78afa	0.020452011
58	0xbca33eca	-0.019927401
59	0xbc856a9a	-0.016286183
60	0xbc85de87	-0.01634146
61	0x3ce2d92c	0.027691446
62	0x3bcf4617	0.006325494
63	0xbcbd6ec9	-0.023124116

sequential_2/conv2d_1/Conv2D f4 [64, 2, 2, 64]
0	0xbc2bf98d	-0.010496509
1	0xbd8f2078	-0.06988615
2	0x3de26cc0	0.11055899
3	0x3da0f5d9	0.07859392
4	0x3d3ed9c2	0.04659439
5	0xbd93b6fc	-0.07212636
6	0xbdd48e8b	-0.103787504
7	0xbc4751b0	-0.012165472
8	0x3cd0d204	0.025490768
9	0x3d82ed84	0.06392959
10	0xbd5d0535	-0.053960044
11	0x3e290d4d	0.1650898
12	0x3d701904	0.058617607
13	0x3c0af950	0.008482292
14	0x3cdd17ea	0.026988942
15	0xbd3ebcaf	-0.04656666
16	0x3e090634	0.13381273
17	0x3d87ea26	0.06636457
18	0x3d86a0f2	0.06573667
19	0x3db7474c	0.08949146
20	0xbda7968b	-0.08183011
21	0xbd342287	-0.04397824
22	0xbd9c7173	-0.07638826
23	0xbd5bbc8b	-0.053646605
24	0x3c8fcf36	0.01755486
25	0x3da15227	0.078769974
26	0x3d2854da	0.041096546
27	0x3d5351e7	0.05159178
28	0x3db58c3d	0.08864639
29	0x3d87b945	0.06627134
30	0x3cf4a844	0.029865392
31	0xbd666a2a	-0.05625359
32	0xbd260ac0	-0.040537596
33	0xbda8a1f8	-0.08234018
34	0x3da313a8	0.079627335
35	0x3d60244c	0.054722115
36	0x3dd68249	0.10474069
37	0x3d22c3fb	0.039737683
38	0x3d752dbb	0.059858065
39	0x3b7dc490	0.0038721897
40	0xbd5972a3	-0.05308784
41	0x3dc3a380	0.095526695
42	0x3dc0730f	0.09396946
43	0xbcd9c504	-0.026583202
44	0xbd933e71	-0.07189644
45	0x3bf0e479	0.007351455
46	0x3c2431a0	0.010021597
47	0xbda5a581	-0.08088208
48	0xbd884567	-0.066538624
49	0xbc1b44a0	-0.009476811
50	0x3db79769	0.08964426
51	0x3d49aab6	0.04923507
52	0xbc1e4717	-0.009660504
53	0xbd8f2faa	-0.06991513
54	0x3d1c89f9	0.03821752
55	0xb9f32494	-0.00046375825
56	0x3d06eb20	0.032939076
57	0xbc802c20	-0.01564604
58	0x3dc3bcf8	0.09557527
59	0xbd9aad32	-0.07552566
60	0xbcb8c762	-0.02255601
61	0x3b83dae5	0.004023897
62	0xbd52de16	-0.05148133
63	0x3d76a211	0.060213152
64	0x3cde5df2	0.027144406
65	0xbcc5a9bc	-0.024128787
66	0x3e1c9e68	0.15294802
67	0x3dbb3242	0.09140445
68	0xbcc46200	-0.023972511
69	0xbd2860f4	-0.041108087
70	0x3dc21a0d	0.09477625
71	0x3db7277b	0.08943077
72	0x3d86dfc9	0.065856524
73	0xbb9e28bc	-0.0048266333
74	0xbb68680c	-0.0035462407
75	0x3c2011df	0.009769886
76	0xbca031f5	-0.019555071
77	0x3d3566a2	0.04428733
78	0xbd6a9044	-0.05726649
79	0x3e0e55bb	0.13899891
80	0x3d94742e	0.07248722
81	0xbd9897d4	-0.07450834
82	0xbda32b9e	-0.07967304
83	0x3d90fee2	0.07079865
84	0x3de0e1a3	0.10980537
85	0xbcade064	-0.021225162
86	0x3d57201b	0.052520853
87	0x3b92c260	0.0044787377
88	0xbd97ad97	-0.074061565
89	0xbc1dbdb0	-0.009627745
90	0x3d2ed281	0.04268122
91	0xbd02f599	-0.0319725
92	0x3d8b73f9	0.068092294
93	0xbc268a88	-0.010164864
94	0xbdd0491a	-0.10170193
95	0xbd28e23e	-0.041231386
96	0x3c2f68df	0.010706156
97	0x3ddba802	0.10725404
98	0xbb1dc1ff	-0.002407193
99	0xbc7e77d9	-0.015531504
100	0xbd753c1f	-0.05987179
101	0x3c4dd323	0.012562546
102	0x3cff60c7	0.031174077
103	0x3d792152	0.060822792
104	0x3d5576b2	0.05211515
105	0x3da2e991	0.079547055
106	0x3c1cfff4	0.009582508
107	0xbd0a5978	-0.03377673
108	0x3c2e374a	0.010633299
109	0x3cff7ff0	0.031188935
110	0xbd9dbee3	-0.077024244
111	0xbd1c2be2	-0.038127787
112	0xbc0aff65	-0.008483742
113	0xbdcbbfa0	-0.09948659
114	0xbce51864	-0.027965732
115	0xbdd0876a	-0.10182078
116	0x3d2d4d1e	0.042309873
117	0xbd68f3ff	-0.056873318
118	0x3d822293	0.06354251
119	0x3db7aa06	0.08967976
120	0xbb950d59	-0.0045487103
121	0xbcdf3ea3	-0.027251547
122	0xbde5430c	-0.11194429
123	0x3cf92bdc	0.030416422
124	0x3d888cb8	0.06667465
125	0x3cc3df00	0.023910046
126	0x3d80694c	0.06270084
127	0x3d96bf27	0.07360678
128	0x3d828ed5	0.06374899
129	0x3d5c4820	0.05377972
130	0x3d235a25	0.03988089
131	0x3baac4d8	0.005211454
132	0x3d701e0e	0.058622412
133	0xbda7388e	-0.08165084
134	0xbd7c3b22	-0.06157983
135	0xbb275c00	-0.0025537014
136	0x3cbcac14	0.023031272
137	0xbd3ed938	-0.046593875
138	0xbdc1a1da	-0.09454699
139	0xbb9b3d86	-0.004737559
140	0xbd871b45	-0.06596998
141	0x3c93a1bc	0.018021457
142	0xbd767ae0	-0.060175776
143	0x3b3e8ea0	0.002907671
144	0x3d02043c	0.03174232
145	0xbc7f2858	-0.015573584
146	0x3d3c2306	0.04593184
147	0xbdb003ec	-0.08594498
148	0xbdb7e3b0	-0.08978975
149	0x3cb74b5c	0.022374801
150	0x3dc15e32	0.094417945
151	0x3ce71aac	0.02821096
152	0xbda7d3b6	-0.081946775
153	0xbdbaaf73	-0.091154955
154	0x3d0a1e58	0.033720344
155	0x3d950b95	0.072776
156	0x3d2145b9	0.039373133
157	0xbdd23f03	-0.10265925
158	0x3d62a52a	0.055333294
159	0x3d8f1e3a	0.06988187
160	0xbd81caee	-0.06337534
161	0x3da6b3b5	0.08139745
162	0x3db0bfd9	0.08630342
163	0xbd72d6e2	-0.05928696
164	0x3b55c182	0.003261656
165	0xbcaf418a	-0.021393556
166	0x3ca6fb15	0.020383397
167	0xbdca6db1	-0.09884203
168	0xbc8328a3	-0.016010588
169	0xbd1cbba9	-0.038264904
170	0xbcae4425	-0.021272728
171	0xbdd499f2	-0.10380925
172	0xbd1d8005	-0.038452167
173	0xbddc982c	-0.10771212
174	0x3c2a5270	0.010395631
175	0x3d22c4a3	0.03973831
176	0x3cf77f45	0.030212054
177	0xbcb6b7b4	-0.022304393
178	0xbdfb69b6	-0.12276022
179	0x3d17c74c	0.0370553
180	0xbdfa93a0	-0.122351885
181	0x3bcde0d0	0.0062829033
182	0x3d4e7eb1	0.05041379
183	0xbdd4e6e0	-0.103955984
184	0xbc4130ff	-0.011791467
185	0xbd6817e4	-0.05666341
186	0xbdc844ef	-0.09778773
187	0x3dbcbbf3	0.09215536
188	0xbbbb6b6d	-0.0057195933
189	0x3d199d0b	0.037503283
190	0x3dc52bd0	0.09627497
191	0xbdc3e653	-0.09565415
192	0x3d69ccbd	0.05708002
193	0x3d805833	0.06266823
194	0x3dc2e06f	0.095154636
195	0xbdf15563	-0.11783864
196	0xbc5cd7f7	-0.013479224
197	0xbdbf5b29	-0.09343559
198	0xbd8c37d8	-0.06846589
199	0xbd58c5b0	-0.052922904
200	0x3daa1a7d	0.083058335
201	0xbde4fd5c	-0.11181137
202	0x3c2ffd8f	0.010741605
203	0xbc1e54aa	-0.00966374
204	0x3aff2e51	0.001946876
205	0x3c8b3894	0.016994752
206	0xbd5bde9e	-0.0536791
207	0x3cb7297d	0.02235865
208	0x3e25b4bb	0.16182224
209	0xbdecae77	-0.11556714
210	0x3d7e4726	0.06207957
211	0x3b3a6e80	0.002844721
212	0x3cd7fe42	0.026366357
213	0x3c88b03e	0.016685601
214	0xbd89c14b	-0.06726321
215	0xbd8523f6	-0.06501
216	0x3da6e493	0.08149066
217	0xbc081df0	-0.008307919
218	0xbc9fde98	-0.01951532
219	0xbda454bd	-0.08023975
220	0xbdd2e5df	-0.10297751
221	0xbccd09ff	-0.02502918
222	0x3d8613c5	0.065467395
223	0x3d6479ee	0.055780344
224	0xbd5956fd	-0.053061474
225	0x3d007a65	0.031366725
226	0x3ce89090	0.028389245
227	0xbd94bfc5	-0.0726314
228	0xbdaa097d	-0.08302591
229	0x3dbc884d	0.09205685
230	0x3dae62bd	0.085149266
231	0xbda4f7cb	-0.08055075
232	0xbd373212	-0.044725485
233	0xbdb07e56	-0.08617847
234	0xbb3b8882	-0.00286153
235	0xbd89f795	-0.06736676
236	0x3ddb023a	0.10693784
237	0x3d41e458	0.047336906
238	0x3ced3e5c	0.0289604
239	0xbdbbe541	-0.09174586
240	0xbda30849	-0.07960565
241	0x3d397352	0.045275994
242	0x3cf8148a	0.030283231
243	0x3dad35cd	0.08457527
244	0xbdfe80ec	-0.12426934
245	0x3d2ccf96	0.042190157
246	0xbe0aad95	-0.13542779
247	0x3cb68706	0.022281181
248	0x3d91f50d	0.07126818
249	0x3d3826fd	0.044959057
250	0xbdaf87f1	-0.08570851
251	0x3d9737b7	0.07383674
252	0xbdb12069	-0.0864876
253	0xbd99efce	-0.07516442
254	0xbceab0d6	-0.028648775
255	0xbdc383c7	-0.09546619

sequential_2/conv2d_2/Conv2D f4 [64, 3, 3, 64]
0	0x3d7ca014	0.0616761
1	0x3c8e65dc	0.017382555
2	0x3d1e0cc2	0.038586386
3	0xbd5707e0	-0.052497745
4	0xbc83ee9f	-0.016104994
5	0xbd69c20c	-0.057069823
6	0xbcd84ac5	-0.02640284
7	0x3b8e5ab2	0.004344308
8	0x3afed6e9	0.001944271
9	0xbd17bb14	-0.037043646
10	0x3d091ec0	0.03347659
11	0xbd871b92	-0.065970555
12	0x3d3bc496	0.045841776
13	0x3c85107a	0.016243208
14	0x3bdc3a23	0.0067207976
15	0x3c55ec5d	0.013056842
16	0xbcf18d21	-0.02948624
17	0xbd33920b	-0.04384045
18	0xbba4aa8a	-0.0050252127
19	0x3d5b7dfc	0.053586945
20	0xbc314773	-0.0108202575
21	0x3907086f	0.00012877745
22	0xbd36b897	-0.044609632
23	0xbcadd386	-0.021219026
24	0xbd4c0460	-0.04980886
25	0x3c9ee8f4	0.01939819
26	0xbd2f2f31	-0.042769615
27	0x3d800ed3	0.062528275
28	0x3d5d3db9	0.05401394
29	0xbc82197f	-0.015881298
30	0xbc4408c6	-0.011964982
31	0xbd7971c5	-0.060899515
32	0xbd08af45	-0.033370275
33	0x3c96bcad	0.018400514
34	0x3d4eb50d	0.050465632
35	0xbcb3c5ab	-0.021944841
36	0x3c0a8678	0.008454911
37	0x3cd581e4	0.026062913
38	0xbd02e8cd	-0.031960297
39	0x3d5ed562	0.054402716
40	0x3c953a04	0.01821614
41	0xbcdaecd4	-0.026724257
42	0x3ce2b50b	0.027674219
43	0xbd594982	-0.05304862
44	0xbced4b65	-0.028966615
45	0x3d1b2a8d	0.037882376
46	0xbc847245	-0.01616777
47	0x3d2f0f8e	0.042739443
48	0xbbf18cc4	-0.007371517
49	0xbd8f0491	-0.06983293
50	0x3be2780f	0.0069112848
51	0xbd24f6d5	-0.04027446
52	0xbcc24845	-0.023716101
53	0x3cad5fe9	0.021163898
54	0x3d3f05c7	0.04663637
55	0xbc800879	-0.01562904
56	0x3cde43be	0.027131911
57	0xbbe81278	-0.00708228
58	0x3d70a594	0.058751658
59	0x3ca69bcb	0.02033796
60	0xbce9d6ab	-0.028544744
61	0xbc659a8f	-0.0140139
62	0xbca344af	-0.019930212
63	0xbd91143d	-0.07083938
64	0x3d2a5c95	0.0415922
65	0x38ddf400	0.0001058355
66	0xba609490	-0.00085670594
67	0x3d533505	0.051564235
68	0xbd545fe6	-0.05184927
69	0x3d1192c4	0.035540357
70	0x3cf5d73c	0.030009858
71	0xbd21ee41	-0.039533857
72	0xbcc5b4bb	-0.02413403
73	0x3d023076	0.031784497
74	0x3d3bd00c	0.045852706
75	0xbc4ee6ae	-0.0126282405
76	0x3c69b776	0.014264932
77	0x3bd3bb2c	0.0064615216
78	0xbc026ec3	-0.007960978
79	0xbd075be7	-0.03304663
80	0xbd1fa079	-0.038971398
81	0x3c261eb0	0.010139152
82	0x3d900a34	0.07033196
83	0xbbe31ee8	-0.0069311745
84	0x3d75a6d5	0.059973557
85	0xbda6a375	-0.08136646
86	0x3c88e897	0.01671247
87	0x3d07ab6c	0.033122465
88	0x3d3f37ab	0.04668395
89	0xbc054f20	-0.008136541
90	0x3cf6b2ed	0.030114615
91	0xbcc170a1	-0.023613276
92	0xbd9fb28c	-0.07797727
93	0x3a0e86c2	0.00054369506
94	0xbd53c597	-0.05170211
95	0xbd9d8e21	-0.076931246
96	0xbbf7beda	-0.007560593
97	0xbd73a0ab	-0.059479397
98	0x3d86e274	0.06586161
99	0xbd400084	-0.04687549
100	0x3d33bd3b	0.043881636
101	0xbda7b5c4	-0.08188966
102	0xbbd4aff1	-0.0064907004
103	0xbd8e78e6	-0.06956653
104	0x3c9e37d5	0.019313732
105	0x3d17c209	0.03705028
106	0xbca6952e	-0.020334806
107	0x3d0ebb31	0.03484649
108	0xbd53a663	-0.05167235
109	0xbd3b9599	-0.045796964
110	0x3d4cd4f1	0.050007764
111	0xbd383744	-0.04497458
112	0x3d2cc853	0.04218323
113	0xbcb0ec5d	-0.021597082
114	0x3d6c687c	0.05771683
115	0xbc47f8f6	-0.012205353
116	0xbc4bb94c	-0.012434315
117	0xbdbaa011	-0.091125615
118	0xb9862209	-0.0002558383
119	0xbd471a6c	-0.048609182
120	0xbcfd49e0	-0.030919015
121	0xbd9ac817	-0.07557695
122	0xbd216193	-0.039399695
123	0xbd8c9314	-0.068639904
124	0x3d7a6780	0.06113386
125	0xbd804319	-0.06262798
126	0xbdab2323	-0.08356311
127	0xbb94b341	-0.0045379703
128	0xbd8a52a1	-0.067540415
129	0xbd2ee457	-0.04269823
130	0xbac54e5a	-0.0015053258
131	0xbc679d4a	-0.014136622
132	0x3bb5401d	0.0055313245
133	0xbd61de04	-0.05514337
134	0x3cf041e2	0.02932829
135	0xbac6d502	-0.0015169682
136	0xbc678e56	-0.014133057
137	0xbd733902	-0.05938054
138	0x3cb08f7e	0.021552797
139	0xbcec951d	-0.028879697
140	0xbc0fa045	-0.008766239
141	0xbda6c5f8	-0.08143228
142	0x3cab39a7	0.020901514
143	0x3d40b6f8	0.047049493
144	0x3cbcc280	0.023041964
145	0xbcee43b6	-0.029085021
146	0x3d20ef51	0.03929073
147	0xbd74b2c8	-0.05974081
148	0x3d88fd4b	0.06688937
149	0xbd7578f5	-0.059929807
150	0xbc69da4c	-0.014273237
151	0x3c829172	0.015938494
152	0x3ccfd321	0.025369229
153	0x3c0fd932	0.008779811
154	0xbc520678	-0.012818925
155	0x3c513e4f	0.012771203
156	0xbd232fbc	-0.039840445
157	0x3bfd4610	0.0077292994
158	0x3d68e221	0.05685628
159	0xbd8b5c7d	-0.0680475
160	0xbd8e6417	-0.069526844
161	0xbd8adfb3	-0.067809485
162	0xbd8a1fd8	-0.06744355
163	0x3d2c4177	0.04205462
164	0x3c9a7d53	0.018858587
165	0xbcec758a	-0.02886464
166	0x3c8d5288	0.017251268
167	0x3c0ab4e4	0.008465979
168	0x3ca11c46	0.019666802
169	0x3cf96db9	0.030447828
170	0x3cbd4d69	0.023108201
171	0xbd41302f	-0.047165092
172	0xbcea56a3	-0.028605765
173	0xbd77b357	-0.060473766
174	0xbd37d24b	-0.044878285
175	0xbd1b2b37	-0.03788301
176	0x3cf95e73	0.030440545
177	0x3cb5fcf3	0.022215342
178	0xbc6487e3	-0.013948414
179	0xbca8ee54	-0.020621456
180	0x3ce1ea84	0.027577646
181	0xbdcde91e	-0.10054229
182	0x3cd01166	0.025398921
183	0xbba3c248	-0.0049975254
184	0xbd9cce09	-0.076564856
185	0xbb989991	-0.0046569784
186	0xbd6ae445	-0.0573466
187	0xbd884287	-0.06653314
188	0xbd7c443e	-0.06158852
189	0xbc7a934f	-0.01529391
190	0xbd501910	-0.05080515
191	0x3c1d95c0	0.009618223
192	0x3cbe9cce	0.02326813
193	0x3c7a79e8	0.015287854
194	0x3b99216c	0.0046731737
195	0xbca8b880	-0.020595789
196	0xbd8beb39	-0.068319745
197	0x3ca1e850	0.019764096
198	0x3d10670e	0.03525453
199	0xbd16d2e7	-0.036822226
200	0xbd4a9921	-0.04946244
201	0xbd1b21de	-0.037874095
202	0xbd1fc53f	-0.039006468
203	0xbd99aded	-0.07503877
204	0xbd3e39cd	-0.046441842
205	0x3d0becd9	0.034161422
206	0xbd2f7459	-0.042835567
207	0xbd7b2360	-0.061313033
208	0x3c6f8567	0.014619208
209	0x3d4264df	0.04745948
210	0xbc7c364e	-0.015393807
211	0x3d40f935	0.047112662
212	0x3d4102ff	0.047121998
213	0xbd5a5ab7	-0.05330917
214	0xbd75a62d	-0.05997293
215	0x3d02b64c	0.031912133
216	0x3d22aac7	0.039713647
217	0xbc448836	-0.011995366
218	0xbd4996e5	-0.04921617
219	0x3d574abb	0.052561503
220	0x3d4f314e	0.05058413
221	0xbd2a66ca	-0.041601934
222	0xbcbd9428	-0.023141935
223	0xbd492ac4	-0.04911305
224	0xbd9fdaa8	-0.07805377
225	0xbdaf7abb	-0.08568331
226	0x3cba6edf	0.022757946
227	0x3d4f7adc	0.050654277
228	0xbc93e85c	-0.018055134
229	0x3d3b974a	0.045798577
230	0x3d15e4ea	0.036595263
231	0x3cd2f665	0.025752256
232	0xbc72dc50	-0.014823034
233	0xbd0f84c5	-0.03503873
234	0xbd00a01f	-0.031402703
235	0xbca63150	-0.020287186
236	0xbdae7d83	-0.08520033
237	0xbc34bd94	-0.011031527
238	0xbd593013	-0.053024363
239	0xbd41f128	-0.047349125
240	0xbcd6567b	-0.026164284
241	0x3d2c9896	0.042137705
242	0xbd192cd1	-0.037396256
243	0x3c769448	0.015050001
244	0xbc8e660c	-0.017382644
245	0x3d735e30	0.059415996
246	0x3cf73c67	0.03018017
247	0xbcb3e2c4	-0.021958716
248	0xbd9636f4	-0.073347
249	0x3d4cfbb9	0.05004475
250	0xbbe206e5	-0.0068977945
251	0xbd0258d6	-0.031823
252	0x3c3798e4	0.011205886
253	0xbb6774fe	-0.0035317536
254	0xbb94367c	-0.0045230966
255	0x3d11cace	0.0355938

sequential_2/conv2d_3/Conv2D f4 [64, 2, 2, 64]
0	0x3daefe0a	0.08544548
1	0xbdc5c229	-0.09656174
2	0x3d6a56f5	0.057211835
3	0xbb966995	-0.004590223
4	0xbc01d1a3	-0.007923516
5	0x3ccdbbd5	0.02511398
6	0x3da0836c	0.07837567
7	0xbb82fbba	-0.0039972933
8	0xbb32fbc9	-0.002731072
9	0x3d0c7923	0.034295212
10	0xbd9eebd7	-0.07759827
11	0x3ca91078	0.020637736
12	0x3d69576e	0.056968145
13	0x3d88b2b6	0.066747114
14	0x3dbf8502	0.09351541
15	0xbd773227	-0.060350563
16	0xbd0f072f	-0.03491896
17	0xbdbff35b	-0.09372588
18	0xbd8584f9	-0.06519503
19	0xbb6cc3e0	-0.0036127493
20	0xbc8597de	-0.016307767
21	0xbce62541	-0.028093936
22	0x3aeee175	0.001822515
23	0x3d11a849	0.03556088
24	0xbd182196	-0.037141405
25	0xbddda95e	-0.1082332
26	0xbd8d03ae	-0.068854675
27	0x3c7198f4	0.0147459395
28	0xbd9750be	-0.07388447
29	0x3c42673d	0.011865434
30	0x3dcab6ab	0.098981224
31	0xbd757e22	-0.059934743
32	0xbca6ff97	-0.020385547
33	0xbb736f41	-0.003714517
34	0xbd210318	-0.03930959
35	0x3d956381	0.072943695
36	0xbdb1394e	-0.08653508
37	0xbd7343df	-0.0593909
38	0xbd9202d7	-0.07129448
39	0x3c8821d3	0.016617691
40	0xbdeb22f4	-0.11481276
41	0xbd7e32ce	-0.06206017
42	0xbdc3f4ac	-0.09568152
43	0x3dc28ab1	0.094991095
44	0xbca63660	-0.0202896
45	0x3d95c322	0.07312609
46	0x3d0c7b36	0.03429719
47	0xbde06f3c	-0.10958716
48	0xbdc87ffa	-0.097900346
49	0xbd099917	-0.033593263
50	0x3ce0da47	0.027447833
51	0xbdaf3a4c	-0.08556041
52	0xbd8d9eb2	-0.06915034
53	0x3dbbab5d	0.09163544
54	0xbd8e6b28	-0.06954032
55	0xbd8a698c	-0.06758413
56	0x3c5bd9ee	0.013418658
57	0x3ae35796	0.0017344828
58	0xbdd91152	-0.10599007
59	0xbca1c722	-0.019748274
60	0xbc03363b	-0.008008535
61	0xbc6385ac	-0.01388685
62	0xbad79ff6	-0.001645087
63	0x3da24aa8	0.07924396
64	0xbdd0a843	-0.101883434
65	0xbcfc8752	-0.030826245
66	0xbd928a0b	-0.07155236
67	0x3c9118c7	0.01771201
68	0x3cb9c7ca	0.022678275
69	0xbc0b30fe	-0.008495567
70	0xbdcb8241	-0.09936953
71	0xbd3c4f51	-0.04597408
72	0xbd3cf111	-0.046128336
73	0x3c7a225d	0.015266982
74	0x3d34a47f	0.04410219
75	0x3cf4b7e6	0.029872846
76	0xbcd54994	-0.026036061
77	0x3d76add3	0.060224365
78	0xbdc02a68	-0.09383088
79	0x3daf5343	0.08560803
80	0xbd20c624	-0.03925146
81	0x3da3a9c9	0.07991368
82	0x3b55ff60	0.0032653436
83	0xbd9a8602	-0.07545091
84	0x3dbee5f3	0.09321203
85	0x3d81d3c6	0.06339221
86	0x3b61a81d	0.0034432479
87	0x3bad9603	0.005297424
88	0x3d8596fe	0.0652294
89	0x3dc67007	0.09689336
90	0x3db331ad	0.08749709
91	0x3d60c789	0.05487779
92	0x3dd2c6c9	0.102918215
93	0x38723498	5.7746278e-05
94	0xbd01bf6a	-0.031676687
95	0xbd6495bf	-0.05580687
96	0xbd67176b	-0.056418817
97	0x3d45b8f2	0.04827208
98	0xbdc75ce6	-0.09734516
99	0xbc89ac2e	-0.016805734
100	0x3cf442d8	0.02981703
101	0xbd895359	-0.067053504
102	0x3ddeb765	0.108748235
103	0x3cfd6a8c	0.030934595
104	0xbc195ed0	-0.009360984
105	0xbd299589	-0.041402373
106	0x3da0bde3	0.07848718
107	0x3d84b545	0.06479887
108	0xbc868f81	-0.01642585
109	0xbc80fdab	-0.015745958
110	0xbdaad547	-0.08341461
111	0xbda40355	-0.08008448
112	0x3cd90f4e	0.026496556
113	0x3e09d4d1	0.1346009
114	0x3db61887	0.08891397
115	0x3def2a3b	0.11677977
116	0xbd77db4f	-0.060511883
117	0x3e0444c9	0.12916864
118	0x3c67e897	0.014154575
119	0xbda90054	-0.08252016
120	0x3d4b6dfb	0.049665432
121	0xbdad0e30	-0.08449972
122	0xbd93e0b0	-0.0722059
123	0x3dd71711	0.105024464
124	0xbd12a3e1	-0.03580082
125	0xbd9a9d1f	-0.075495
126	0xbe0dbad9	-0.13840808
127	0x3c9ba920	0.019001544
128	0xbc9571cf	-0.018242745
129	0xbc920104	-0.01782275
130	0x3e01f5f4	0.1269148
131	0x3d0215d5	0.031759102
132	0xbd8189e0	-0.06325126
133	0xbd5f81e0	-0.054567218
134	0xbde50d91	-0.11184228
135	0x3d8b2e8f	0.0679599
136	0xbdc9a6d7	-0.09846275
137	0x3d6a6bd8	0.057231754
138	0x3cba16cb	0.022715947
139	0xbd4a2653	-0.049352955
140	0x3da0ce12	0.07851805
141	0x3dcbd065	0.099518575
142	0x3d2c3586	0.04204323
143	0xbcd2eb03	-0.025746828
144	0x3be0c1d9	0.006859046
145	0x3da572f6	0.08078568
146	0x3c7249c4	0.014788095
147	0x3c5a03ce	0.013306571
148	0x3d83433c	0.06409308
149	0x3c03154c	0.008000683
150	0x3c7408ed	0.014894706
151	0xbd3dba70	-0.04632038
152	0x3d511ca7	0.051052716
153	0x3cbdbf07	0.023162378
154	0xbc6ddfb0	-0.014518663
155	0xbd9ab801	-0.07554627
156	0x3dd46457	0.10370701
157	0xbb8b5cd5	-0.00425301
158	0x3ddd6c9f	0.108117335
159	0x3d4691eb	0.048479002
160	0x3d7a4e10	0.061109602
161	0x3d1bc11b	0.038025957
162	0x3d428368	0.0474886
163	0xbd831fe6	-0.064025685
164	0x3d190e84	0.03736736
165	0xbc9a45f3	-0.018832183
166	0x3d01fd25	0.031735558
167	0xbafe4efd	-0.0019402202
168	0x3817f148	3.6225916e-05
169	0x3d49a5e3	0.049230468
170	0x3e01aca5	0.12663515
171	0x3dd1e0b2	0.10247935
172	0xbdb35be3	-0.087577604
173	0xbdb48da5	-0.08816079
174	0x3db33266	0.08749847
175	0x3d840830	0.06446874
176	0x3da3f3eb	0.08005508
177	0xbd2c8a22	-0.04212392
178	0xbda4bab4	-0.08043423
179	0x3bae12f4	0.005312318
180	0x3d358064	0.044311896
181	0x3c91f785	0.017818222
182	0xbd527527	-0.051381256
183	0xbb713fd1	-0.003681172
184	0x3dbba900	0.091630936
185	0xbc5c14cc	-0.013432693
186	0x3c359ff0	0.011085495
187	0x3e329d85	0.17442901
188	0x3d7dd97a	0.06197498
189	0x3de4a844	0.111649066
190	0x3c5d3ffb	0.013504024
191	0xbcdbf1c6	-0.026848685
192	0x3cbd204d	0.023086691
193	0xbc597c20	-0.013274223
194	0x3d9baa76	0.07600872
195	0xbd71061e	-0.058843724
196	0x3d8d0ecd	0.06887589
197	0xbcd4b3c6	-0.025964629
198	0xbdc679ea	-0.09691222
199	0x3da4cbe4	0.080467016
200	0xbdb60197	-0.08887022
201	0x3d4bb708	0.0497351
202	0xbcdff48a	-0.027338285
203	0xbc2151eb	-0.009846191
204	0xbdbfbeaa	-0.09362538
205	0xbd31216d	-0.043244768
206	0xbdb45201	-0.088047035
207	0x3d929c6b	0.071587406
208	0x3c7c3010	0.015392318
209	0x3cd7e15f	0.026352582
210	0x3a7f17c3	0.0009731019
211	0xbc6e3c03	-0.014540675
212	0xbd2b3188	-0.041795284
213	0xbc5ea0d5	-0.01358815
214	0x3d0b0a4e	0.033945374
215	0xbda86659	-0.08222646
216	0x3dd1c6d4	0.102430016
217	0x3d551332	0.05202026
218	0x3e10ea0e	0.14151785
219	0x3a1d653a	0.00060041586
220	0xbcbb4013	-0.022857701
221	0x3dd3e58a	0.103465155
222	0xbd352b25	-0.0442306
223	0x3d251925	0.040307183
224	0x3df081ad	0.11743484
225	0x3d02ec56	0.03196367
226	0x3c1c5919	0.009542727
227	0x3d8ea32a	0.06964715
228	0xbdbd9420	-0.09256768
229	0x3c957e0f	0.018248586
230	0xbd7d75d3	-0.061879944
231	0x3e24d72f	0.16097711
232	0x3d9e4546	0.077280566
233	0xbd29e6d1	-0.04147989
234	0x3d83a763	0.06428411
235	0x3dd6a5c7	0.10480838
236	0xb979441b	-0.00023771862
237	0xbcec752c	-0.028864466
238	0xbce88396	-0.028383058
239	0x3d3f8cad	0.04676502
240	0xbd23b630	-0.03996867
241	0xbd52e5e4	-0.051488772
242	0xbd68cae1	-0.056834105
243	0xbcc7e811	-0.02440265
244	0x3dac50fa	0.084138826
245	0xbd873653	-0.066021584
246	0x3d105074	0.035232976
247	0x3d904594	0.07044521
248	0x3d4a797f	0.049432274
249	0xbd9c6b45	-0.076376475
250	0xbc050aaa	-0.008120218
251	0xbd136ef1	-0.035994474
252	0xbdbbfd2a	-0.091791466
253	0xbdca17bd	-0.09867809
254	0x3d0225f4	0.031774476
255	0x3d0c4693	0.034246992

sequential_2/conv2d_4/Conv2D f4 [64, 2, 2, 64]
0	0xbd9354c1	-0.071939
1	0xbd856de8	-0.065151036
2	0xbe0600bd	-0.13086219
3	0x3d1a6af1	0.037699644
4	0xbde7d220	-0.11319375
5	0xbd5c3663	-0.053762805
6	0xbd1f7611	-0.038930956
7	0xbd99ecf0	-0.07515895
8	0xbcca6141	-0.024704577
9	0xbd6d4242	-0.057924516
10	0xbd2bab7c	-0.041911587
11	0x3d70206f	0.05862468
12	0xbe048b1b	-0.1294369
13	0xbcdff5da	-0.02733891
14	0x3aafbba5	0.0013407363
15	0x3cb0d9a2	0.02158815
16	0x3c9271d9	0.017876552
17	0xbd60e015	-0.0549012
18	0xbd438af8	-0.047739953
19	0x3cc326fc	0.0238223
20	0xbdd69ccc	-0.104791254
21	0x3d8180bd	0.06323383
22	0xbcfcc615	-0.030856172
23	0x3d8f3d4d	0.06994114
24	0xbcb2e14a	-0.021835942
25	0x3da844a4	0.08216217
26	0xbdd5a934	-0.104326636
27	0xbda2c422	-0.079475656
28	0x3de8ec9f	0.11373257
29	0x3da3de37	0.080013685
30	0x3d70ab7a	0.058757283
31	0xbcadf4f1	-0.021234961
32	0xbcdbcbe5	-0.026830623
33	0xbdd5a2ef	-0.10431468
34	0x3d1ffe64	0.039060965
35	0x3c8eb8bf	0.017422078
36	0x3ceebe05	0.029143343
37	0xbdd85b4d	-0.10564289
38	0xbd978a76	-0.07399456
39	0x3ab6febe	0.0013961417
40	0xbdebde53	-0.11517014
41	0x3d660197	0.05615386
42	0xbd9e6fc0	-0.07736158
43	0xbd2905f1	-0.04126543
44	0xbd2ce41f	-0.04220974
45	0xbd9b0ce7	-0.0757082
46	0xbd4adbbb	-0.049525958
47	0xbd884b46	-0.06654982
48	0x3dbc4d74	0.091944605
49	0xbcd4d3de	-0.025979932
50	0x3daef695	0.085431255
51	0xbda5fd6f	-0.08104979
52	0x3d87f7c8	0.066390574
53	0xbd1ae6d4	-0.03781779
54	0xbd828971	-0.06373871
55	0x3db0784e	0.08616696
56	0x3bea1edd	0.0071447925
57	0x3cfdcf0e	0.03098252
58	0xbdb28811	-0.08717359
59	0x3c61148c	0.013737809
60	0x3d4a3255	0.049364407
61	0xbc2e331c	-0.010632303
62	0xbc7f3933	-0.015577602
63	0xbe124fd1	-0.1428826
64	0xbc69a5e6	-0.014260745
65	0xbd346390	-0.044040263
66	0x3d30e28d	0.043184806
67	0x3bfe281d	0.0077562467
68	0xbd81c469	-0.063362904
69	0xbc04b9fa	-0.008100981
70	0xbd758a66	-0.05994644
71	0x3d71cda6	0.059034012
72	0xbdb9cbc7	-0.090720706
73	0xbdea5386	-0.11441712
74	0xbd8a7660	-0.067608595
75	0xbd5bf3af	-0.05369919
76	0x3c6ce3fa	0.014458651
77	0xbdc864c1	-0.09784842
78	0xbd85f2ab	-0.06540426
79	0x3db69b88	0.08916384
80	0x3db0747d	0.086159684
81	0x3d5a88e3	0.0533532
82	0xbd058dd3	-0.032605957
83	0xbdd27aee	-0.10277353
84	0xbde0fdee	-0.10985933
85	0x39aac16c	0.00032569037
86	0x3d8fbfcc	0.07019004
87	0x3c29750b	0.010342847
88	0x3d8aa3f8	0.06769556
89	0x3d12f724	0.035880223
90	0x3d17a024	0.037017956
91	0xbdb2d159	-0.08731336
92	0xbbb74f57	-0.005594175
93	0x3d964afa	0.073385194
94	0xbdcf05a4	-0.10108498
95	0x3d4c97f8	0.049949616
96	0x3d275d0b	0.040860217
97	0xbdbe4273	-0.09290018
98	0xbb9084dc	-0.0044103693
99	0x3db05a37	0.08610957
100	0xbe1ca581	-0.1529751
101	0xbdfa1c86	-0.12212472
102	0xbcddf597	-0.027094645
103	0xbd2aefcd	-0.041732598
104	0x3c229b63	0.009924742
105	0xbd16eece	-0.036848836
106	0xbc2ed6cf	-0.010671332
107	0xbda20a4e	-0.07912122
108	0xba606789	-0.000856035
109	0x3d15eff5	0.036605794
110	0xbde8c3db	-0.113654815
111	0xbd38bbe1	-0.04510105
112	0x3da80009	0.08203132
113	0x3dabf8bd	0.083970524
114	0xbd8a69ec	-0.06758484
115	0x3d483185	0.04887535
116	0xbca2f827	-0.019893719
117	0xbdd02022	-0.10162379
118	0xbd9635ae	-0.07334457
119	0x3aa7ae5c	0.0012793052
120	0xbdd2dc5f	-0.10295939
121	0x3ca22f65	0.01979799
122	0x3c99bbf3	0.018766379
123	0x3d09a8ab	0.03360812
124	0xbcffc53f	-0.031221984
125	0x3ca89b3c	0.020581834
126	0xbd974156	-0.07385509
127	0x3d33cd33	0.043896865
128	0xbd8a0052	-0.06738342
129	0x3d68d7da	0.056846477
130	0x3bdb8681	0.0066993837
131	0x3dc5f8ee	0.0966662
132	0xbda165d8	-0.07880753
133	0x3c16f621	0.009213955
134	0x3d71c0c9	0.059021745
135	0x3c227fe9	0.0099181915
136	0xbdae1cc7	-0.085015826
137	0x3bce2d6b	0.0062920353
138	0x3d2cc9e1	0.042184714
139	0x3d271dd0	0.040799916
140	0x3c0c009c	0.008545067
141	0x3ccc935e	0.024972614
142	0xbcf729c9	-0.030171292
143	0xbdc2a5dc	-0.095042914
144	0xbdbc5d8b	-0.091975294
145	0x3bc295b6	0.005938257
146	0xbd30d3c0	-0.04317069
147	0x3da7c72f	0.08192288
148	0x3d378795	0.044807035
149	0x3de1ed7f	0.11031627
150	0xbdb10b13	-0.0864469
151	0x3ca552f8	0.020181164
152	0xbc86ec73	-0.01647017
153	0x3dabe516	0.08393304
154	0x3b80bca6	0.0039287386
155	0x3d2525b4	0.04031916
156	0x3d4e25be	0.050328963
157	0x3b49b8b6	0.0030780262
158	0xbdc0b413	-0.094093464
159	0x3ccecc82	0.025244001
160	0xbacda1e8	-0.0015688511
161	0x3cef0ef6	0.029181939
162	0x3d3dbfc9	0.04632548
163	0x3da164f6	0.07880585
164	0xbb7f2ed3	-0.0038937822
165	0x3c926a24	0.017872877
166	0xbd1b76f0	-0.037955225
167	0xbc61ba72	-0.013777362
168	0x3d8c525f	0.068516485
169	0xbd40543e	-0.04695534
170	0x3dc7dafd	0.097585656
171	0xbcd83a48	-0.026394978
172	0x3d89e566	0.067332074
173	0xbd21dac8	-0.039515287
174	0xbde77038	-0.11300701
175	0x3d89a094	0.06720081
176	0xbc4be4b3	-0.012444663
177	0xbd99523f	-0.0748639
178	0x3da0b765	0.0784748
179	0xbb75a4cf	-0.0037482267
180	0xbdb015db	-0.085979186
181	0xbcc97cde	-0.024595674
182	0xbd025826	-0.031822346
183	0x3d75d97c	0.060021862
184	0x3d832ff2	0.06405629
185	0xbdbb4805	-0.09144596
186	0xbdc88286	-0.0979052
187	0x3c9c302e	0.019065943
188	0x3d7537ab	0.059867542
189	0xbd4e4f08	-0.05036834
190	0xbd915696	-0.07096593
191	0xbdf6040d	-0.120124914
192	0x3d9aaae7	0.07552128
193	0xbb8e0fe6	-0.0043353913
194	0x3d31d981	0.04342032
195	0x3c6c7241	0.014431537
196	0xbd881ebb	-0.06646486
197	0x3d8a348a	0.06748302
198	0xbc7e6737	-0.015527538
199	0x3d0ec4c5	0.034855623
200	0xbdcede16	-0.10100953
201	0xbdaa5aef	-0.083181255
202	0x3dc5d538	0.09659809
203	0x3c7df207	0.015499598
204	0x3d87c21c	0.0662882
205	0xbd708a37	-0.058725562
206	0xbd203d82	-0.03912116
207	0xbd6dea0d	-0.058084536
208	0x3cfffaac	0.03124746
209	0xbd1a6e87	-0.037703063
210	0xbdde1cf6	-0.108453676
211	0x3d54833c	0.051882967
212	0x3d89e0b1	0.067323096
213	0x3d000ea3	0.03126396
214	0xbdc3df3a	-0.095640615
215	0x3db3f28d	0.08786497
216	0xbdc11412	-0.09427656
217	0xbe02b791	-0.12765338
218	0x3d0bdca6	0.034145974
219	0xbdb77491	-0.0895778
220	0xbb581a1c	-0.0032974547
221	0xbd514faa	-0.051101364
222	0x3d65b4dc	0.056080684
223	0x3de71009	0.11282355
224	0xbd6214b1	-0.055195514
225	0x3d9b48ed	0.07582269
226	0xbd7d68af	-0.061867412
227	0x3d65d0c0	0.056107283
228	0x3ce67631	0.02813253
229	0x3d87ffd0	0.06640589
230	0xbcbb3f1c	-0.022857241
231	0xbd09bc6b	-0.033626955
232	0x3d68b543	0.05681349
233	0xbda676a9	-0.081281014
234	0xbd3e8260	-0.046511054
235	0xbd6122f7	-0.054964986
236	0xbd5ad47e	-0.053425305
237	0x3d6aa42f	0.057285484
238	0xbd2ea0d8	-0.04263386
239	0xbd76d132	-0.060258098
240	0xbc85104d	-0.016243124
241	0xbdfc7d27	-0.123285584
242	0x3d95b0b0	0.07309091
243	0x3b85cf9d	0.0040835873
244	0xbcedce2f	-0.02902898
245	0x3b553c28	0.0032537077
246	0x3c3aa8ba	0.011392767
247	0xbc89b04e	-0.016807701
248	0x3a3e58a0	0.0007261131
249	0x3d1dcf43	0.03852774
250	0xbd188114	-0.037232473
251	0xbc6e7161	-0.014553399
252	0xbd1a61ab	-0.0376908
253	0xbdbdedb1	-0.09273852
254	0xbd71080b	-0.05884556
255	0x3d20647d	0.039158333

sequential_2/conv2d_5/Conv2D f4 [64, 2, 2, 64]
0	0xbd4925cb	-0.049108308
1	0x3dc66488	0.096871436
2	0x3b2851c9	0.0025683513
3	0xbdbf9c0d	-0.09355936
4	0xbe2e617a	-0.17029372
5	0xbdb418a4	-0.08793762
6	0xbc898611	-0.01678756
7	0x3c82b2b8	0.01595436
8	0xbd7abb5d	-0.06121384
9	0x3b7c6e66	0.003851795
10	0x3d917dcf	0.07104074
11	0x3c4e9f0e	0.012611164
12	0x3d30f873	0.04320569
13	0x3dd9257a	0.10602851
14	0x3da6516a	0.08120997
15	0xbe1a3e78	-0.15062892
16	0x3d9f1fe3	0.07769754
17	0x3b468071	0.003028896
18	0xbdaa2be4	-0.08309153
19	0x3da9d423	0.08292415
20	0x3c87de55	0.016585508
21	0x3da4849a	0.08033104
22	0x3d86e733	0.065870665
23	0xbda1b00d	-0.07894907
24	0x3cc507e8	0.024051622
25	0x3cfa940f	0.030588178
26	0x3c84e370	0.016221732
27	0x3d72bd30	0.059262455
28	0xba9971bd	-0.001170687
29	0xbcc2dfb4	-0.02378831
30	0x3df857b4	0.12126103
31	0x3d4dfb9e	0.05028879
32	0x3e2ee338	0.17078865
33	0x3ddb2303	0.10700037
34	0xbd8b7a4f	-0.06810438
35	0x3c3230c9	0.010875889
36	0xbd42b825	-0.047538895
37	0x3df6339f	0.12021565
38	0xbda6b6bb	-0.08140322
39	0x3d9c6ca8	0.07637912
40	0x3c5231dc	0.01282927
41	0x3ddc0c93	0.10744586
42	0xbd1ad620	-0.03780186
43	0x3de48e83	0.111599945
44	0xbd89934b	-0.06717547
45	0x3d956582	0.07294752
46	0xbd86c5c4	-0.065806895
47	0x3b1d0daa	0.0023964443
48	0xbc7487c8	-0.014924951
49	0x3cf0355e	0.029322322
50	0x3dfaa151	0.122378
51	0x3c4d31ee	0.012524111
52	0x3dab9798	0.083785236
53	0xba39381b	-0.00070655503
54	0xbb31464c	-0.0027049957
55	0x3d971e93	0.073788784
56	0xbd60cefc	-0.054884896
57	0x3dbe94ce	0.09305726
58	0x3db81655	0.089886345
59	0x3e09fa8d	0.13474484
60	0xbd991043	-0.07473805
61	0x3c974e48	0.018469945
62	0xbd87edff	-0.06637191
63	0xbd6c5baa	-0.057704605
64	0x3d9c9aba	0.07646699
65	0x3ceb756e	0.028742518
66	0xbd339d7b	-0.043851357
67	0x3d29172b	0.04128186
68	0xbe07fe4c	-0.132806
69	0x3d81d00a	0.063385084
70	0xbd1d9540	-0.038472414
71	0xbbea78e0	-0.0071555227
72	0x3d864aa3	0.065572046
73	0xbd6183f0	-0.055057466
74	0x3d87b2c4	0.06625894
75	0xbd58bf9e	-0.052917115
76	0x3d6433f5	0.055713613
77	0x3c6a5be8	0.014304139
78	0x3d37abeb	0.044841688
79	0x3dc0c36f	0.09412276
80	0xbdffe9bf	-0.124957554
81	0x3d82e811	0.063919194
82	0xbca1a91c	-0.019733958
83	0x3dbeba83	0.09312918
84	0x3d62ce0e	0.05537229
85	0x3dd94b54	0.10610071
86	0x3ce26926	0.02763803
87	0xbd9ab199	-0.07553405
88	0xbd475e1e	-0.04867374
89	0xbb1c96ff	-0.0023893712
90	0xbbf7a82f	-0.007557891
91	0x3d286294	0.041109636
92	0xbcf2acca	-0.029623408
93	0xbdc25974	-0.09489718
94	0x3d539fba	0.051666
95	0x3d2f0fb3	0.04273958
96	0x3df80b7d	0.12111566
97	0x3aa2cbff	0.0012420415
98	0x3d79c007	0.060974147
99	0xbc062e43	-0.008189741
100	0xbdb9aebf	-0.09066533
101	0xbdba1929	-0.0908683
102	0x3dcc3b77	0.099722795
103	0x3dd5a777	0.10432332
104	0xbd7a3ab1	-0.06109113
105	0x3d5dd099	0.054154012
106	0x3b91f286	0.00445396
107	0xbd2de796	-0.042457186
108	0xbd845f48	-0.06463486
109	0xbd98461d	-0.07435248
110	0xbc3a1216	-0.011356851
111	0xbbc10d74	-0.0058914963
112	0x3dcb3a54	0.099232346
113	0xbc1a30bf	-0.009411036
114	0x3d975506	0.07389264
115	0xbddbd9e6	-0.1073492
116	0x3d702456	0.058628403
117	0x3dcca1cb	0.09991797
118	0xbda8b467	-0.08237534
119	0xbccdea94	-0.02513627
120	0xbda85963	-0.08220174
121	0x3dc72937	0.09724658
122	0xbda1283e	-0.07869004
123	0x3d3fb764	0.046805754
124	0x3d0b5b89	0.03402284
125	0x3d9eedd9	0.077602096
126	0xbc0e45ff	-0.008683681
127	0x3d846cfc	0.064660996
128	0x3da1a6ad	0.07893119
129	0xbc345cfc	-0.011008497
130	0xbd88e8f8	-0.0668506
131	0xbd84f1fe	-0.06491469
132	0xbe14d400	-0.14533997
133	0x3beb65c2	0.0071837613
134	0x3cc1ee28	0.023673132
135	0xbd8fb741	-0.07017375
136	0xbd1e4b16	-0.038645826
137	0x3ddbd3f4	0.10733786
138	0xbddae29e	-0.10687755
139	0xbd923ce4	-0.0714052
140	0x3d9fae77	0.077969484
141	0xbe16b981	-0.14719202
142	0xbd3cb947	-0.04607513
143	0x3d8b3980	0.06798077
144	0xbdcf2625	-0.10114697
145	0xbd3ba350	-0.045810044
146	0x3dbd03bd	0.09229229
147	0x3c1ba5f1	0.009500013
148	0x3df08835	0.117447294
149	0xbdb9b37a	-0.090674356
150	0xbdb2b78b	-0.08726414
151	0xbd4f46fa	-0.050604798
152	0x3d7b44be	0.061344855
153	0xbd350347	-0.04419258
154	0x3d31a0e0	0.043366313
155	0xbda0c18f	-0.07849418
156	0x3dcdeebb	0.100553
157	0xbdf6f0aa	-0.12057622
158	0xbd9fbd71	-0.07799805
159	0xbdb61b10	-0.088918805
160	0xbb4f86bd	-0.0031666004
161	0xbcbafcbf	-0.022825597
162	0xbde62e61	-0.11239315
163	0x3df10d81	0.11770154
164	0xbd3cc52d	-0.04608648
165	0xbc8e6caf	-0.017385809
166	0xbd9b9c52	-0.07598175
167	0xbe151f46	-0.14562711
168	0xbd22cb68	-0.039744765
169	0x3b5089e9	0.0031820482
170	0x3c98963f	0.01862633
171	0x3cf844b8	0.030306205
172	0x3d6a6ef4	0.05723472
173	0x3e041622	0.12899068
174	0x3d05c043	0.03265406
175	0x3ddc71a8	0.10763866
176	0xbdeda97c	-0.11604592
177	0xbd51ab94	-0.05118902
178	0x3d8f0561	0.06983448
179	0xbbe54393	-0.006996581
180	0xbdad861b	-0.08472844
181	0x3db32815	0.087478794
182	0x3d9a37b2	0.07530154
183	0xbd95d6ca	-0.073163584
184	0xbcab3a9e	-0.020901974
185	0xbccb06ce	-0.024783518
186	0x3d678365	0.056521792
187	0xbd6b3f99	-0.0574337
188	0x3dfb9b14	0.12285438
189	0xbbd37234	-0.006452823
190	0x3db9b0cd	0.09066925
191	0xbddc7586	-0.10764603
192	0xbc4f2a11	-0.012644307
193	0xbda4ecc7	-0.08052974
194	0xbd9f3dd6	-0.07775466
195	0xbc4c56bb	-0.01247185
196	0xbcba83c9	-0.022767918
197	0x3d9737be	0.07383679
198	0xbd419d0f	-0.047268923
199	0xbca8385f	-0.020534692
200	0xbd7872c6	-0.06065633
201	0x3dd4e3f7	0.10395043
202	0xbe20c9cb	-0.15701978
203	0x3ca182cd	0.019715691
204	0x3d035da4	0.032071725
205	0xbd1ac145	-0.037781972
206	0xbcf76065	-0.030197332
207	0x3cd5fae5	0.026120612
208	0xbd0f4e3a	-0.034986712
209	0xbc9ac7ec	-0.018894158
210	0x3dcfc509	0.10145003
211	0xbc980d7c	-0.018561117
212	0x3d9c333f	0.07626962
213	0xbc903cbb	-0.017607084
214	0xbd7e56b8	-0.06209442
215	0x3d1a4120	0.037659764
216	0x3d1f3404	0.038867965
217	0xbbb092d6	-0.005388598
218	0x3bb73279	0.0055907336
219	0xbdcc3a4f	-0.09972059
220	0x3caf385b	0.021389177
221	0xbe164eae	-0.14678451
222	0x3d9a4ebd	0.075345494
223	0x3d81d418	0.06339282
224	0xbe650064	-0.2236343
225	0xbdd4500b	-0.103668295
226	0x3dc823bd	0.097724415
227	0x3db284d3	0.087167405
228	0x3c42b3e3	0.011883709
229	0xbda7343e	-0.08164261
230	0xba08e2d8	-0.00052217906
231	0xbe329a59	-0.17441691
232	0xbd470c30	-0.048595607
233	0xbcaac666	-0.020846557
234	0x3e03b01d	0.1286015
235	0x3d682dd9	0.05668435
236	0x3db4e49d	0.08832667
237	0xbcb89918	-0.022533938
238	0x3cc69f32	0.024245832
239	0xbd60302d	-0.054733444
240	0xbd3d9a2d	-0.04628961
241	0xbd7550c8	-0.059891492
242	0xbe43a720	-0.19106722
243	0xbcf7f641	-0.03026879
244	0xbdaccc02	-0.08437349
245	0x3d066ef1	0.032820646
246	0xbd4d7068	-0.050156027
247	0x3c95f838	0.018306836
248	0x3c42c70e	0.011888279
249	0xbd8c4e55	-0.06850878
250	0xbdc517d4	-0.096236855
251	0xbdf36868	-0.11885148
252	0x3d9c2470	0.076241374
253	0x3d43730e	0.047717147
254	0x3d06c834	0.032905772
255	0xbd218303	-0.039431583
