exports/Citrus Black spot.tflite (tflite, 485128 bytes, 16 tensors)

sequential_2/conv2d/Relu;sequential_2/conv2d/BiasAdd;sequential_2/conv2d_5/Conv2D;sequential_2/conv2d/Conv2D;sequential_2/conv2d/BiasAdd/ReadVariableOp f4 [64, 1, 1, 3]
000000 e5 e5 88 37 b8 d8 2f 3a f4 de 71 ba 6d ee 27 39
       1.6319516e-05 0.0006708014 -0.0009226643 0.00016015182
000010 d3 fe cb b9 8d bf 9a 39 a1 bf 44 ba a2 6a 42 ba
       -0.00038909036 0.00029515885 -0.00075053616 -0.0007416402
000020 1d 4d 4f 3a a7 5e 31 ba f2 fa 59 3a b2 89 fa b9
       0.0007907914 -0.00067661185 0.0008315287 -0.00047786307
000030 6c 56 6a b9 37 9c 55 3a 95 b0 81 ba f2 f8 8e b8
       -0.00022348174 0.0008148583 -0.0009894544 -6.817457e-05
000040 f4 e3 a2 39 76 61 95 3a 07 e8 28 ba 5c 2f a3 39
       0.00031068886 0.0011396843 -0.0006443266 0.00031125068
000050 17 2b 60 3a 55 b9 69 b9 9d b7 cd 39 b1 b9 32 3a
       0.0008551343 -0.00022289653 0.0003923745 0.00068178313
000060 d9 63 0a ba 19 44 ed 39 7e 35 30 ba 21 71 65 3a
       -0.00052791607 0.000452549 -0.0006721838 0.0008752514
000070 7c e5 7f ba ea ff 6b ba 6b 64 1b ba 36 e9 29 ba
       -0.0009761674 -0.0009002673 -0.0005927744 -0.00064815895
000080 21 56 ae 39 ad ab b8 b9 f9 60 89 3a e4 3e 87 ba
       0.00033252037 -0.00035223123 0.0010481171 -0.0010318425
000090 3b 44 62 38 0a bc 0c ba d8 ae 8a 3a 82 1a 61 b9
       5.3946143e-05 -0.0005368596 0.0010580672 -0.00021467547
0000a0 71 ec 61 3a 23 75 f4 b9 12 a7 95 ba 6f 3d e4 39
       0.00086183014 -0.0004662658 -0.0011417589 0.0004353332
0000b0 8d 48 3c 3a b0 32 2c ba 44 80 7a 3a 1a 89 2f 3a
       0.0007182442 -0.00065688323 0.0009555856 0.000669615
0000c0 45 39 8b 3a 5a 09 75 ba 5c 76 3d 39 b1 8d 87 ba
       0.0010621926 -0.0009347402 0.00018068537 -0.001034191
0000d0 81 c0 91 ba 3f 1d 85 3a e8 91 3b b8 f4 08 4f 39
       -0.0011119993 0.0010155811 -4.472016e-05 0.00019744394
0000e0 cf 2b 21 3a 9a 5b 03 39 4a c0 97 3a e4 fc 17 39
       0.00061481906 0.00012527258 0.0011577692 0.00014494691
0000f0 3a d2 0b ba ae 4a 29 ba ef da 31 ba 5a fa 23 3a
       -0.00053337554 -0.00064579665 -0.0006784638 0.0006255262
000100 99 84 a8 b9 95 0e 8a b9 5c cc 05 ba 93 ff 56 39
       -0.0003214225 -0.00026332276 -0.0005103999 0.00020503839
000110 4d 8f 58 b8 fe 34 74 b9 fd 9b b0 b9 a2 27 1a ba
       -5.1631872e-05 -0.00023289394 -0.00033685556 -0.00058805395
000120 e9 ac c2 b9 05 f6 9c 37 c3 43 81 b9 55 40 6e b9
       -0.00037131392 1.8711211e-05 -0.00024655284 -0.00022721414
000130 b7 d5 38 ba 81 30 58 ba 4f df b8 37 b1 87 3a 39
       -0.0007050889 -0.0008246974 2.2038495e-05 0.00017788891
000140 c1 00 3a 3a ff 09 87 38 d8 7c 88 3a 6a 39 73 ba
       0.0007095449 6.4391636e-05 0.0010413183 -0.000927827
000150 61 40 4c 3a 0e a2 7a ba d9 aa 47 39 ec 26 8a 3a
       0.00077915756 -0.0009560891 0.00019041765 0.0010540164
000160 66 01 67 b8 63 52 21 ba f8 27 92 ba b4 71 82 39
       -5.5075994e-05 -0.0006153939 -0.0011150828 0.00024880248
000170 02 ff 96 39 56 c4 e0 b9 31 54 b4 39 0d 7e 4d 3a
       0.00028800225 -0.0004287089 0.00034395003 0.00078389124
000180 ec e6 d7 39 00 47 c2 b9 a0 fc 97 39 73 ef 2d ba
       0.00041180046 -0.00037055463 0.00028989185 -0.0006635107
000190 3b 12 89 ba a9 a0 c5 b9 c9 67 52 3a 23 ee 12 39
       -0.0010457704 -0.0003769447 0.00080263295 0.00014012358
0001a0 a6 e1 82 3a 0e e4 60 ba 49 42 9b 39 8f 3f 26 ba
       0.0009985461 -0.00085789047 0.0002961329 -0.00063418684
0001b0 f6 3a 83 3a 35 ec 22 ba 72 c8 66 37 b5 0b 78 ba
       0.0010012079 -0.0006215007 1.3755738e-05 -0.00094621937
0001c0 97 d6 77 3a 7c e2 15 ba 9f 71 82 ba 12 84 7d 39
       0.00094542786 -0.0005717648 -0.0009952075 0.0002417716
0001d0 55 b8 f5 39 c3 74 3a 3a 23 98 67 3a 0e 66 13 3a
       0.0004686738 0.0007112736 0.0008834621 0.00056228123
0001e0 79 24 29 3a 85 b5 98 b9 68 0a 73 38 f5 de 68 ba
       0.0006452273 -0.00029126942 5.7945406e-05 -0.0008883321
0001f0 0a 13 e4 39 cb 3e 14 b9 b7 26 77 ba 79 b4 47 ba
       0.00043501734 -0.00014137772 -0.0009428071 -0.000761814
000200 85 ff 15 ba 17 b1 2b 39 a9 c1 08 39 2e 80 11 ba
       -0.00057219743 0.00016373802 0.00013042115 -0.00055504113
000210 83 9e 8b 3a 20 6c 0d 36 95 2f 1c 3a f4 2a 2f 3a
       0.0010652099 2.1073574e-06 0.0005958018 0.0006682121
000220 4d 63 3f 3a ca 98 8c ba 0b 15 6d 3a 0d d5 75 b8
       0.0007300869 -0.0010726687 0.0009043968 -5.861097e-05
000230 4f 49 92 3a e8 62 66 ba 3c 02 07 3a 7e a5 78 3a
       0.0011160764 -0.0008788542 0.0005150174 0.00094851095
000240 d5 79 be b9 9f 8e 86 b9 2b 80 91 ba ce 1e 87 ba
       -0.00036330396 -0.00025664733 -0.0011100819 -0.0010308863
000250 3b 3c 85 3a a6 70 35 38 9f 87 a5 b8 93 ea 89 3a
       0.0010165045 4.3258675e-05 -7.8930745e-05 0.0010522179
000260 8f 0f eb b9 53 9e 8b ba a1 ac 76 ba 48 6b 5d ba
       -0.00044834285 -0.0010652043 -0.0009409879 -0.0008446467
000270 9a b8 8b ba fb eb 4b ba 88 a7 33 b9 24 9f 1d 3a
       -0.0010659874 -0.0007778999 -0.0001713318 0.00060127885
000280 5b ad 0c 3a 06 dc 5d 3a 9a 66 37 ba 71 9b 8d 3a
       0.0005366408 0.0008463267 -0.0006996185 0.0010803771
000290 e5 ec 71 37 74 93 78 3a 8e 60 72 3a 34 0c 24 b9
       1.4419876e-05 0.00094824214 0.0009245955 -0.00015644805
0002a0 aa 47 82 3a a8 6f f4 39 e1 af 86 3a f5 73 56 3a
       0.000993957 0.00046622497 0.0010275805 0.0008180731
0002b0 31 8d 6d ba b7 10 fe 39 2e 7f 31 3a 3e c0 2b 38
       -0.00090618717 0.0004845911 0.00067709654 4.0948617e-05
0002c0 9d f1 80 ba ff f0 f8 b8 46 9e 64 ba b0 78 0b 3a
       -0.0009837631 -0.000118704505 -0.00087210943 0.0005320413
0002d0 0c c0 09 3a a7 a2 32 b9 43 d9 1e ba 84 d8 78 ba
       0.00052547525 -0.00017035996 -0.0006059596 -0.00094927126
0002e0 b1 56 05 ba 34 3f f6 39 ea d8 bc b4 01 ae 88 3a
       -0.00050864654 0.00046967866 -3.5175555e-07 0.0010427834
0002f0 49 3c 45 ba 7b 7c 64 ba b3 33 69 b9 70 23 ca 39
       -0.0007523937 -0.0008716059 -0.00022239871 0.00038554845

sequential_2/conv2d/BiasAdd/ReadVariableOp f4 [64]
000000 55 1d b2 bb fe e5 2d bc 78 23 dc 39 e5 e3 95 3c
       -0.0054356256 -0.010613916 0.00041988096 0.018297145
000010 dd 85 1c bc ff 41 75 bc f6 f4 b9 39 28 02 95 bc
       -0.0095534 -0.014969348 0.0003546846 -0.018189505
000020 98 12 a9 bc bc bc 96 3c f8 5a 7c 3a f6 20 c5 bb
       -0.020638749 0.018400542 0.00096265925 -0.006015892
000030 1d f1 a0 bc bb 7e 09 3b 6b 22 70 3b e2 99 af bc
       -0.019646222 0.0020980078 0.0036641608 -0.021435682
000040 a6 d8 a4 3c 4c 3c 41 3b 6e db ce 38 3a f1 93 3b
       0.020122837 0.0029485403 9.8637174e-05 0.0045148404
000050 00 00 00 00 9f 90 51 3b c3 d5 02 bc 00 00 00 00
       0.0 0.003197707 -0.007985535 0.0
000060 a7 db af bb 00 00 00 00 47 09 bc bc 77 7f 8c 3c
       -0.005366761 0.0 -0.022953643 0.017150624
000070 61 ef 01 bc 69 ff 21 3c 0d b1 81 bc 9e 99 24 bc
       -0.007930608 0.009887555 -0.015831495 -0.010046391
000080 06 d3 b8 bc 00 00 00 00 3b 30 82 bc f5 20 35 bc
       -0.022561561 0.0 -0.015892139 -0.011055221
000090 54 45 b1 bb 6a 66 f3 3c 4b 31 8b 3c 90 96 46 3b
       -0.005409876 0.02971192 0.016991278 0.0030302145
0000a0 bd 24 3f 3c c3 40 e9 3c 00 00 00 00 14 7e db bb
       0.011666474 0.028473264 0.0 -0.0066983793
0000b0 c0 dd 06 3b f4 04 9d 3c 56 da ee 3b 21 da 1d ba
       0.002057895 0.0191674 0.0072892113 -0.00060215784
0000c0 00 00 00 00 70 d0 51 3c 80 f7 0d bb 00 00 00 00
       0.0 0.012806043 -0.0021662414 0.0
0000d0 00 00 00 00 28 ac c1 bc cf 62 94 bc 72 5c 5f 3c
       0.0 -0.02364166 -0.018113522 0.0136328805
0000e0 42 3b 18 bc d6 6d ee bc 18 65 a4 3c 3c d7 1d bc
       -0.009291472 -0.029105108 0.020067737 -0.009633835
0000f0 9c 9a c0 3c 21 48 d1 3c 6c a4 7f ba 1e 35 0c b9
       0.023511223 0.025547089 -0.0009751979 -0.00013371228

sequential_2/conv2d_1/BiasAdd/ReadVariableOp f4 [64]
000000 92 11 2b bc ad d3 18 bc 25 6a 9e 3c cf 33 d6 39
       -0.010441201 -0.009327811 0.019337723 0.0004085586
000010 9a 2e 0d 3b 33 01 29 bc 07 4b 23 bb 84 54 be bc
       0.002154267 -0.010315227 -0.0024916546 -0.02323366
000020 a6 37 13 3b fa b4 62 bb a5 3c c6 bb 7f 8b 80 3c
       0.002246359 -0.0034592734 -0.00604971 0.015691517
000030 3f 33 b2 bb 02 59 a0 3c 5b 1d 84 3a 0a 9d 98 3c
       -0.005438238 0.019573692 0.0010079549 0.01862957
000040 1c a0 2c bc 90 bc 63 3b e3 67 7d bb bc 78 82 bb
       -0.01053622 0.0034749843 -0.0038666658 -0.003981678
000050 2a 4e c3 bb b8 9f c4 bb 1b c9 de bb d1 5a 31 bc
       -0.0059602456 -0.0060004853 -0.006798876 -0.010824875
000060 5d b1 38 3c 58 11 58 3c 44 75 46 3b 5f 15 02 bc
       0.011272755 0.013187729 0.0030282298 -0.007939666
000070 00 8a f3 3c ac 49 59 3c 87 b6 b2 3c 9b 23 21 bc
       0.02972889 0.013262194 0.021815551 -0.009835149
000080 6c c4 b4 bb 5d 7e 31 bc 14 b2 85 bc 80 0c 6a bb
       -0.0055165794 -0.01083335 -0.016320266 -0.0035713017
000090 21 a6 0e bc b4 2b 78 3c 7e 72 91 ba 9c 2e fa bb
       -0.0087066 0.015147138 -0.0011096743 -0.007634951
0000a0 58 53 6c ba df cf fb 3b be f7 52 bb ee 1b 69 bc
       -0.0009015105 0.0076846923 -0.0032191123 -0.01422785
0000b0 33 e6 91 3c fc 90 95 3c 17 e5 c7 ba 5b e1 a3 3c
       0.017809963 0.01825761 -0.0015250769 0.020004919
0000c0 41 a2 b2 bb cb 94 4a bc fe 94 e5 bb 32 09 0f bc
       -0.005451471 -0.012364577 -0.0070062866 -0.00873022
0000d0 5c fd 86 3c e2 e6 8d bc 36 a1 1b 3c f0 b2 dc bb
       0.016478233 -0.017322008 0.009498885 -0.006735198
0000e0 4c 45 bd ba 05 eb 5b 3c 57 b7 91 3c b6 e0 9e bb
       -0.0014440208 0.013422732 0.017787619 -0.004848565
0000f0 ac 6f ec bb b3 e9 7e bb 70 eb 59 3c c2 da 2e bc
       -0.0072154608 -0.003889662 0.013300762 -0.010672273

sequential_2/conv2d_2/BiasAdd/ReadVariableOp f4 [64]
000000 a0 41 f0 3c 8b 36 ad bb e6 1f 58 3c 32 f7 06 3d
       0.029328167 -0.005286043 0.013191199 0.032950588
000010 45 6f ba bb a8 0f 00 bc 94 01 79 bc f6 b9 f6 ba
       -0.005689534 -0.007816233 -0.01519813 -0.0018823731
000020 c1 03 51 38 40 e1 d3 bb b5 a3 fe bb 5b bf 4b bc
       4.983298e-05 -0.006466061 -0.0077709802 -0.012435759
000030 4b 39 9d bb 06 e2 b0 bc 7e db af 3c ad 84 ab 3c
       -0.0047980896 -0.021592151 0.021466967 0.020937288
000040 6e af e0 3c c2 ab ca bb 75 18 7e bb 42 a1 d6 bb
       0.027427401 -0.006185026 -0.0038771902 -0.006549985
000050 9d ca 9a 3c 62 cf 89 3c 06 23 13 bc 0c 81 6d 3c
       0.018895442 0.01682252 -0.008980518 0.014496099
000060 ee 7e a8 3c 37 c9 5f 3c fa 90 83 3b 1d 4c c4 bb
       0.020568337 0.013658813 0.0040150853 -0.0059905187
000070 25 a1 2a 3c 73 2e c5 3b 2e 7c 04 bc a0 88 90 3b
       0.010414396 0.0060175 -0.008086247 0.004410818
000080 58 c9 eb bb 78 94 cd 3c 25 07 81 3b 4e 75 41 3c
       -0.007195633 0.02509521 0.0039376193 0.011807753
000090 a7 47 ab 3a 37 d4 56 3c 90 29 eb bb 66 67 8f bc
       0.0013067619 0.013112119 -0.0071765855 -0.017505359
0000a0 f3 fd f8 bb 55 d4 b6 3c 81 55 6a ba fe 7e 3b 3c
       -0.0075986325 0.022318045 -0.00089391327 0.0114438515
0000b0 d1 34 a2 bb 7e 28 2f ba c4 f1 a7 3c 76 2c e5 bb
       -0.004950144 -0.0006681754 0.020501025 -0.0069938255
0000c0 b2 7f 7b bc d5 06 b2 bb e1 61 ab bb 71 36 bf 3c
       -0.015350269 -0.0054329433 -0.005230174 0.02334139
0000d0 f2 57 06 bc 6d 63 a4 3a cf 05 2c 3c 7a 5a b8 bb
       -0.008199679 0.0012541838 0.010499432 -0.00562602
0000e0 ef fc df bb c8 88 d8 bb 69 a9 20 bb 17 5c a3 3c
       -0.006835572 -0.0066081025 -0.0024515039 0.019941373
0000f0 21 27 d6 3c 48 fb 18 bc 74 12 a8 3c cc dc 97 3c
       0.026141705 -0.009337254 0.020516612 0.018537901

sequential_2/conv2d_3/BiasAdd/ReadVariableOp f4 [64]
000000 0c 6f ba bb 65 c9 a1 bb 78 35 91 bb 22 8c 8f bb
       -0.0056895074 -0.004937338 -0.004431423 -0.004380719
000010 83 01 08 bc 0b e8 cb 3c 89 a6 3c bc 48 1c bb 3c
       -0.008301142 0.02489092 -0.011514314 0.022840634
000020 18 f5 b6 ba f6 91 8f 3c d1 a1 c3 bb fd dd b6 3a
       -0.0013958542 0.017525654 -0.0059702178 0.0013951656
000030 6d 4b ab 3c 95 29 12 3d 1d cb 6c bc d5 52 8e 3c
       0.02090999 0.035684187 -0.014452723 0.017373482
000040 23 45 4b bb ea b5 c0 bb 5b c0 ae 3c 55 54 0b 3c
       -0.003101655 -0.005881061 0.021331957 0.008503993
000050 a2 5c 01 bc af 76 ce 3c 6f 89 5e 3c 5f 10 1c bc
       -0.007895621 0.025203077 0.013582571 -0.009525388
000060 a7 1b 47 bb 98 af 81 bc 95 4c 07 3d 57 fc db 3c
       -0.0030381472 -0.0158308 0.03303202 0.026853723
000070 6b 9c 84 bb db e4 10 bc bc a3 82 bb 22 53 e1 3b
       -0.004046967 -0.008843626 -0.003986804 0.0068763653
000080 81 67 25 bc db a6 e1 3c 0c 3b c0 3b fb 62 67 bb
       -0.010095478 0.027545383 0.005866414 -0.00353068
000090 d3 31 de bb 04 9b 1e bc 6d 6d f0 3a 7f 36 a1 3c
       -0.006780842 -0.009680513 0.0018343158 0.019679306
0000a0 63 b7 a9 3c 79 a0 80 3a f2 d7 a8 3c fb b6 ce ba
       0.020717328 0.000981345 0.020610783 -0.0015771085
0000b0 4a a5 f6 bb 66 5a 86 3c 1e ba 55 bb 9a 6e ab 3c
       -0.007527028 0.016400527 -0.0032612155 0.020926762
0000c0 89 ce 2c bb 5e c7 cd 3a 91 0d 39 3c 2d 95 c1 bb
       -0.0026368222 0.0015699675 0.011294738 -0.0059076757
0000d0 fd 97 a6 3c 5f 5c d3 3c 1a 1b 90 bc a7 76 ef 3c
       0.020336146 0.025800882 -0.017591048 0.029231383
0000e0 18 67 aa ba cc 53 ac ba f0 6a 8a bb d6 19 81 bb
       -0.0013000695 -0.0013147532 -0.0042241737 -0.0039398475
0000f0 61 56 77 bb 1c 66 3b 3c 8e 7a 23 3d af 68 ab bc
       -0.0037740695 0.011437919 0.0399118 -0.02092394

sequential_2/conv2d_4/BiasAdd/ReadVariableOp f4 [64]
000000 62 a6 d2 3c 07 96 9e bb f3 14 da 3c e1 95 02 bb
       0.025714103 -0.004839662 0.026621317 -0.001992576
000010 a4 6d 9e 3c 32 c9 5c 3c 51 79 98 3b 62 0b 80 3c
       0.01933939 0.013475703 0.004653134 0.015630428
000020 f6 c9 8b bb c5 df b9 3c dd e1 10 bc 68 80 e2 bb
       -0.004266019 0.02268971 -0.0088429125 -0.00691228
000030 05 0e 26 bc 8b a3 14 3c e6 a3 98 3c ce 2c 29 bc
       -0.010135178 0.009072195 0.01863284 -0.010325624
000040 58 cb 07 3d 1e 24 c4 bb 09 03 be 3b 91 0f f7 3b
       0.033152908 -0.005985751 0.0057987017 0.0075396975
000050 4b 62 48 bc 05 48 15 bc 61 59 9d 3c c3 50 1c bc
       -0.012230466 -0.009111409 0.019207658 -0.0095407395
000060 27 8b 69 3c 25 ac a7 3a 26 ac 56 3c 0b dd f0 bb
       0.014254368 0.0012792392 0.013102567 -0.007350569
000070 9d c5 11 3d 10 bc d8 3c d2 cc 1d bc e5 9a c2 bb
       0.03558885 0.026456863 -0.0096313525 -0.005938875
000080 ab fd bd 3c 3e d9 f1 bb 4e b3 a3 bc ad 2e ba 3b
       0.023192247 -0.0073806336 -0.01998296 0.0056818337
000090 1d 9f 56 bc 5a ae 12 bc 72 29 a8 3c d2 12 48 3c
       -0.013099459 -0.008952701 0.020527575 0.012211518
0000a0 86 82 1a 3c b1 98 d7 3a b9 bd fc bb eb ef 56 3c
       0.009430533 0.0016448704 -0.0077130464 0.013118724
0000b0 25 17 bf bb dd 63 f4 3b 20 56 af 3b 1d 60 5c 3c
       -0.0058316165 0.0074581937 0.005350843 0.01345065
0000c0 24 25 4a bc 16 ba 9a 3b 2c 2e 32 3c 8b e0 8d ba
       -0.012337957 0.00472189 0.010875266 -0.0010824365
0000d0 29 fe 7d 3c aa 11 32 3c 55 8c 13 bc c2 b9 bb bb
       0.015502491 0.010868469 -0.009005626 -0.005728931
0000e0 c5 f0 96 3c b1 5a 85 bb c2 f5 71 3c 8d d1 b1 bb
       0.018425355 -0.004069649 0.014768066 -0.0054265917
0000f0 01 70 22 3c c0 58 d1 3b 00 00 00 00 d6 ea f3 3c
       0.009914399 0.0063887537 0.0 0.029775064

sequential_2/conv2d_5/BiasAdd/ReadVariableOp f4 [64]
000000 85 1f 55 ba 31 c9 01 bc 63 92 3d 3c 67 74 29 3c
       -0.0008130002 -0.007921503 0.011570546 0.010342694
000010 ee cc 42 bc 41 c5 9e 3c 5a 4c 41 bc 9a c4 c4 bb
       -0.011889679 0.019381167 -0.011797989 -0.006004882
000020 77 c3 19 3c 32 50 2c 3c 22 8e 9c bb fa a7 c4 bb
       0.009384981 0.010517167 -0.0047776857 -0.0060014697
000030 d7 9d 45 3b cb ec 46 bb a3 cb 5d bc 89 40 6d 3b
       0.0030153894 -0.0030353542 -0.01353732 0.0036201796
000040 05 e0 51 3c a8 bf 80 bc 5e 16 a4 bb 8f 7d 82 3b
       0.012809758 -0.015716389 -0.005007549 0.003982253
000050 69 25 8d 3b c9 a0 ac 3a 00 00 00 00 ab 6b 78 3c
       0.004307438 0.0013170476 0.0 0.015162389
000060 5e a8 2b 3c ee 56 2c bc b4 01 de bb f3 28 69 3c
       0.010477154 -0.0105187725 -0.0067751054 0.014230954
000070 59 c2 16 bc 35 69 23 3c 7e d3 90 3b 96 82 b6 3c
       -0.0092016095 0.009973814 0.004419743 0.022279065
000080 bf e3 c7 3b 37 cc 75 3c 88 31 db 3b 76 ac bf 39
       0.0061001475 0.015002302 0.006689254 0.00036558852
000090 de ff 57 bc a8 c1 22 bc 61 fb c0 3a ce 5f 18 bc
       -0.013183562 -0.009933867 0.0014723354 -0.009300185
0000a0 d8 41 87 3b be 49 5a bb 9f 3b 21 3c 41 20 01 bc
       0.0041277222 -0.0033308114 0.009840875 -0.007881225
0000b0 1f a9 98 3b 03 83 e8 3b 33 5e cd bb 99 0a fd 3b
       0.0046588327 0.007095696 -0.006267333 0.0077222106
0000c0 d9 1e a1 bc c1 99 45 3b 7c a1 3e 3c c9 e3 5c 3b
       -0.01966803 0.003015146 0.011635181 0.0033705106
0000d0 1a 43 77 3c a3 26 0c 3b b6 37 c2 bb 1f bf c4 bb
       0.015091682 0.0021385334 -0.0059270514 -0.0060042287
0000e0 e3 cb 7f 3c fe 2b 06 bc f7 ab c4 bb c2 3b d2 bb
       0.015612575 -0.0081891995 -0.006001945 -0.006415815
0000f0 89 c0 c4 bb af 3c 38 3b a5 26 97 3b e9 e9 27 bb
       -0.0060043973 0.0028112342 0.004612761 -0.00256216

sequential_2/conv2d_1/Conv2D f4 [64, 2, 2, 64]
000000 c0 3d 69 3d b2 08 87 3d 44 d5 fa bb 50 80 89 bd
       0.056943655 0.065934554 -0.007654818 -0.06713927
000010 12 42 d1 bc 1b 2c 0e 3c b1 54 63 3d 12 60 a1 3d
       -0.0255442 0.008677508 0.05550069 0.07879652
000020 3e 5c 13 bb 43 09 ee 3c dd 97 94 bd 39 48 d5 3d
       -0.00224854 0.02905715 -0.07255528 0.10414166
000030 b3 cc 3f bd 23 ed dc bd 2c 32 47 bd 8c b1 bc 3d
       -0.046826076 -0.10787418 -0.048631832 0.09213552
000040 b5 6d c3 3d a8 20 7a bd 01 98 57 bd b2 b9 76 3d
       0.09542409 -0.0610663 -0.052635197 0.060235687
000050 1c d8 93 bd ab 18 94 3d a5 34 af 3d 40 92 30 bb
       -0.07218954 0.072312675 0.08554963 -0.002694264
000060 1f 1d 7f 3d e2 67 a8 bd ca 6e 4a 3d d2 46 39 bd
       0.06228363 -0.08222939 0.049422063 -0.045233555
000070 eb 65 8d 3d c6 39 ac bd 75 d4 5c 3d 9a 01 e8 bd
       0.06904205 -0.08409457 0.053913552 -0.113284305
000080 ec 2e 5b 3b 17 13 83 3d 20 1d b8 3d 9a 32 f4 bc
       0.0033444716 0.064001255 0.0898993 -0.029809285
000090 61 2a 53 bd 35 83 21 bd 97 7d 3c 3d 3c 34 dd 3c
       -0.051554088 -0.03943177 0.04601821 0.027002446
0000a0 b2 9c 24 bc 3e 4d c5 3c 3c 3c 82 bd ec 38 24 bb
       -0.010047125 0.024084684 -0.06359145 -0.0025058342
0000b0 c6 9b d3 bc 78 4b d7 bd d0 cc e2 3b 9f 05 59 3c
       -0.025831115 -0.105124414 0.006921388 0.013245969
0000c0 f3 c7 46 bd 35 ed 99 bd a4 55 73 bd e6 7e 78 3d
       -0.04853053 -0.07515947 -0.059407845 0.060667895
0000d0 6d ec a1 bd a6 22 60 3d ae e6 9b bd 20 cd a1 b9
       -0.07906423 0.054720543 -0.07612358 -0.00030861143
0000e0 b0 5d ad bc 6e ca 29 bc ce 96 e2 39 92 b9 7e 3d
       -0.021162838 -0.010363204 0.00043218437 0.062188692
0000f0 c5 6f 60 bd 66 e1 97 3b da ca df bc 9d fd 90 3d
       -0.05479409 0.004635024 -0.027318407 0.07079623
000100 4a 48 2a 3c 59 c4 b3 3d 28 62 97 3c 01 7f e0 bd
       0.010393212 0.08777685 0.018479422 -0.10961724
000110 dc ce 92 bd 62 f9 5f 3d 90 1e f4 3c 8b 95 7e bd
       -0.071683615 0.05468119 0.02979973 -0.062154334
000120 bc 42 b4 bc 3e 7a 1f 3d 09 e1 25 bd 87 1f 97 bd
       -0.022004478 0.03893494 -0.040497813 -0.0737906
000130 64 13 e5 bc 6e 8e c4 ba 5f f0 42 bd 34 9f 77 bd
       -0.027963348 -0.0014996061 -0.047592517 -0.060454562
000140 1d 32 1c 3d ca 2e a6 3d c6 66 7d 3d 64 3b 9a 3d
       0.03813373 0.08114393 0.06186559 0.07530859
000150 90 68 21 3c bb 94 8d 3d c2 ce cd bb 22 b3 a3 bd
       0.00985159 0.06913134 -0.006280751 -0.07993151
000160 c2 04 c6 bd a4 14 f3 3c 8e c5 b0 ba 68 1b b0 3d
       -0.09668876 0.029672928 -0.001348661 0.08598977
000170 6f 46 d2 bb ba 91 1e ba 0c cd d2 bd 57 04 b2 bd
       -0.0064170877 -0.00060489366 -0.10293016 -0.08692234
000180 2a 9d bd bd 00 92 e5 bc ae 91 f5 bc 36 9b 28 bd
       -0.09258492 -0.02802372 -0.029976692 -0.041163646
000190 8e d6 a6 3d 47 b3 40 bd d9 5b e2 bd 53 70 3d bd
       0.08146392 -0.047045972 -0.11052675 -0.0462497
0001a0 71 43 12 3d 63 a6 61 bd 8b f3 ca bd d6 da 6c 3d
       0.03570885 -0.05509032 -0.099097334 0.057825886
0001b0 68 f1 94 3d 2f c8 3f bd 06 2a c0 bd 13 f1 dc bd
       0.07272607 -0.04682177 -0.09383015 -0.10788169
0001c0 7c b6 ee 3c aa 0e 1b bd c9 33 77 3d 30 2a d4 bd
       0.02913975 -0.03785578 0.06035212 -0.10359609
0001d0 ca a5 09 bd 9d 1a c9 3d 45 1d 16 3d 5c 50 6f 3d
       -0.033605374 0.09819529 0.036649007 0.058426246
0001e0 d2 4d db bd 96 5e d6 bd ab 6a 92 3c 57 73 14 bd
       -0.107082024 -0.104672596 0.017873129 -0.03624281
0001f0 3c 89 d5 bd 7f e4 74 3d ef 75 d4 3c 69 a2 be 3d
       -0.10426566 0.059788223 0.025935141 0.09308321
000200 e2 5e ac bd 21 d0 95 3d 01 81 d1 3d 91 1f a3 3c
       -0.08416535 0.07315088 0.10229684 0.019912513
000210 22 d8 46 3d cc 84 e9 bd 77 06 84 3d db 54 b3 3d
       0.048545964 -0.11402282 0.064465456 0.08756419
000220 c7 b0 ca bd 9d b4 0c 3d b8 d7 bb 3d a6 cc 82 bc
       -0.09896999 0.034351934 0.091720045 -0.015966725
000230 f0 f4 10 bd 16 03 b1 3c 85 af b5 3d 10 d5 a2 bd
       -0.03538984 0.021607917 0.08871368 -0.07950795
000240 37 72 99 bd 7c 51 c5 bd a9 70 8d bd d0 fc 60 bd
       -0.07492488 -0.096346825 -0.06906254 -0.0549286
000250 c2 b3 19 3d 12 ce 6a bd 7b 2e 42 3d 72 29 07 bd
       0.037524946 -0.05732543 0.04740761 -0.03299851
000260 53 5c e4 3b f3 e4 9a 3d ca 6f 5b bd b2 6c 39 bd
       0.0069690137 0.075632 -0.053573407 -0.045269676
000270 7b 2f a2 3d 29 a0 b9 bd df d8 91 bd d0 0c 95 bd
       0.079192124 -0.09063751 -0.07121443 -0.072778344
000280 1d 74 e7 bd 42 57 c6 bd 66 de 20 bc 85 60 a9 bd
       -0.11301444 -0.09684612 -0.009818649 -0.08270363
000290 99 b8 b0 3d b2 03 02 3c db 18 4d 3d ac bb a9 bc
       0.08628959 0.007935451 0.050072532 -0.020719372
0002a0 c6 d7 ed bc c1 99 61 3c b8 68 57 3c a6 e5 db bc
       -0.029033553 0.013769568 0.0131475255 -0.026842903
0002b0 85 ce 34 3c a1 60 57 bd 0d 7d ae bd 6b 42 74 bd
       0.011035566 -0.052582387 -0.08519945 -0.059633654
0002c0 d3 46 b5 bd db fe 8c 3d 74 b8 b4 3d f0 55 09 3c
       -0.08851399 0.06884547 0.08824244 0.0083823055
0002d0 c3 5f 9e 3d 2b fc d3 3c e2 ef 83 3d 38 a4 61 bd
       0.07733109 0.025877079 0.064422384 -0.05508825
0002e0 5c 31 36 3b 90 d3 70 3d a0 83 66 3c c3 21 43 bd
       0.0027800417 0.05879551 0.014069468 -0.04763962
0002f0 22 6b 10 bd d2 b9 f5 bc f4 16 92 3d 4c 0a 62 3d
       -0.03525842 -0.029995833 0.07133284 0.0551856
000300 ec 0d 11 3c 0e 4a e2 bc fe c0 a5 3d c0 59 ce bd
       0.008853417 -0.027623203 0.08093451 -0.10075712
000310 b2 50 b1 3d 33 fe 10 bc 85 28 84 3d 33 0d dc bd
       0.086579695 -0.008849668 0.06453041 -0.10744705
000320 f4 a5 45 3d 2d 86 a1 bd 53 37 ce bd 24 d0 53 3d
       0.04825397 -0.0788692 -0.10069146 0.05171217
000330 80 91 38 bd 74 f1 67 bc 37 08 46 bd a5 c7 36 3d
       -0.045060635 -0.014156688 -0.048347678 0.04462399
000340 12 bc da 3c 79 45 a3 3d 67 1c bb 3d c2 65 a6 bc
       0.026701007 0.07972235 0.09136277 -0.020312194
000350 b5 40 c2 3d e7 8e 99 bd 1c 83 9f 3d 44 b6 b1 3c
       0.09484998 -0.074979596 0.07788679 0.021693356
000360 96 7c 26 bd ec 55 a0 3c df 20 4e bd 42 b4 7d 3d
       -0.04064616 0.01957222 -0.050324317 0.061939485
000370 fc 7d c4 bd 45 d6 34 bd 3d 98 a1 bd 3f c4 8a bd
       -0.09594342 -0.044149656 -0.07890365 -0.06775712
000380 93 7e ad bd 00 d3 05 bc d1 b4 44 3d af d2 5b 3c
       -0.08471408 -0.008167982 0.048024002 0.01341693
000390 1b 1a 83 3d b8 09 ea bc de 6f 47 3d cd bc f2 ba
       0.064014636 -0.028569087 0.04869067 -0.0018519402
0003a0 95 ee 94 bd df 7b e0 3c 64 6b ef 3c 9f 31 1b bd
       -0.072720684 0.027402816 0.029226013 -0.03788912
0003b0 b1 d2 33 3d 52 1e 6e 3d 9e 32 fc 3c 88 a6 81 bd
       0.043902103 0.058134384 0.030785855 -0.063305914
0003c0 9c 69 bc bd 41 a9 ca 3d d9 74 96 3d 52 e2 44 3d
       -0.09199831 0.09895564 0.07346506 0.0480674
0003d0 3a ae b1 bd 24 ad ab bd cd 6b b8 bd 27 02 77 bd
       -0.08675809 -0.08382633 -0.09004936 -0.060304787
0003e0 48 f2 92 bd 8b c6 ac 3d 12 d8 83 3c 73 6b 3d bd
       -0.07175118 0.084363066 0.016094241 -0.04624505
0003f0 f5 54 bd bd 5d 5f b6 bc fb 52 b3 3d 45 19 3c 3d
       -0.0924472 -0.02226227 0.08756062 0.045922536

sequential_2/conv2d_2/Conv2D f4 [64, 3, 3, 64]
000000 b5 62 fe bc e2 84 0b bc 1a 8b 9e bc 1c 98 13 bd
       -0.031052927 -0.008515568 -0.019353438 -0.036033735
000010 29 ff 77 bd d1 dd 5c bc 3d f7 bc 3c 7a 29 1c bd
       -0.060546074 -0.0134806195 0.023067111 -0.038125493
000020 c4 e5 5e bd 0c ae ef 3c a2 98 1f bd 36 f3 89 3d
       -0.05441834 0.029257797 -0.03896392 0.06735842
000030 fe 36 bd 3b c8 89 d9 bc 25 cd 96 3d 46 50 56 3d
       0.005774378 -0.026554957 0.07363347 0.05232265
000040 00 3f 36 bd 04 77 be bc 62 3e 70 3d 2c 01 65 bd
       -0.044493675 -0.02325011 0.058653243 -0.05590932
000050 29 e6 16 3d 22 e0 62 3d 04 e8 38 bc e9 7b 5b bd
       0.03684059 0.05538953 -0.011285786 -0.053584967
000060 1e 5e 0b 3d eb 7b 1f 3d c8 58 8c 3d ac 73 75 bd
       0.034025304 0.038936537 0.06852871 -0.059924766
000070 5d 6c 86 3d 95 39 30 bd b3 15 90 3d 5a 0f 4a bd
       0.065636374 -0.043023665 0.07035389 -0.049331047
000080 8c 93 e6 3c 88 e0 90 bc 7e a6 62 3d 15 5e 80 bd
       0.028146528 -0.01768519 0.05533456 -0.06267945
000090 c2 de d5 3c 94 9f c3 bc 58 a3 52 bd 3e 49 84 bc
       0.026107196 -0.023879804 -0.051425308 -0.016148206
0000a0 5a 3d f2 3c e7 61 84 3d 0a 3d 62 bd 43 b8 03 bd
       0.02957027 0.06463986 -0.055233993 -0.032158148
0000b0 3d 44 39 bd cc cc 27 3d bb a8 6c 3b 0a 64 8a 3d
       -0.045231093 0.040966794 0.0036111313 0.06757362
0000c0 c6 ca 49 3d 2a 89 68 bd 1a b7 7b bd b9 00 43 bd
       0.049265645 -0.056771435 -0.061453916 -0.04760811
0000d0 37 14 34 3c d1 28 09 3d ce 67 04 ba 40 52 47 bd
       0.010991148 0.03348619 -0.00050508685 -0.048662424
0000e0 21 1f df bd 74 4a 60 3d f3 06 d4 3b d8 72 b3 bd
       -0.10894609 0.054758504 0.006470555 -0.08762139
0000f0 92 1f 7d 3c 3c 5e 89 bd 98 7d f4 3b d6 17 ec 3c
       0.0154494215 -0.06707427 0.007461261 0.02881996
000100 56 9c 9c 3b 9d 5b fc 3c 42 fd 40 3d 45 10 79 bc
       0.004779379 0.030805403 0.047116525 -0.015201633
000110 18 57 9a bd 14 d7 60 3d f9 66 fa bc c3 55 0c 3d
       -0.07536143 0.054892614 -0.03056668 0.034261476
000120 0b ea 87 3b 7b 96 54 bd c5 82 4c 3d 36 38 76 bd
       0.004147773 -0.05190132 0.0499294 -0.0601122
000130 fd 7d 8b 3d 7d ed 9b 3d 75 47 4a 3d ad bc af 3d
       0.0681114 0.07613657 0.049384553 0.08580909
000140 75 dc 35 3d 6c f5 f0 3c 4f 4b 3a bd aa 22 93 bd
       0.044399697 0.029413901 -0.045481976 -0.07184346
000150 ff bb 26 3c f6 b6 0e 3d 24 e5 09 3d c8 3b 85 3c
       0.010176658 0.034842454 0.03366579 0.016263857
000160 df ce eb bc c9 c1 7f 3d fd 2c 24 3c f4 98 5a bd
       -0.028785167 0.062440667 0.010020492 -0.053368524
000170 99 0e 78 3d be 45 6e 3d e4 4d 7e 3d e7 e8 3d 3c
       0.060560796 0.05817198 0.062086 0.011591173
000180 87 44 86 bc e3 32 64 bc 0f ee 55 bd ca 5c 50 bd
       -0.016390098 -0.013928148 -0.052228983 -0.05086974
000190 12 52 4d 3d e2 72 25 bd f4 71 64 3d 3e 88 26 bd
       0.050127096 -0.040392764 0.055772737 -0.040657274
0001a0 f7 30 b8 ba d2 33 5e bd fd da a1 3c 42 4d a1 3c
       -0.0014052679 -0.05424864 0.019757742 0.01969016
0001b0 82 3b 36 3a 48 e5 54 bc 1b 34 82 3d f4 1a 96 bb
       0.00069516164 -0.012994118 0.063575946 -0.00458085
0001c0 d7 2b 19 3b 85 69 5c 3d 33 5a 22 bd 28 fe 3c bd
       0.0023372078 0.05381157 -0.039636802 -0.04614082
0001d0 4d c2 93 3c 03 5d 9f bd 26 f3 79 3d f9 a1 b8 bd
       0.018036986 -0.077814125 0.0610229 -0.09015269
0001e0 2f 1a 6c bd 1f 8e ae bc e8 2a 0e 3d 65 9b 01 3d
       -0.057642158 -0.021308003 0.034708887 0.031642336
0001f0 dd d9 3c bd 77 4a 52 3c 10 20 5e 3d 69 4c f9 3c
       -0.046106208 0.012835137 0.054229796 0.030431943
000200 c5 9c 17 bd ba 27 93 bd 0a d0 03 bd 35 d5 24 bc
       -0.03701474 -0.071853116 -0.032180823 -0.010060598
000210 39 fe 27 bb de 8e ba bc ff 18 5c 3d 73 1c 54 3d
       -0.0025633706 -0.022773203 0.053734776 0.051784944
000220 b8 04 93 3a 79 61 0d bd 8f ab 9f bd 3c 8d 87 3d
       0.0011216616 -0.034516785 -0.07796394 0.06618735
000230 c9 55 13 3c 22 2c a1 3d f1 3a bd 3c 08 d8 1c 3d
       0.008992621 0.07869746 0.023099395 0.03829196
000240 d2 48 75 3c 0b 3a 07 3d aa 34 83 bc 32 a4 1e bd
       0.014970975 0.03301434 -0.016016323 -0.038730808
000250 8e 94 99 3c 31 44 84 bd 8d 17 fa bc c9 eb d1 3c
       0.018747594 -0.06458319 -0.030528808 0.025625126
000260 f4 a1 7e bd 30 77 df b9 1b c3 4d bc 1d 48 91 3c
       -0.06216617 -0.00042622676 -0.012558724 0.017734582
000270 83 19 8a 3d 78 04 71 bd 20 cd bb 3c d9 56 23 bd
       0.06743147 -0.058842152 0.02292496 -0.039877746
000280 bb 34 90 bd 04 11 04 3c 3e 5c 0c 3c 6f 01 d4 3c
       -0.070413075 0.0080606975 0.008566914 0.02587959
000290 58 bc 0a bc bf 62 d8 3c ea ca 4e 3d d4 57 1e 3c
       -0.008467756 0.026414273 0.050486483 0.009664495
0002a0 52 74 d5 3b 7e 81 fd bc 13 78 6b 3c e0 de 8e bd
       0.0065141106 -0.030945536 0.01437189 -0.06976104
0002b0 b2 d5 4d bd a0 27 09 3c df c3 27 3d 4d 34 04 3d
       -0.050252624 0.008371264 0.04095828 0.03227644
0002c0 71 d4 6a 3d 22 39 a5 bc 55 ac 0f bd c3 e7 09 3d
       0.057331506 -0.020168845 -0.035076458 0.03366829
0002d0 36 23 87 bc 6b 37 28 3d d2 00 1b 3c 06 c5 cd bc
       -0.016496282 0.041068476 0.009460645 -0.025118362
0002e0 b6 ad da bd 46 c5 2b bb 49 ad 84 3d 3a e6 6f bd
       -0.10677664 -0.0026210113 0.06478364 -0.05856917
0002f0 f7 f2 d2 3b 20 c9 80 3d de 85 77 bd 6a d0 2c bd
       0.006437655 0.062883615 -0.0604304 -0.042190947
000300 c8 5d 1e bd d2 70 59 3b 7d 78 b8 bc 82 61 38 bc
       -0.038663656 0.0033178818 -0.02251839 -0.011253716
000310 92 1c de 3a 70 65 3d bd db 8f 1f bd d3 8c e8 3c
       0.001694577 -0.046239316 -0.03895555 0.028387463
000320 e8 55 c2 bd 5b c9 5d bd ef de 81 bd 25 96 63 bc
       -0.094890416 -0.054147106 -0.06341349 -0.013890778
000330 55 6c 84 3d cb 4c 20 3d 7c 34 3d 3b 42 37 f9 bc
       0.06465975 0.039135735 0.0028870394 -0.030421857
000340 e4 4d e1 3b 16 72 07 bd d7 73 3f bd aa 19 94 3c
       0.0068757404 -0.033067785 -0.046741333 0.018078644
000350 83 53 97 bc 8f 12 5e bd 20 fd 07 3c 16 a9 4c bd
       -0.018472439 -0.054216918 0.008300096 -0.04996594
000360 69 7e 98 3d 20 63 07 3d 32 2e 79 bd 8b 6c 0e bd
       0.07445986 0.033053517 -0.06083507 -0.034771483
000370 1f 4c 13 39 e8 05 02 3d 63 08 13 3d 38 25 b1 bc
       0.0001404737 0.031743914 0.03589667 -0.021624193
000380 4d d1 85 bd b0 df 4f bd 67 ab 55 bd 36 69 42 3d
       -0.065340616 -0.050750434 -0.052165415 0.04746362
000390 47 3a 77 3d ea 08 0b 3d 62 8e 0a 3d b4 bd cf 3c
       0.060358312 0.033944048 0.033827193 0.025359012
0003a0 21 29 a5 3b 45 90 53 bb c4 1e 7e 3c 22 4c 6d 3c
       0.0050403033 -0.0032282036 0.015510265 0.0144834835
0003b0 48 e8 7e bd e4 95 32 3d e6 02 87 3d 51 25 04 bd
       -0.06223324 0.043599978 0.0659235 -0.03226215
0003c0 ce 00 31 3d a2 b4 7c bd 7c a5 9a bd f8 de 1e 3d
       0.043213658 -0.061695702 -0.07551095 0.03878686
0003d0 a8 be 06 bd 9c 48 4b 3d bf 62 c8 3c 6a d9 8b bd
       -0.032896668 0.049629793 0.024461148 -0.06828578
0003e0 e7 2b 06 bc 9d 65 bb 3b 52 87 94 3d dc 98 9b bc
       -0.008189178 0.0057189004 0.07252373 -0.018993787
0003f0 46 98 77 bd 2f 0d 93 3d b4 f2 8b bd 66 0d 52 bd
       -0.060447954 0.07180249 -0.06833401 -0.05128231

sequential_2/conv2d_3/Conv2D f4 [64, 2, 2, 64]
000000 72 46 a2 bd 5f 43 07 bd 4a 9f 95 3d ec e6 ef bc
       -0.079235926 -0.033023234 0.073057726 -0.029284917
000010 7a f0 10 3d 97 c4 b6 3d 47 44 26 bd c7 4a 98 bd
       0.035385586 0.08924215 -0.040592458 -0.07436138
000020 6f 6f ac bd a4 c5 b6 3d 0a 90 6c 3d 77 3b 54 3c
       -0.08419692 0.08924416 0.057754554 0.012953631
000030 9e 6f c3 bc 33 b0 ed 3b 3a 56 bf 3d ae 43 59 bd
       -0.023856934 0.0072536706 0.09342618 -0.05304306
000040 ad 45 a8 3c 3d 7b 9d bd 70 be 50 3d 3d 2f 00 3c
       0.020541037 -0.076895215 0.050962865 0.0078237625
000050 89 fd c2 bd 2f b3 ca bd 74 27 b1 3d 59 db a8 3b
       -0.09521014 -0.09897458 0.08650103 0.0051531014
000060 b7 7e dc bd c0 65 85 bd a7 67 cc bd 2d 99 ab bd
       -0.107663564 -0.06513548 -0.099807076 -0.08378825
000070 a9 90 c8 3d 27 88 0e bc 1e c8 96 bd 67 ee c9 3d
       0.09793217 -0.008699453 -0.07362388 0.09859925
000080 1e 4c 2a bb e4 ee a4 3d 6a 8d d0 3d ff 99 7c 3d
       -0.002598531 0.08053377 0.101832226 0.0616703
000090 91 de 86 bd 93 13 4c 3d 3a ec 33 3c 5e 9e a1 bd
       -0.0658542 0.049823355 0.010981614 -0.07891534
0000a0 3b e8 a6 3d 90 ca 5a 3c e3 4a 30 3c cf ce bb bd
       0.08149763 0.013353959 0.010760042 -0.09170305
0000b0 68 34 85 3d f9 25 83 3d 30 53 c6 3d a4 2d f6 bc
       0.06504136 0.06403727 0.096838355 -0.03005106
0000c0 2c e2 b7 bc 0e 46 a4 bc 0a c9 fd 3c b1 c3 46 3c
       -0.022446714 -0.020052936 0.030979652 0.012131617
0000d0 8f 56 0b bc 2c eb 9b bc 3f 6d 3c 3b df 0c 4b bd
       -0.008504524 -0.019033037 0.002875164 -0.04957282
0000e0 9b 69 b5 bd ba ed c4 3d c6 6e e8 bc 67 78 b2 3d
       -0.08858033 0.09615655 -0.028373133 0.08714371
0000f0 76 c8 d8 bd c5 37 6a bc ab 91 8e bc 53 d1 8c bd
       -0.1058511 -0.014295523 -0.017403444 -0.06875863
000100 5f 48 a8 3d ff a7 b3 3d e0 f6 1a 3c 98 af 64 3d
       0.08216929 0.08772277 0.009458274 0.05583152
000110 88 93 15 bd 3b f3 a8 bd f4 06 b5 3d 44 98 ab bd
       -0.03651765 -0.082495175 0.08839217 -0.08378652
000120 a6 d7 b0 3c 41 50 ca bd c2 d1 a6 3d 55 f8 27 3d
       0.021587204 -0.098785885 0.08145477 0.041008312
000130 04 0c 63 bd 5a cf 42 3d 7f 45 53 bd d0 f9 6e 3b
       -0.05543138 0.047561027 -0.05157995 0.0036464818
000140 2d 9c 3a bd f5 28 61 3d 09 51 04 3d ed 70 bc 3d
       -0.045559097 0.0549707 0.032303844 0.092012264
000150 bc 21 1c 3c 43 34 6a 3d 44 fa cc 3d e6 2d 5c 3c
       0.009529527 0.057178747 0.10008672 0.013438677
000160 ce c5 bb bd d9 ef f0 bd a5 21 27 3c 53 c0 58 bc
       -0.091685876 -0.11764497 0.010200893 -0.013229447
000170 4e e0 4e bc 7b 23 a7 bd 7d 46 bb 3d 47 9d 49 3c
       -0.012626721 -0.08161064 0.09144304 0.012305564
000180 44 d0 89 ba 21 0a d6 bd eb 6a 8b 3d bb 4c c1 bd
       -0.0010514339 -0.10451151 0.06807502 -0.09438463
000190 b9 67 db bd 55 19 91 bc 09 c2 80 3d 90 52 32 bd
       -0.10713143 -0.017712275 0.06287009 -0.04353577
0001a0 7b 9c 8d bd c5 f6 b5 3d e8 16 03 3d c4 f3 6f bd
       -0.06914612 0.08884958 0.032004267 -0.058582082
0001b0 4d 7a 6b 3d 01 a9 0a bd 40 7a dd bd 35 de b2 bd
       0.057489682 -0.03385258 -0.10814333 -0.08733789
0001c0 85 2d 73 3d eb 0d 73 3d 03 cf 2b 3d 4c ed d2 3d
       0.059369583 0.059339445 0.04194547 0.10299167
0001d0 70 68 85 3c 93 53 c8 bd ef 26 9a bc 86 81 9a 3d
       0.016285151 -0.097815655 -0.018817393 0.07544236
0001e0 ee 02 c5 bc 91 04 87 3d 8e 0c 42 bb 2c 00 5d 3d
       -0.024049249 0.06592668 -0.0029609534 0.053955242
0001f0 f8 70 0a 3d d7 ce 49 bd aa 23 80 bc 3d 01 d2 3d
       0.03379914 -0.049269523 -0.015642006 0.102541424
000200 46 eb ca bd 55 c9 05 bd d7 60 05 bc 52 dc 23 bd
       -0.09908156 -0.03266271 -0.008140764 -0.040005036
000210 05 18 0b 3d cc 84 fe bc 78 a6 5a 3d 46 a1 88 3c
       0.033958454 -0.031069182 0.053381413 0.016678464
000220 10 85 b6 3d 08 a3 77 3d 76 60 82 bc c3 95 9b bd
       0.089120984 0.060458213 -0.015915137 -0.07596924
000230 21 7d 8d bd 7e 14 89 bd ae 26 be bd 8f 84 82 3d
       -0.06908632 -0.06693362 -0.09284721 0.0637294
000240 9b 10 8b 3d fd e1 a8 3d 93 c2 b8 bd b1 3f ca 3d
       0.067902766 0.08246229 -0.09021487 0.098754294
000250 1b 22 b0 bd 36 fa 01 bd 2a 31 86 bb 79 1f 09 3d
       -0.08600255 -0.03173276 -0.0040952163 0.03347728
000260 39 70 3d 3c 66 01 ec bd 8d db 29 3d 46 1e 45 3d
       0.0115624005 -0.11523704 0.041469146 0.048124574
000270 b0 f9 84 bb f0 eb a4 3d b5 3d 0b bd 9d c9 88 bd
       -0.0040580854 0.08052814 -0.033994395 -0.0667908
000280 35 12 40 3c 7a 52 7d 3d 24 b1 a2 bd f8 b0 9d bc
       0.011723091 0.061846234 -0.07943943 -0.019249424
000290 0a dd c9 3d 52 42 c9 3d 3e 3b 75 bc 4b 05 e6 3c
       0.09856613 0.09827103 -0.014967738 0.028078696
0002a0 05 dd 1b bd 6a 3b 09 3c d8 5c 7d 3d bb b6 59 bc
       -0.038052578 0.008375982 0.06185612 -0.013288195
0002b0 0b 22 b2 bd de 15 4d 3d d7 27 cc 3d 02 66 3c 3d
       -0.086978994 0.050069682 0.09968536 0.04599572
0002c0 83 47 07 3d 24 0a 08 bd ed a7 c4 bd fe 52 a7 bd
       0.033027183 -0.033212796 -0.09602342 -0.081701264
0002d0 ff 33 d8 bc 67 a3 2b 3d 72 75 9c bd f9 8e 85 3d
       -0.026391981 0.04190388 -0.076395884 0.065214105
0002e0 1f 1a c4 3d 1d e3 ce 3d 8f ac 18 bd bf 67 ac bd
       0.09575295 0.10101912 -0.03727394 -0.084182255
0002f0 46 30 ae bd ec ec c3 bd c4 2d 82 bd a5 80 bb bd
       -0.08505301 -0.09566674 -0.06356385 -0.09155396
000300 99 7b c2 3d 80 70 82 bb 26 16 66 3d a3 56 ab bd
       0.09496231 -0.003980696 0.056173466 -0.08366134
000310 af 7d 8f bd 3d 34 52 3c cc 47 03 bc c4 52 a3 bd
       -0.07006394 0.012829837 -0.008012723 -0.07974771
000320 35 da c7 bd 86 a2 95 3d 48 69 bc bd 69 d4 a1 3d
       -0.097584166 0.073063895 -0.09199768 0.07901842
000330 a0 77 e8 3c d2 01 d5 3c dc 8d 07 bd f3 4a 8c 3d
       0.028377354 0.026001845 -0.033094272 0.06850233
000340 1f f8 e7 3c e4 8b ac bd e7 5c 5b 3d 34 b4 be 3d
       0.028316556 -0.084251195 0.053555395 0.09311715
000350 41 56 a3 3d 89 80 3e bd 6d 13 9c 3c 1e c3 3a bd
       0.07975436 -0.0465093 0.019052232 -0.045596235
000360 ed 9a b8 3b 84 9f 35 3d 79 75 0e 3d 1e 77 75 3d
       0.005633703 0.04434158 0.03478 0.059928052
000370 28 bf c3 bd 8f 34 5e 3b c6 28 43 bd 04 dc b0 3c
       -0.095579445 0.003390584 -0.047646306 0.021589287
000380 08 4f 2f bd f2 db c2 3d d5 80 bf 3d 34 31 71 3d
       -0.04279998 0.095146075 0.09350745 0.058884814
000390 de 7d c0 bd 56 26 44 bd 3d f5 e7 bd 8e e2 a8 3d
       -0.09399007 -0.047888122 -0.11326072 0.08246337
0003a0 4a 62 a9 bd 05 7e 68 3d 76 90 72 bb c4 25 4c bd
       -0.082707 0.056760807 -0.0037012375 -0.049840704
0003b0 ed be cb 3d 05 22 a1 bd 8a 60 14 b9 43 ac 50 bd
       0.099485256 -0.07867817 -0.00014150343 -0.05094553
0003c0 89 40 84 3d ba eb a8 3d b3 2d 10 3d f0 f1 25 3b
       0.064576216 0.08248086 0.035199832 0.0025321208
0003d0 54 ba a6 3d be 66 b8 bc ad 93 8b 3d 06 fd 6e 3d
       0.08141008 -0.022509929 0.06815276 0.05834677
0003e0 3c 54 e3 bd 62 5e b1 3d 55 68 75 bc 75 3c 9d bd
       -0.11100051 0.0866058 -0.014978488 -0.07677547
0003f0 b1 db c9 bd af 4c 20 3d a3 55 ee bc e5 ab da bd
       -0.09856356 0.03913563 -0.02909357 -0.106773175

sequential_2/conv2d_4/Conv2D f4 [64, 2, 2, 64]
000000 a8 4f 98 3d 95 16 1a bb b7 b6 db bd 2a 0b b0 bd
       0.07437068 -0.0023511995 -0.107282095 -0.085958794
000010 1e df bc bd 96 09 31 3d 38 0d 6e 3c 22 e1 3f 3d
       -0.09222244 0.043222032 0.014529519 0.046845563
000020 19 fc ae 3d ac 86 2f 3d 40 38 80 3c d0 66 df 3d
       0.085441776 0.042853042 0.015651822 0.10908282
000030 b6 3f 8b bc e1 24 18 bc 87 1a a5 bd bc 6e 8a 3d
       -0.016998153 -0.009286136 -0.080617 0.06759402
000040 a6 27 89 bd 1f 93 ce 3d 9f e3 fc 3d b2 ab 90 bd
       -0.066970155 0.10086655 0.12348103 -0.07063998
000050 b2 65 bb 3d 98 0a 81 bd 9a dd e7 bc cb a1 ad bc
       0.09150256 -0.06300849 -0.02830391 -0.021195313
000060 c0 c0 6a 3d ae e1 f8 3c 2e ba 07 3e 33 61 79 bd
       0.057312727 0.03038105 0.13254616 -0.060883712
000070 f6 01 c1 bd 52 ee 22 bc ad d4 6b bd c3 55 25 3d
       -0.09424202 -0.009944515 -0.05757587 0.040364992
000080 d2 d8 6f bd c0 de ad 3d 62 90 13 3c 45 77 c9 bd
       -0.058556385 0.08489752 0.0090065915 -0.09837202
000090 1d a0 83 bd 04 47 a1 3d 42 80 00 3c 9e 19 75 3d
       -0.064270236 0.07874873 0.007843079 0.059838884
0000a0 58 bc 0a 3d e4 36 16 bd e3 d0 6a bd ec 3d 0b 3d
       0.033871025 -0.03667344 -0.057328116 0.0339946
0000b0 6e 9c 82 3d 29 3e 88 bd 86 83 35 bb 32 d6 cf 3d
       0.06377493 -0.06652481 -0.0027696802 0.101482764
0000c0 05 d5 52 bd 45 2e c0 bd 2e 56 8b bd bb ea a5 bd
       -0.051472683 -0.09383825 -0.06803547 -0.08101412
0000d0 4c 86 0a bd 10 75 62 bd 70 81 b2 3d 61 b2 c2 3d
       -0.03381948 -0.05528742 0.087160945 0.09506679
0000e0 1e de 82 3d 42 e4 8d bd 75 fb 59 bd 6e fb c7 bd
       0.06390022 -0.06928302 -0.053218324 -0.09764753
0000f0 2d 15 ac bd 4c f6 36 bc 2d 80 3a 3d 00 6c ea 3a
       -0.084024765 -0.01116712 0.045532394 0.001788497
000100 22 88 15 bd 2b 80 c5 bd d6 ad 0a 3d 70 23 cc bd
       -0.03650678 -0.09643587 0.03385719 -0.09967697
000110 f2 8e 20 3d 5d ae 5f 3d 4f 08 61 bd 57 5a 97 bd
       0.039198823 0.054609645 -0.054939564 -0.07390278
000120 7f 72 b5 bd 92 1b 01 bd d4 55 a9 bc 6d 5b 5b 3c
       -0.08859729 -0.031520434 -0.020670809 0.013388497
000130 2d f1 02 3e 12 4a c9 3d 87 22 8e bd 33 cf aa bd
       0.12787314 0.09828581 -0.06940179 -0.08340301
000140 0d f5 ad bd f1 5a aa bd 66 be 0c bd cc 09 20 bd
       -0.08494005 -0.08318127 -0.034361266 -0.039071843
000150 15 32 bc bd 45 51 71 3d ff fa d7 3d 17 0c 11 bc
       -0.0918924 0.058915395 0.105459206 -0.00885298
000160 7b 3c 61 3b 67 89 9f 3d e4 d1 63 3d b7 ea 13 3d
       0.0034368325 0.07789879 0.05562009 0.036112513
000170 c9 fe e1 3c 68 3f b5 bd 99 0a 7f 3d 33 60 c5 3d
       0.027587311 -0.088499844 0.062265966 0.09637489
000180 2e 58 45 3d 16 43 ea 3d c6 98 b6 3d 81 71 39 bd
       0.048179798 0.11438577 0.08915858 -0.04527426
000190 90 7d c5 bd be d3 d4 bc 3b 4c cc bd 04 13 3a bd
       -0.0964309 -0.025979873 -0.09975477 -0.04542829
0001a0 5c a7 2e 3d c9 75 47 bd 43 9f 80 3d 3c db 25 3d
       0.042640075 -0.048696313 0.06280377 0.04049228
0001b0 df 4e 08 3d 4b 55 03 3d 0d 2a bd 3c f1 30 6a 3d
       0.033278342 0.032063764 0.02309134 0.05717558
0001c0 1b b5 83 3c 92 fc 14 3d a7 b4 d5 3d c2 86 d2 bd
       0.016077569 0.036373682 0.10434847 -0.10279609
0001d0 b2 03 3f bd c8 0f eb 3d 36 f3 14 bd f5 ec 5a 3d
       -0.046634383 0.114776194 -0.036364757 0.053448636
0001e0 a0 c4 11 bc a5 06 78 bd f5 82 e4 3c a1 59 84 3d
       -0.008896977 -0.06055321 0.027894476 0.06462408
0001f0 53 ba f3 3c 61 6c 8c bd ca 7e 54 bd 60 f1 f7 3b
       0.029751932 -0.06856609 -0.051878728 0.007566616
000200 6a 0e 18 bd f4 94 c7 bd 6b 1b 48 3d 8b 5f 73 bc
       -0.03712312 -0.097452074 0.048854273 -0.014854322
000210 6a f2 94 bd 6e 5b cb 3d 47 48 7e bd f8 c3 a5 bd
       -0.07272799 0.09929548 -0.062080648 -0.08094019
000220 13 8f 36 bd d9 51 9a 3d 42 53 7c 3d 6c 72 86 bd
       -0.04457004 0.075351425 0.06160284 -0.06564793
000230 f4 f3 b1 bc 19 2b 55 3d 02 ea 7f 3d 0e 82 de bc
       -0.021722771 0.052043054 0.062479027 -0.027161624
000240 27 f4 b2 bd f4 67 19 bd 54 97 a9 bd 03 a0 3a 3d
       -0.087379746 -0.037452653 -0.08280817 0.045562755
000250 8c e7 8f 3c d5 89 da 3d f7 0c 85 3d 3a ee 16 3d
       0.017566465 0.106708206 0.064966135 0.036848284
000260 97 e1 15 3d 52 a9 cb 3c f0 b6 a4 bc aa c4 31 bd
       0.036592092 0.024861012 -0.020106763 -0.043400444
000270 11 79 27 3d f4 ac a3 3d 7f 8e 65 bd 78 6d 57 bd
       0.040886942 0.079919726 -0.056044098 -0.052594632
000280 92 a1 63 bd 40 4a 65 3b f3 47 64 bd da 5e 32 bd
       -0.055574007 0.0034986883 -0.05573268 -0.04354749
000290 9d 33 37 3d 25 8f e1 3d 7f 03 9f bc 4d dd 8c 3d
       0.044726957 0.11013631 -0.019410847 0.06878147
0002a0 be 7f cb 3b e1 b9 05 3e 7d 91 6f bd 40 a0 9d bd
       0.0062102964 0.13059188 -0.058488358 -0.07696581
0002b0 e3 af dc 3d 7e de 50 bd 78 f1 8c bd 59 68 7a 3d
       0.10775735 -0.050993435 -0.06881994 0.06113467
0002c0 f1 1b 3b 3d 7a 15 6d 3d b4 60 ca 3d 6e b5 59 bd
       0.045680944 0.05788181 0.09881726 -0.05315154
0002d0 42 e2 fc 3d 54 c5 5f bd 8a a9 e4 bc 98 aa c0 bc
       0.12347843 -0.054631546 -0.027912874 -0.023518845
0002e0 c9 08 9b bd 2b 1c eb bc 32 31 61 bd 93 9b 22 bc
       -0.07570035 -0.028699955 -0.054978557 -0.009924787
0002f0 1a a9 1b bd e3 65 c4 3c e5 7d 80 bd 20 0d d1 bb
       -0.038003065 0.023974365 -0.062740125 -0.0063797385
000300 52 1f 52 3d d0 39 e2 bc d8 b4 62 bc 4d 03 d9 3d
       0.0512994 -0.027615458 -0.013837062 0.10596333
000310 59 b7 bc bd d5 04 cd 3c b5 6d 89 bd 03 d7 7b 3d
       -0.09214658 0.025026718 -0.06710378 0.061484348
000320 e7 47 1f 3b 6a 2a 8f 3d 70 9b ce 3b 01 17 a0 3c
       0.0024304332 0.06990512 0.0063051507 0.01954222
000330 62 46 b3 3d c0 72 55 bd 2c da c0 bd 82 bc 0e 3e
       0.08753659 -0.052111387 -0.09416613 0.13939098
000340 60 72 08 3d 00 17 1a bb 8f 7d 2c bd e1 14 9c bc
       0.0333122 -0.0023512244 -0.04211193 -0.019052925
000350 eb b4 63 bd 60 db d0 3d 3f e3 82 3d a2 f8 ad 3d
       -0.05559246 0.101980925 0.06391 0.084946886
000360 d1 a4 dc bc bf 00 a2 3d ea 72 b6 3d f5 0e 99 3c
       -0.02693406 0.079102986 0.08908637 0.01868389
000370 e2 0d d7 3d 7f 23 97 3d b8 f4 97 bc 39 5c bd bd
       0.10500695 0.07379817 -0.018549308 -0.09246106
000380 26 c0 1b 3d 5e a8 3b 3d 46 53 d4 bd b8 37 97 3d
       0.038025044 0.045814864 -0.10367446 0.073836744
000390 6d df 88 bc ad 5b 9c bc 71 0d 73 3c ca 72 2f bd
       -0.0167081 -0.019086683 0.014834748 -0.04283408
0003a0 05 af 71 bd ac 8a b9 bd b8 2e c0 3d 9e 12 57 3c
       -0.059004802 -0.09059653 0.09383911 0.013126997
0003b0 69 ef aa bd 98 f7 ad bd c0 b3 64 bd df b9 a8 3c
       -0.08346445 -0.084944904 -0.055835485 0.020596443
0003c0 54 26 b1 bb 86 d4 73 bc ca 8a 42 bc 61 41 24 bd
       -0.0054061804 -0.0148822125 -0.01187391 -0.040101413
0003d0 dc 60 dd bc 72 13 d7 3d 1b 72 8f 3c cf d8 50 3d
       -0.027023725 0.10501756 0.017510464 0.050988015
0003e0 e8 d7 43 bd fc c3 e7 3d 23 03 5c 3a 70 b9 15 bd
       -0.047813326 0.11316678 0.00083928014 -0.0365538
0003f0 e1 5b 35 bc c8 37 42 bb 73 fc 86 3c 80 24 51 3c
       -0.011069269 -0.00296353 0.016477799 0.01276505
