exports/corn_common_rust.tflite (tflite, 485128 bytes, 16 tensors)

sequential_2/conv2d/Relu;sequential_2/conv2d/BiasAdd;sequential_2/conv2d_5/Conv2D;sequential_2/conv2d/Conv2D;sequential_2/conv2d/BiasAdd/ReadVariableOp f4 [64, 1, 1, 3]
00000000: 7995 043a 5342 d539 f53f fcb8 22a8 8db9
00000010: eb03 7dba 9653 053a fe9e 61b9 3a49 983a
00000020: 059c bfb9 6765 40ba a6f5 4dba 9cb5 eeb9
00000030: 9eba e139 30d6 8bba ebb1 363a 0fb2 3c38
00000040: eff7 383a 3291 a139 1185 b53a 5a75 62ba
00000050: 6c2a 3aba b294 6bba a525 00ba 8524 e739
00000060: ae37 5c3a 091a d038 0a6e 6eba 9ca4 f1b9
00000070: 1e9f ebb9 718a 69ba 26a9 c338 d6ca 943a
00000080: 5eda d038 bbb4 3a3a 9ea5 5b3a dfa3 473a
00000090: 7cc1 abb9 1182 f038 76f2 89b9 fe32 743a
000000a0: 5a47 a339 d179 c039 eae1 883a 061f 453a
000000b0: fcac 903a 9e0c 9039 845a 363a bd01 9a38
000000c0: 6a15 423a 9436 17ba d86c ad39 b832 34ba
000000d0: 5002 283a d044 403a da83 78ba c39a a8b9
000000e0: 5db9 ff38 079a 0eba bed2 a5ba e48a 1e3a
000000f0: 456d a13a ff5f 89ba c231 a5b9 9a15 7b3a
00000100: 65e8 5bba 048c a138 e41b a93a 462a 95ba
00000110: 9678 8eb9 af52 80ba fe7c 13b8 2863 4eba
00000120: 50eb eeb9 af7e 2ab9 5443 21b9 91c6 79ba
00000130: 1c26 8d3a faaa a2ba ca0b 8fba 0d3a e3b9
00000140: 8686 af38 d6b7 2f3a 705d 95b8 ba30 37ba
00000150: 4f6b 803a b3d5 823a d933 99ba bb5d 913a
00000160: 8259 37ba 1bcc 03ba fb6a 793a a664 f739
00000170: 8a82 14ba 7750 9cba f5af 33ba 399a 0937
00000180: 9ba9 4535 12bb 7eba 7374 93ba 538b 533a
00000190: de08 193a 3515 4d3a d1ed 44b9 81c3 18ba
000001a0: 8324 2139 5e65 6dba 547c b539 901c 673a
000001b0: 5fce d638 45c6 83ba b39e e5b7 8a72 2e39
000001c0: cbbc 923a 6357 953a 94b8 9839 c551 59ba
000001d0: 7e70 bdb9 af81 503a 54ec 9d37 63ca 15ba
000001e0: 559e bcb9 2097 4db8 2a6e 8c3a 0184 403a
000001f0: 5dc1 9aba f863 033a 31e3 643a 2a2d 8439
00000200: 0e04 103a c605 0dba a8b7 8fba 17f6 91b8
00000210: f786 88ba 70b2 59ba 80e8 1e39 8aca 503a
00000220: 8843 523a a5ef 8db9 fc7e 6c3a 7d0c 3aba
00000230: 1d79 88b9 2bcb 013a 18ba 31ba e7b7 303a
00000240: b951 fbb9 7163 253a 1b49 c4b9 2706 c5b8
00000250: 0ad1 49ba 105f 0ab9 74dc cb39 b625 f139
00000260: 7948 ad38 4fab 40ba 6f58 e5b7 89b5 76ba
00000270: 5c4c cb39 d9d1 02ba 59db 6e3a 22e0 b3b9
00000280: 21f7 803a fac2 6b39 83c0 5ab9 610f 6e39
00000290: fc48 6e3a 393c 71b9 e7d5 28ba b90b 1fba
000002a0: feb5 f839 be64 28ba e6a8 1239 1e61 8a3a
000002b0: 7f66 8d39 298e d4b9 ac1a 69ba 9d1a 8f39
000002c0: 0cfb 5a3a 18c0 01ba 17dc 493a 00e7 0c3a
000002d0: 6828 c539 2f8b 23ba ae42 94ba 3393 9539
000002e0: c9a9 62ba 2798 3a3a 59f3 383a ac13 41ba
000002f0: fd01 a2b8 2ed1 c1b9 17ae 59b9 93b3 76ba
0.00050576736 0.0004067594 -0.00012028209 -0.00027018884 -0.0009651768 0.00050860026 -0.00021516901 0.0011618503
-0.00036546602 -0.0007339329 -0.0007856734 -0.00045530207 0.00043054385 -0.0010668691 0.0006969261 4.4988523e-05
0.0007055988 0.00030816492 0.0013848861 -0.00086387026 -0.0007101658 -0.0008986696 -0.0004888422 0.00044086963
0.0008400631 9.923062e-05 -0.00090953766 -0.00046089746 -0.00044941244 -0.0008908874 9.329831e-05 0.0011351954
9.958887e-05 0.0007122268 0.0008378866 0.0007615666 -0.0003275982 0.000114683186 -0.00026311324 0.000931546
0.00031142944 0.00036711854 0.0010443304 0.00075195765 0.0011037881 0.0002747522 0.0006956237 7.343616e-05
0.00074037036 -0.00057683256 0.00033078226 -0.0006874013 0.0006409036 0.00073344726 -0.00094800966 -0.00032158763
0.00012193874 -0.0005439822 -0.0012651307 0.0006047918 0.001231589 -0.001048088 -0.00031508325 0.0009578109
-0.00083888165 7.703158e-05 0.0012901989 -0.0011380396 -0.00027174194 -0.0009790267 -3.516394e-05 -0.0007873052
-0.0004557022 -0.00016259657 -0.00015379238 -0.0009528185 0.0010768804 -0.0012410574 -0.0010913548 -0.00043340065
8.369707e-05 0.0006703114 -7.122278e-05 -0.0006988157 0.0009797605 0.00099819 -0.0011688425 0.0011090556
-0.00069942337 -0.00050276675 0.00095145375 0.000471865 -0.0005665204 -0.0011925836 -0.0006854528 8.201744e-06
7.363503e-07 -0.00097172067 -0.0011249915 0.0008069772 0.0005837808 0.00078232895 -0.0001878061 -0.0005827472
0.00015367758 -0.00090559374 0.00034615642 0.0008816207 0.00010242755 -0.0010053596 -2.7372827e-05 0.00016636602
0.0011195181 0.0011393841 0.0002912922 -0.00082900777 -0.00036132702 0.00079538947 1.8825907e-05 -0.0005714057
-0.0003597612 -4.9016555e-05 0.0010713984 0.0007343889 -0.0011806894 0.000501215 0.0008731364 0.00025210652
0.0005493768 -0.00053795835 -0.0010964768 -6.9599766e-05 -0.0010416199 -0.00083044823 0.00015154667 0.0007964751
0.0008020927 -0.00027072165 0.00090216077 -0.0007097198 -0.00026030178 0.0004951234 -0.0006779744 0.0006741271
-0.0004793534 0.00063090684 -0.000374385 -9.394838e-05 -0.0007698691 -0.00013196119 0.00038883428 0.000459952
8.262782e-05 -0.0007349746 -2.7340107e-05 -0.0009411206 0.0003877607 -0.0004990376 0.0009111665 -0.00034308532
0.0009839275 0.00022483981 -0.00020861816 0.00022703178 0.0009089855 -0.00023005986 -0.00064405653 -0.00060671155
0.0004743784 -0.0006423703 0.00013986565 0.0010557508 0.0002696998 -0.0004054171 -0.0008892219 0.00027294914
0.0008353449 -0.00049495837 0.00077003374 0.0005374998 0.00037604873 -0.00062386965 -0.0011311376 0.00028529167
-0.0008646516 0.00071180094 0.00070553046 -0.0007365297 -7.725132e-05 -0.0003696768 -0.00020759586 -0.0009410914

sequential_2/conv2d/BiasAdd/ReadVariableOp f4 [64]
00000000: 13cf b7bb e384 613c d26a ebba 9c61 afbb
00000010: 6294 1b3d b386 7abb 1a35 193d bc58 10bc
00000020: 90b7 1abb 9160 adbb cb6d 49ba 35f4 c9ba
00000030: c549 debb beb2 94ba 7ebe f6bb fde6 c0ba
00000040: b005 5d3b c326 6cbb e3ba 683c 8fe7 a13c
00000050: fc31 f13c 2c28 4f3c 89ba f33c db3d c4bb
00000060: 53da c2bb 9b0c 5f3d 1d27 c5bb 1699 e03b
00000070: c13d 8eba baf4 9c3c d48b 86bb 2845 c73c
00000080: 8a31 c4bb 4609 11bc 6be3 c8bb 965e 2839
00000090: 1f05 c6bb 8561 d2bb bfa7 7abc b196 3eba
000000a0: 6e46 42bc 185c 033d cc91 0fbb adf1 c13c
000000b0: 5ca6 c7bb 4c8e 26bb 24c7 7e3c 0582 f93b
000000c0: a8f5 5a3b 0a8f c4bb 76fb 40ba 74d6 9fbb
000000d0: b05b 1d38 b50f f6ba e007 f2bb b17d 7c3c
000000e0: d472 ab3c fd6a 3dbc 4e03 253b d6cb 073a
000000f0: 0bcc f23b dfb3 413c 11c4 bd3c 751e c0bb
-0.005609402 0.013764593 -0.0017960912 -0.005352212 0.037983306 -0.003822726 0.037404157 -0.008810218
-0.0023607947 -0.0052910526 -0.0007683902 -0.0015407862 -0.0067836964 -0.0011344773 -0.0075300327 -0.0014717277
0.0033725314 -0.0036033846 0.0142047135 0.019763736 0.02944278 0.012643855 0.029752033 -0.005988819
-0.0059464364 0.05445538 -0.0060166256 0.0068541868 -0.0010852144 0.019159663 -0.0041060243 0.024324968
-0.005987351 -0.008852309 -0.006130626 0.00016056965 -0.006043091 -0.0064203166 -0.015298783 -0.00072703796
-0.011857612 0.03207025 -0.002190697 0.02367481 -0.0060928296 -0.0025414405 0.0155504085 0.0076143765
0.0033410583 -0.005998497 -0.00073616893 -0.0048778597 3.7517108e-05 -0.0018772992 -0.0073861927 0.015410827
0.020928778 -0.0115611525 0.0025178972 0.0005180215 0.0074095777 0.01182267 0.02316478 -0.0058630058

sequential_2/conv2d_1/BiasAdd/ReadVariableOp f4 [64]
00000000: 4549 acbb 65dc b83a 5812 013c 13a9 4e3d
00000010: 6c0b e3ba 89a6 febb 7d2a 833b 14b5 213a
00000020: 96dd c3bb b009 2e3b cb20 08bc 7942 d8ba
00000030: 19d4 33bc 3639 45bc 1107 803b 752f 8d39
00000040: d1dd b7ba 6678 34bb d6ba 083c 2200 48bc
00000050: 72ba 1d3b 33b2 2c3b b77c bdbb 23e7 21bc
00000060: 6de2 473c 42ab 04bc b132 99bb 2346 d7bb
00000070: 1fee 173c 0168 993a f434 92bb 312e 8dbb
00000080: ac59 7c3c 9475 18bc 7652 efbb 71fd e5bb
00000090: 6854 263a 292b b73b 25b4 a6bb bd4e b8bc
000000a0: 742b 843c 12dd 32bb 00a3 2a3b a60c fd3b
000000b0: 7633 803c 7ad1 4cbc 1a19 55bb 356c 6bbb
000000c0: 8d84 843c 4455 ad3b dba1 23bb 7ea8 503b
000000d0: 4025 3e3c af50 00bc 293b ac3c 1533 3cba
000000e0: dfe2 27ba 24d7 c2bb e669 3a3c 4114 8e3b
000000f0: 2c2d cdba 4842 e8bb ea42 f93b ae0a 343c
-0.005257758 0.0014103769 0.007877909 0.05045421 -0.001732213 -0.0077713174 0.0040028677 0.00061686453
-0.005977343 0.0026556067 -0.0083086 -0.0016499303 -0.010975861 -0.012037566 0.0039070924 0.00026928974
-0.0014027898 -0.0027537583 0.008345326 -0.012207063 0.002406743 0.0026351332 -0.0057826894 -0.009881767
0.01219998 -0.008097472 -0.0046752323 -0.0065696402 0.009273081 0.0011703969 -0.004461879 -0.004308485
0.015402239 -0.009305377 -0.0073035313 -0.007018738 0.0006344975 0.005589862 -0.005087393 -0.022498483
0.016134001 -0.0027292413 0.0026037097 0.007722455 0.015649538 -0.012501115 -0.0032516182 -0.003592265
0.016176486 0.0052897055 -0.00249683 0.003183871 0.011605561 -0.0078317365 0.021024304 -0.00071792427
-0.0006404351 -0.005946057 0.011377787 0.0043359105 -0.0015653721 -0.0070879795 0.0076068537 0.010988874

sequential_2/conv2d_2/BiasAdd/ReadVariableOp f4 [64]
00000000: 9397 cd3a f4d3 00bc b5bb 39bc 8eb7 b7bb
00000010: b3c2 9dbb 4c8f 5d3b 4191 323c 0be3 003c
00000020: fb85 6b3b 0994 f23b 314b 11bb a861 853b
00000030: f199 873b 8c71 003c 5c73 f33b 3923 873c
00000040: 99be c83b c5fc 3c3c 1db0 37bb 2a49 44bc
00000050: 1401 16ba af66 ee3b 4dec 3f3c d09c 54bb
00000060: 37ac 1d3c 94a0 8bbb e45f 33bb babc 94b9
00000070: 933a e63b 5b03 683b 6657 b33b de43 f2bb
00000080: 8e2c 5a3b c852 7b3a 890f 303b 13ff 453c
00000090: 488b 933c 0b78 903b 998d 503b c9e6 5f3c
000000a0: 68af b23c 3cbb 39bc 12b7 823b 1e34 133c
000000b0: 0b34 e03b bc12 093c 6f9c 4d3c 9f33 623c
000000c0: 3729 6dbc 0bc3 403c 56da 0a3c d013 74bb
000000d0: e3d3 213a 2883 b1bb e013 10bc ba67 abbb
000000e0: d9ec 393c 4984 9e3b f9fd 413c e691 68bc
000000f0: c9bc 8d3b eb2b acb9 9e50 aa3b fe6e f23b
0.0015685431 -0.007863034 -0.011336257 -0.005606598 -0.0048144697 0.0033807335 0.010898889 0.007866631
0.0035938013 0.007402901 -0.0022170062 0.0040704794 0.0041382243 0.007839572 0.0074295234 0.016496288
0.0061262366 0.011534874 -0.0028028556 -0.011980334 -0.00057222066 0.0072754244 0.011714053 -0.00324421
0.009623579 -0.0042610858 -0.0027370388 -0.00028369372 0.0070260256 0.003540239 0.005473065 -0.0073933443
0.0033290717 0.00095872255 0.0026864728 0.01208474 0.01801075 0.0044088415 0.003182268 0.013665863
0.021812156 -0.011336144 0.003989109 0.008984594 0.0068421415 0.008366283 0.012549504 0.013806253
-0.014475158 0.011765252 0.008474907 -0.0037243254 0.0006173236 -0.0054172464 -0.008793801 -0.005230871
0.011347973 0.004837547 0.011840337 -0.014194941 0.0043254835 -0.00032839118 0.0051975986 0.007398485

sequential_2/conv2d_3/BiasAdd/ReadVariableOp f4 [64]
00000000: 7ff5 4fbc 8211 5d3b 5f6e 0b3d 02ab f03c
00000010: 5649 20bb 9d0c 883c 5621 a03c 1795 7f3c
00000020: bc47 413d 0316 ccbb c01b b63a 0276 893b
00000030: 90a2 ae3c ba7e 1e3d e1ae ac3a ba76 e03c
00000040: d093 bebb f570 f53b 770a 24bb d877 a43a
00000050: a0c9 d3bc c95b 783c ac22 bcbc 885a 293d
00000060: e276 983c 203e 8336 da19 ae3b 68c1 513c
00000070: 048d 9c3b 6e3c e13b 3e06 103c 76b3 d1bb
00000080: 0687 17bc 3a3d 843c 90e9 023c 2547 df3c
00000090: b768 aabc 4f08 a1bc 1da8 5a3b 6147 8d3c
000000a0: 8245 4e3c e091 393d e94b c93c af5a e5bc
000000b0: 8990 893a c3b7 8c3b 133f 2abc 77db ef3b
000000c0: a174 a2ba ae2b 143d adf9 453d 9e27 4c3d
000000d0: 74fd 0d3c 1854 543c 4a27 df3a 6a36 913b
000000e0: 821a 3e3c bf98 633c b8ec 2c3c 353a 223d
000000f0: 1bb6 44bc 62fa 823d 7f31 663a c640 873b
-0.012692808 0.003373236 0.034040805 0.029378418 -0.0024457774 0.016607577 0.019547146 0.015599511
0.04718755 -0.00622821 0.0013893768 0.004194976 0.02131775 0.038695075 0.0013174677 0.027400363
-0.0058159605 0.007490272 -0.0025030652 0.0012547923 -0.025852978 0.015158602 -0.022965752 0.041346103
0.018611375 3.9113365e-06 0.0053131403 0.012802459 0.0047775526 0.006873659 0.008790551 -0.0063995672
-0.009248501 0.016142476 0.007990256 0.027255604 -0.020801885 -0.019657282 0.0033364363 0.01724595
0.012589814 0.045305133 0.02457233 -0.027997343 0.0010495345 0.004294367 -0.010391015 0.0073198634
-0.0012394377 0.03617447 0.048333813 0.04984247 0.008666385 0.012959503 0.0017025259 0.0044315355
0.011603 0.013891398 0.010554485 0.03960629 -0.012006308 0.06395413 0.0008781179 0.0041275946

sequential_2/conv2d_4/BiasAdd/ReadVariableOp f4 [64]
00000000: 959c 3dbc 0914 a0bc 582c f2bc 19ca 823c
00000010: 70b0 04bc 2841 5b3d ba8f 463d ceed a7bc
00000020: 99af 87bc 88ce 223c b458 f7bb b19a 03bd
00000030: da84 4dbc 1a71 fb3c 1850 643d e741 cdbc
00000040: f13a 60bb af48 a7bc 0e98 a93d 22ff cabb
00000050: af6e 1bbd c353 54bc e07b 8bbd 94d0 09bb
00000060: b051 d0bc 0a1d 97bc 8502 11bc 4b61 7bbc
00000070: b8c8 9a3d e1cf 3bbc 0b78 5b3d e8dc c4bc
00000080: 2c17 323d c08c 173d 74f7 563d 8a93 05bd
00000090: bb5b 84bc f159 bfbb fb2e 6d3d 91f3 f2bb
000000a0: 3c6d 7ebb bde2 e5bb c19e a5bc 8259 8bba
000000b0: 61df 2d3d d9ac 743d 5d28 82bc 9651 8fbb
000000c0: 01d7 97bb 8310 273b 92d1 4abd ea8b d53c
000000d0: 81d6 b5bb a07d 02bd 5a3c bebb e59d 8fbc
000000e0: 1742 13bc 06b6 af3d 25f1 f03c f899 59bc
000000f0: 7324 19bc 4679 00bd 4e60 a2bc 6b55 06bc
-0.011572977 -0.019540804 -0.02956216 0.015965508 -0.008098707 0.053528935 0.048476912 -0.020499136
-0.016563224 0.009936936 -0.007548416 -0.032129947 -0.012543881 0.03069358 0.055740446 -0.025055839
-0.003421482 -0.0204204 0.08280955 -0.006194965 -0.037947353 -0.0129594235 -0.06810737 -0.0021028863
-0.025429577 -0.018446464 -0.008850698 -0.015343021 0.07557815 -0.011463136 0.05358128 -0.024031118
0.04347913 0.036999464 0.052482083 -0.032611407 -0.016157022 -0.0058395793 0.057906132 -0.0074142893
-0.0038822433 -0.0070155547 -0.020217301 -0.0010631534 0.04244936 0.059735153 -0.015888387 -0.0043737395
-0.0046337848 0.002549202 -0.049516268 0.026067693 -0.0055492525 -0.031858087 -0.0058055343 -0.017531345
-0.008987925 0.0857964 0.029411862 -0.013281338 -0.009347069 -0.031365655 -0.019821312 -0.008199076

sequential_2/conv2d_5/BiasAdd/ReadVariableOp f4 [64]
00000000: 4a37 8f3d 1a98 89bc 553e cf3c 7e3b 0fbd
00000010: 48ac 783d 7500 703b 1ce4 34bc 6a1e a9bc
00000020: dced a1bc 5796 74bc 8e1f 93bc bd7d 14bd
00000030: e86a 22bd 115c 69bd 753f 2bbd dc67 54bc
00000040: 4fef d23d 0901 29bc a5d0 35bc 0d5f 843d
00000050: bfe1 a13d ebb8 b5bc eac1 2d3d f9fa e3bc
00000060: 6c7f 4dbc e675 a238 9384 bebc d56d 96bb
00000070: bd09 24bc 9188 b23d e117 953d ec5c 533d
00000080: 8f4a fbbc 30f0 b5bc ddd3 e4bc 1311 a5bc
00000090: 7b6d ae3d 5df9 8c3d bd33 90bc 0f90 853d
000000a0: 576c dbbc a439 43bd 6ef8 c7bc 0f1f f3bc
000000b0: a041 2ebd d58c 05bd da9b 95bc 4b28 33bc
000000c0: 47d2 f3bc efd7 8cbd 8395 f9bc cdc6 7d3d
000000d0: 618e 0abc e13c 703d a290 8abd 6525 28bb
000000e0: eb22 5abc a4fe a2bb 6522 a3bc 65ad e6bc
000000f0: e75e 0abd e617 50bc 088a 0ebc cb47 6c3d
0.069929674 -0.01679616 0.025298277 -0.034968846 0.060711175 0.0036621366 -0.011040714 -0.020644385
-0.01976674 -0.014928422 -0.017959382 -0.036252726 -0.039652735 -0.056972567 -0.041808564 -0.012964215
0.10299551 -0.010315188 -0.011097108 0.06463442 0.07904386 -0.022182902 0.04242126 -0.027829634
-0.012542587 7.746722e-05 -0.023256576 -0.0045907297 -0.010012087 0.08717454 0.07279945 0.05160229
-0.0306752 -0.022209257 -0.027933056 -0.020149743 0.085169755 0.068835 -0.017602796 0.065216176
-0.026785059 -0.047662392 -0.024410453 -0.029677896 -0.042543054 -0.03260501 -0.018262792 -0.0109349
-0.029763354 -0.068771236 -0.0304668 0.06195717 -0.008456797 0.05865181 -0.06765868 -0.0025657055
-0.013313989 -0.004974203 -0.019913862 -0.028158853 -0.033781912 -0.01270101 -0.008699901 0.057685655

sequential_2/conv2d_1/Conv2D f4 [64, 2, 2, 64]
00000000: 8338 c33b fb11 073e 3e83 afbd 5b6e cfbc
00000010: 0ee6 00bd 7bb6 653d 9073 8d3d 3ceb b13d
00000020: 830e 83bd 5dd7 d53c 6796 52bc fa63 5ebd
00000030: ef19 ff3a 64d2 663d 8a0e 9e3d 770d 0cbd
00000040: b30f b9bd 63c5 a8bc 9189 363e 6972 c13d
00000050: d3ec 5c3d 2c3e c03d c36e b6bd 9168 babd
00000060: 7d39 043d 8ad1 5abd 17aa a2bd cecd 8fbd
00000070: 919d c53d 8466 7a3c 3917 d3bd f5f1 503e
00000080: 6c80 dabd ecc9 8d3d b5cd de3c 4e59 ed3c
00000090: ed23 6cbd f7b5 18bd 329c 4cbd 2abb a33d
000000a0: 60b1 9fbd f0e7 0c3d e942 d6bc 21c5 183e
000000b0: 698c 303d fa04 52bd cb18 9f3c d2e5 5f3c
000000c0: 37aa 99bd 471b b73d 9d68 ca3c b012 ad3d
000000d0: f59d 393d 3173 8f3c 0cc4 dcbd 9c00 173e
000000e0: 534d 89bd b365 bd3d e1fa 123d 369c b0bd
000000f0: bac3 b2bc 1a5f 813d 3898 8ebc a4f2 0fbd
00000100: 9045 4c3d c2af e93d 7c00 5bbd 4712 06bd
00000110: d02b aa3d 7594 303c c5e2 b23c 727f ae3c
00000120: 83e3 28bd fadc d5bd 3e0a a3bd 813d bbbb
00000130: 2c6c 7d3d d02a cfbc 1c5c 953d 1fa7 3e3d
00000140: 75e6 11bd 2ab4 863d c5aa 07bb a2b8 1f3e
00000150: 657e a5bd c120 9bbd c523 16bd 18b0 9f3c
00000160: 4561 993d d5c4 b7bd 3c6a 953d 7ce2 d73d
00000170: 42e7 5dbd c45c 3f3d e0d6 19bc c194 e93b
00000180: f2db 5a3d ebc8 abbd 2b4f 15bd 09b0 c5bd
00000190: bd12 773d a581 76bd f08e 50bd d014 9b3c
000001a0: 4845 fd3c a828 98bd 542f 583d ae28 5b3e
000001b0: 9ee6 deb7 f230 953d 71c6 243d 37d1 e6bb
000001c0: af95 ac3d 37a0 643d 81a8 aebd 5f1c 5cbd
000001d0: 4fd0 ccbb ead7 2b3c a73c 8abb 9dc8 ad3d
000001e0: c7a3 adbd 631a 52bd 73bb 93bd 8a94 513d
000001f0: 3811 d03d b9cc 2dbd ea46 ff3c 2151 30bc
00000200: e99a 853d ca69 4d3e 0a98 a63c 2dee bdbd
00000210: 851c 5cbd 5f17 82bd f5b9 663d 15bb ad3d
00000220: 2385 c33c ec6a 8bbd 1fae 3a3d ff9c 913d
00000230: 3095 09bd fc38 85bb 64bd a4bd d930 493d
00000240: 6786 5a3d 19e4 19bc 160b b6bc 1061 e13d
00000250: 6ff3 163d 971d 933d bd21 2f3d b45e 32bd
00000260: 3aca 63bd 86c9 8c3d a9aa c7bb 052d 913d
00000270: 0908 d2bd 5a7c d73d 88e0 46bd c24c 453e
00000280: 714a b03d 3649 4cbd 78c7 65bd 5b3a afbc
00000290: e591 0f3d c749 6dbd c13d d73d e99f 37bd
000002a0: 279b 9bbd 6f47 2c3d 7460 cc3d dd87 c53c
000002b0: d7a8 cbbd 126c e9bd c1ce 88bd 50f5 e6bd
000002c0: 8f69 7d3d cac8 493d 914e 2f3a fd15 193d
000002d0: a781 ecbb 5385 e43c f407 5b3d 120e 313d
000002e0: 4f2c e33b 67bb 5abd f392 033d 0639 c13d
000002f0: 622a 613d bf5e 1ebd af8d 33bd c12c 3abd
00000300: 2015 a4bd b6c8 323e 5706 673c 1ae1 8ebd
00000310: d299 0d3d d34b ccbd 0ae4 b6bd d9d5 cabd
00000320: 3383 0bbd 3844 5e3c 52dd e7ba 0e7c e8bc
00000330: 8f3d 16bd e330 7f3d 1280 8d3d ee87 c43d
00000340: 4cb5 d9b9 27e7 18bd a322 023d 49fa 083e
00000350: 7c58 50bd b572 9ebd 2678 08bc 3d44 efbb
00000360: fd83 d7bc 16da 9a3d 99e1 a33d 76b6 a53d
00000370: 430d c4bc f8c7 06bb f154 44bd 6d7b 963d
00000380: 5d2e 4bbd 862b 833d 33fc b9bc a459 afbc
00000390: 32a2 babc 3d00 2bbd 20f1 41bd 79c0 8b3c
000003a0: 052a 393c 9123 0d3c e906 b53d 8094 053e
000003b0: 178a 893d 4c79 a1bd 19fa 8ebd 67f6 2bbd
000003c0: e20d 30bd dbcf ffbc e764 d7bd b99f 763d
000003d0: 927e 32bd a8fd 433d dd6d dd3c 4a15 9b3d
000003e0: 03ed 3bbd a7de 6a3b 58d6 423d 2ff2 afbd
000003f0: 370c a63d 260f 8fbd 0ea6 b4bd a831 023d
0.0059576645 0.13190453 -0.08569954 -0.025321176 -0.031469397 0.05608223 0.069068074 0.086874455
-0.06399252 0.02610367 -0.0128532415 -0.054294564 0.0019462685 0.056352988 0.07717617 -0.03419253
-0.090361975 -0.020601934 0.17825915 0.0944565 0.05393679 0.09386858 -0.08907845 -0.09101976
0.032281388 -0.05342249 -0.07942598 -0.07021676 0.09649194 0.015283231 -0.10307164 0.204048
-0.10669026 0.06923279 0.027197698 0.028973248 -0.05765145 -0.03728291 -0.049953647 0.07994683
-0.077975035 0.03440088 -0.026154952 0.14918949 0.043102656 -0.051274277 0.019421002 0.013665633
-0.07503169 0.089407496 0.024708087 0.0845083 0.045316655 0.017510982 -0.107795805 0.14746326
-0.067042015 0.09247913 0.035883788 -0.08623545 -0.021821845 0.06316967 -0.017406568 -0.03514351
0.049871027 0.11410476 -0.05346726 -0.032732274 0.08309138 0.010777582 0.021836648 0.021301005
-0.041232597 -0.104425386 -0.07960938 -0.005714119 0.06187074 -0.02528897 0.07292959 0.046546098
-0.03562017 0.06577332 -0.0020701152 0.15597776 -0.080807485 -0.07574607 -0.036655206 0.019493148
0.07489256 -0.089730896 0.07295653 0.10541245 -0.054175623 0.046719328 -0.009389609 0.0071283286
0.053432412 -0.083879314 -0.036452454 -0.09652717 0.060320605 -0.060182232 -0.050917566 0.018930823
0.030916825 -0.074296296 0.05277951 0.21402237 -2.6571852e-05 0.07284726 0.04022831 -0.0070439833
0.084269874 0.055816855 -0.08528233 -0.053737994 -0.0062504183 0.01048849 -0.004218656 0.084855296
-0.08478504 -0.051294696 -0.072134875 0.05116705 0.10159534 -0.042431567 0.031161744 -0.01076153
0.065236874 0.20059887 0.02033617 -0.09273944 -0.053738136 -0.06352114 0.056329686 0.08482949
0.023867195 -0.06807503 0.04557621 0.07110023 -0.033589542 -0.004065631 -0.08043936 0.04911885
0.053350832 -0.009392762 -0.022222083 0.11004841 0.03685325 0.07183378 0.042756785 -0.043547347
-0.05561278 0.06874375 -0.0060933423 0.07088665 -0.10255439 0.10521765 -0.048553973 0.19267562
0.086079486 -0.049874507 -0.05609843 -0.02139013 0.035051245 -0.057931688 0.105098255 -0.044830237
-0.07597952 0.042060312 0.099793345 0.024112636 -0.09944313 -0.11397566 -0.0668006 -0.112772584
0.061868247 0.049263753 0.00066874275 0.037374485 -0.007217604 0.027895605 0.05347438 0.04322631
0.006932772 -0.053401377 0.032122564 0.094347045 0.05497206 -0.038664576 -0.043836292 -0.045452837
-0.08011842 0.17459378 0.014100633 -0.069765285 0.034570523 -0.099754 -0.08930214 -0.099040695
-0.03406067 0.013566069 -0.001768986 -0.028379466 -0.0366798 0.06230248 0.06909193 0.09596239
-0.00041524542 -0.03732982 0.031771313 0.13376726 -0.050865635 -0.077367224 -0.008329427 -0.007301836
-0.026308054 0.07561128 0.08002014 0.08091442 -0.023932105 -0.0020565968 -0.04793257 0.0734776
-0.049604762 0.06404786 -0.022703266 -0.021405049 -0.022782419 -0.041748274 -0.047349095 0.017059552
0.011301522 0.008614437 0.08839209 0.1304493 0.06715792 -0.07884464 -0.06981296 -0.041983034
-0.04298199 -0.031227043 -0.105172925 0.060210917 -0.043577738 0.047849327 0.027029926 0.0757242
-0.04588033 0.0035838278 0.047567695 -0.08591115 0.081077985 -0.06985311 -0.08820735 0.031785637

sequential_2/conv2d_2/Conv2D f4 [64, 3, 3, 64]
00000000: 0a9f efbc 931f c53c 054d a3bc 467c a43c
00000010: 10b3 f6bc f66c 0a3d 6480 31bd 8ce2 9ebd
00000020: 179a 773d 3550 223d b916 cd3c 308b 803d
00000030: b7bf 223d d7eb 9a3b f2e7 863d de83 423d
00000040: dc2c 4fbd a476 80b9 8566 173d 62ba a7bc
00000050: 40f5 bebc 5652 303d dce7 8abc ad0d 67bd
00000060: 7eab 01bd c6c6 953d 2545 6dbd 058f 25bb
00000070: e37c 2bbd 7c43 b43c f22f 8e3c c8ff 893d
00000080: a80f a5bd c5bf 21bd 2db4 08bc 0287 2f3d
00000090: 7f85 60bd d26a 373d 02c2 ac3c ae18 82bd
000000a0: 9d0a 623c 63c6 613d 0a43 da3c a5e6 3d3d
000000b0: 9e9e 47bd d9ae cb3c c80e 52bc 3146 f8bc
000000c0: 0bab 963c 0174 3b3d 6dd2 84bd 8a1e 56bd
000000d0: 041a 4abd 89a1 a4bd 4d1a 033c 0469 503d
000000e0: 2a0c 503d bd07 8d3c 8c20 d2bd fb85 c3bc
000000f0: 6ecf 8dbd 5c50 ed3c 4258 d23c 9d17 063d
00000100: 1aa1 fa3b 7425 91bd 2c4a 033d c432 efbc
00000110: ca8f 51bd de71 9e3d b7d0 25bd 5c0c 4b3a
00000120: 9e3a 3dbd ff54 123d b302 41bd 7fed 70bd
00000130: a754 1abd 9caf 85bd 9e26 61ba 50b9 71bd
00000140: ce86 683d f149 25bd 486e 97bd 87bf 093d
00000150: 522e 8c3d d6c8 3f3d b9f9 3c3d 23a9 51bd
00000160: 7fd1 0f3c f617 233c 2cde 85bd 930b 433d
00000170: 2083 bbbc e245 b1bd 3e58 873d 3058 963c
00000180: e319 323c b5c9 cb3c 969e 343c c704 fbbc
00000190: 48aa 07bd 0b1e 48bd 9157 4ebd caca a63c
000001a0: ef35 00be bf6a e03b 11cf 57bc 7d0f 47bc
000001b0: bc30 eebd d31f 293d c5bf 99bb c9be 55bc
000001c0: caaa ccbd 7730 db3c 2447 823d 8f1e bc3c
000001d0: 71e3 96bd e53c f0bb 3922 89bd d878 90bd
000001e0: 5dd2 8cbd cf51 2bbd 9330 a1bc 4d90 5cbd
000001f0: f474 67bd a2fa 1bbd c891 1dbc a377 49bc
00000200: 530e 0f3c d9c7 52bd 5b7b 373d 35c3 443d
00000210: aef9 6cbd cc58 cd3c b8e4 3f3d 0b1a 9fbc
00000220: b1f8 07bd b97f e13c b814 c4bc d50e 09bd
00000230: 6467 62bd 6a51 cbbc 715a 3bbd 56a3 993c
00000240: 32de 00bc da21 ac3c ff47 033d 2f2a 47bd
00000250: 9edd 6d3d 2fa5 7b3d 0ff7 0bbc f57d dabc
00000260: 979a 20bd 2c2f 703d f732 113d cf9c 223d
00000270: d639 38bd f1b0 013d 110c a53d 916b 22bd
00000280: b2f7 073a 0d4d bbbc 0058 4abd b9e1 9a3d
00000290: b8ff 243d 671d 22bd 0792 d2bc 85df b03c
000002a0: c9a2 e7bd b46a 183d 11c9 5ebc b2e4 8ebd
000002b0: 800b e8bd a376 903d 8ef9 133d 02fa e23c
000002c0: 00d6 ecbc 3228 3e3c 9100 f7bc 1d36 703c
000002d0: effd 03bd 713e 16bb 1af3 a5bd 68a0 623d
000002e0: cc4a 53bd ada8 953c 1dbe dbbd dd20 88bc
000002f0: f91a 3e3d 4e8e 44bc 3526 273d e711 56bd
00000300: 3498 05bd 5e69 9dbd 11a8 1f3d 81ff 8b3d
00000310: 411d ebbc 3299 2dbc d972 dcbc a055 08bd
00000320: c6ba 84bd 5ff8 4ebd 2233 9d3d 0c17 a33d
00000330: 7741 3c3d 010e d63c f2aa 8fbc e7dc 9dbc
00000340: d490 e8bc 2eed 103c fbab bc3c 8bb2 613d
00000350: ac95 3e3d b02a 8b3a 8897 a1ba 2c8b 233c
00000360: 76c1 b5bd e536 b7b9 82e0 a3bb a1a9 2f3c
00000370: 1edc cfbc e261 68bb 5308 82bc 5bd9 81bc
00000380: be1e 26bd df4c 3bbd 0451 903c 3d42 913d
00000390: 639e b5bc e58d 5a3c 32c6 35bd 6d50 77bc
000003a0: 0016 c4bd 9519 873d 6315 b33c ddb3 86bd
000003b0: 0057 c6bc eff5 093d 3ae3 f03c 2fda 373d
000003c0: 5941 e63b d1ce f0bc f44c 8dbc 5e29 80bc
000003d0: 9a6d 68bc 3294 083b f143 92bc 773b 77bd
000003e0: ea47 a53b b704 93bb dca5 22bd 0d0d b1bc
000003f0: fd7f 853d c974 90bb df00 e8bc 53e5 dbbc
-0.02925064 0.024062907 -0.019934187 0.02007879 -0.03011468 0.03379532 -0.043335333 -0.07758054
0.060449686 0.039627273 0.02503525 0.06276548 0.039733615 0.0047278213 0.06587209 0.04748904
-0.05057989 -0.00024502457 0.036963005 -0.020474616 -0.023310304 0.04304727 -0.016956262 -0.056409527
-0.03165769 0.07313304 -0.05792727 -0.0025262248 -0.041867148 0.022004835 0.017356846 0.067382395
-0.08059627 -0.039489526 -0.0083437385 0.042853363 -0.05481481 0.044779606 0.021088604 -0.063523635
0.013796476 0.055120837 0.026643295 0.046362538 -0.048735254 0.024863647 -0.012820907 -0.030306907
0.018392107 0.045764927 -0.06485448 -0.052275218 -0.049341217 -0.08038623 0.008001876 0.0508814
0.05079285 0.017215604 -0.10260114 -0.023867598 -0.0692433 0.028968982 0.02567685 0.032737363
0.0076485993 -0.07087222 0.032053158 -0.029199012 -0.05116252 0.07736562 -0.04048225 0.0007745677
-0.04619848 0.03572559 -0.047121715 -0.058820244 -0.037678387 -0.065276355 -0.0008588823 -0.05901462
0.056769185 -0.04035372 -0.07394081 0.03362992 0.068447724 0.04682239 0.04613659 -0.051186692
0.008777975 0.009954443 -0.065365165 0.04761846 -0.022889674 -0.08655907 0.06608628 0.018352598
0.01087043 0.024876455 0.011024138 -0.030641926 -0.033121377 -0.048856776 -0.05037648 0.02036037
-0.12520574 0.0068486626 -0.013171927 -0.012149689 -0.11630389 0.041290116 -0.00469205 -0.013045975
-0.09993513 0.026756508 0.06361225 0.02296379 -0.073676 -0.007331478 -0.066959806 -0.07054299
-0.06876061 -0.041826066 -0.019676482 -0.053848553 -0.05650802 -0.03808082 -0.0096172765 -0.01229659
0.0087314425 -0.05146012 0.044795375 0.048037726 -0.0578553 0.025066756 0.046848983 -0.019421598
-0.033196155 0.027526723 -0.02393566 -0.03346141 -0.055274382 -0.024819095 -0.04574055 0.018754642
-0.0078654755 0.021012235 0.032051083 -0.048624214 0.05807268 0.06143683 -0.00854279 -0.02667139
-0.03920993 0.058638737 0.035448994 0.039700326 -0.04497703 0.031662885 0.08058942 -0.039653365
0.0005186751 -0.02286389 -0.04940033 0.075625844 0.040282935 -0.03957882 -0.025704397 0.021590957
-0.11310346 0.037211135 -0.013597743 -0.06977214 -0.113303185 0.07053878 0.036126666 0.027707104
-0.028910637 0.011606263 -0.030151637 0.014661339 -0.03222459 -0.0022925402 -0.081030086 0.055328757
-0.051585004 0.018268907 -0.107296206 -0.016617233 0.046412442 -0.011996819 0.04080792 -0.052263167
-0.032615855 -0.07686113 0.03897864 0.06835843 -0.028700473 -0.010595607 -0.026910232 -0.033284783
-0.06480937 -0.050529834 0.076757684 0.0796338 0.04596087 0.026129724 -0.017537568 -0.019270374
-0.028389372 0.008845611 0.023031225 0.055101912 0.046529457 0.001061758 -0.0012328485 0.009981912
-0.0887479 -0.0003494538 -0.0050011287 0.010721595 -0.025373515 -0.0035458733 -0.01587311 -0.015850713
-0.04055666 -0.045727607 0.017616756 0.07092712 -0.022170251 0.013339494 -0.044378467 -0.015094859
-0.09574509 0.06596676 0.021860784 -0.06577275 -0.024211407 0.033681806 0.029405225 0.04488581
0.007026833 -0.029395493 -0.017248608 -0.015644725 -0.014186287 0.0020840284 -0.017854663 -0.060359444
0.005043973 -0.004486646 -0.039708957 -0.021612668 0.065185525 -0.004408453 -0.028320728 -0.026842749

sequential_2/conv2d_3/Conv2D f4 [64, 2, 2, 64]
00000000: bc28 b33d 83ea a7bd 25a5 3ebd 1b70 6dbd
00000010: 9b77 6c3d aa57 fcbd 941d fb3c 5463 9c3d
00000020: 9fba a8bd f4d6 4c3d cc35 c2bd 6faf 623d
00000030: 7212 afbd 86dc dcbc fa1a 223d 0111 bfbc
00000040: 02ba 823c a4d3 223c 17d7 4d3c 34ee 93bc
00000050: 26a7 0b3a 8a3c 7b3d 9953 8dbc 13ee f6bb
00000060: ef92 97ba 98e7 013c 8e1c 943d 5c73 193d
00000070: f6c2 06bd c8a0 203d 1722 553c 76f2 59bc
00000080: 44c3 cabd 12e8 87bd a35e 983d d3cd 87bc
00000090: 0232 a0bd 0785 d63c 9938 6b3d e040 85bd
000000a0: 05d3 b8bd a015 523d e283 fa3b b6db 873d
000000b0: 73c7 e8bd b96f b33d 2031 adbd 7cd7 24bd
000000c0: e096 babd fcaf c0bd dadd 2abd a400 7d3d
000000d0: a53d c83d cbf4 653d f3fd d8bd 90b1 75bd
000000e0: 887c 56bd 8e49 2c3d 1d7e 1f3d 8b3e 2bbd
000000f0: 12c8 c93d c454 c1bd f6c8 16bd f274 c33d
00000100: 43bb b7bd 3b35 3cbd bc4b 203d c458 b73c
00000110: 18b4 c7bd e30c 7c3d 4e42 ad3d a612 b23d
00000120: 98c5 5d3d a05a cdbc 54c9 383d a6c7 27bd
00000130: 04fa 30bd 9d91 8ebd 22de 39bd 603c 9d3d
00000140: 9453 d6bc a199 be3c a360 bb3d dd83 933d
00000150: 8d07 763d 68e0 443d 6b51 b0bd fcd1 583d
00000160: 5286 2ebd c8dd a13d a891 c23d 63f5 6f3d
00000170: aa64 8c3d 9b89 00bd 93e0 143d 02a3 6abd
00000180: 6319 acbd 4971 73bd 1c82 48bd 2591 49bc
00000190: b8a7 b23d cb65 e13d 9680 1a3d 0ade 6e3d
000001a0: 4fab 003d e417 04bd dbf6 9e3d c9d1 07bd
000001b0: 3f15 a8bd 1e81 be3d a25b 693d 69b2 39bd
000001c0: 6e7d 1d3c 7974 ecbd ab2a d43d 6041 4b3d
000001d0: 023d d43d 5dc2 46bd a30c 9e3d ba21 873d
000001e0: f9d3 843d 7df5 a33d 4071 b9bd 65dc 9fbd
000001f0: 0b2b 2a3b afbb a13c 5b54 e7bd ae2c c63d
00000200: 1cee f6bd 9263 6c3d 7c74 26bd 5736 88bd
00000210: 53c2 96bd 910c 42bd 35aa cdbd 2752 973c
00000220: 3a9b 42bd f5e2 9f3d 2bd4 b63d d96b 6d3b
00000230: 1074 f8ba ad4b b03d b8b6 553d 489d 5b3c
00000240: db06 d83d 7144 d53b ee54 023d 062d 72bb
00000250: 9699 38bd e456 003d 7f94 f73c 9036 843d
00000260: 5ec8 1cbc ba2b 0bbd 2acb 453d a4a9 e63d
00000270: 625c d13d b36a d4bc 11ad 71bc 0d43 7f3d
00000280: 314f 7bbc a5db babc 0152 d03d 2eca 9bbd
00000290: 8a40 993c 534a af3d 94db 453d da5d d3bc
000002a0: 3ffb 9f3d 5df8 993d 7ff0 e0bd 4f9b 48bc
000002b0: 9b08 c2bd dce0 443d ba25 c4bd bf0e d8bd
000002c0: 7835 173d 3b3e 113b 0afd ee3d ca0f 9dbd
000002d0: 65ab 703d cbdb b1bd cda8 a3bd 005e 27bd
000002e0: 9807 c4bc 2bb8 2a3d e3e6 7d3d 8a08 003d
000002f0: dbfa e03c 75ca 603d d5bd 47bd d7f5 8f3d
00000300: c3eb 6cbc f7e8 d2bc b27d 8d3d 0b2b 83bd
00000310: 85ec 823d ad6e 393d 7203 dbbd 0855 50bd
00000320: e7d7 8b3d 932a 38bc b989 99bc eeb1 2fbd
00000330: 38e0 f13c cd71 99bc 7c02 69bc f958 213d
00000340: 08f4 d43d 6b23 7ebd 65f9 3d3d 6197 f2bb
00000350: 2fae 85bc f2e5 bfbc bc18 a2bd 09dc cdbd
00000360: ddc4 03bd ba84 223d 9959 b6bc 6b15 013d
00000370: 5386 c63d 2912 7cbc d308 fc3d dc01 423c
00000380: 4a1e a5bd 508a 9abd 1144 15bd b4a1 803d
00000390: 1640 81bd 4a90 93bd 934d 543c c530 11bc
000003a0: 00f8 e4bd 4292 d7bc 04ef 3d3d 7e31 c8bd
000003b0: 18eb 123d 5fac 6a3c 8688 01bc 5b12 8d3c
000003c0: ba6f c13d 8c1d 9e3d 5eec 753d 578c 2b3c
000003d0: 200f 963c d143 54bd 05e4 0f3c 29ef 04bd
000003e0: eb83 353c e5af 593d 4c89 ba3c 940a 173d
000003f0: 61b6 bfbd 7205 6fbd 3ff7 e4bd 5f17 f5bc
0.08748004 -0.081990264 -0.046544213 -0.05796824 0.057731252 -0.12321408 0.030653752 0.07636133
-0.0823872 0.050009683 -0.09482917 0.055343088 -0.0854844 -0.026960623 0.039576508 -0.023323538
0.015957836 0.009938154 0.012563488 -0.01805792 0.0005327336 0.06133703 -0.017251777 -0.007535705
-0.0011564175 0.007928751 0.07232009 0.03746353 -0.032900773 0.039215833 0.013008616 -0.013302436
-0.09900525 -0.06636061 0.074399255 -0.016577637 -0.07822038 0.02618648 0.057427023 -0.065065145
-0.09024624 0.051290154 0.007645116 0.066337034 -0.11366167 0.08761544 -0.084566355 -0.040244564
-0.09110808 -0.09408566 -0.04171548 0.06176819 0.09777383 0.056141656 -0.10595312 -0.05998379
-0.052364856 0.042062335 0.03893863 -0.041807692 0.098526135 -0.09439996 -0.036812745 0.0954379
-0.08971264 -0.045949202 0.039134726 0.022381194 -0.09751147 0.061535727 0.08459912 0.08694963
0.05414352 -0.025067627 0.045113876 -0.040961884 -0.043207183 -0.06961367 -0.045377858 0.07677531
-0.0261629 0.023266615 0.09149291 0.07202885 0.060065795 0.048065573 -0.08609279 0.05293463
-0.042608567 0.079036295 0.09500438 0.05858363 0.06855138 -0.03138123 0.036346983 -0.057284363
-0.0840328 -0.05943421 -0.048952207 -0.012302672 0.08723396 0.110057436 0.037720285 0.05831722
0.031413373 -0.032249346 0.07761928 -0.03315905 -0.08207177 0.09301971 0.056972153 -0.04533616
0.009612424 -0.11545653 0.10359701 0.049622893 0.10363199 -0.048525203 0.07717254 0.0659823
0.06485743 0.080058075 -0.09054804 -0.07805709 0.0025965597 0.019742815 -0.112953864 0.09676491
-0.120571345 0.057712145 -0.040638432 -0.066509895 -0.07361283 -0.047375266 -0.1004223 0.01847179
-0.047511317 0.078069605 0.089271866 0.0036227612 -0.0018955488 0.08608184 0.052176207 0.013404198
0.105481826 0.006508403 0.031819277 -0.0036953106 -0.045068346 0.031332865 0.030222176 0.064557195
-0.009569256 -0.033977248 0.048289455 0.11262825 0.10222699 -0.025929784 -0.014750735 0.062319804
-0.015338705 -0.022809813 0.10171891 -0.07606922 0.018707532 0.08559098 0.04830511 -0.025801588
0.07811593 0.07518075 -0.10983371 -0.01224406 -0.094742976 0.048066005 -0.09577508 -0.105496876
0.036916226 0.0022162336 0.11669357 -0.07669027 0.058757205 -0.086845 -0.079911806 -0.04086113
-0.023929402 0.041679543 0.06198777 0.031258143 0.027463367 0.054880578 -0.048765022 0.07029312
-0.014460507 -0.025745852 0.0690874 -0.06404694 0.06392769 0.045271564 -0.106940165 -0.050862342
0.068282895 -0.011240619 -0.01874243 -0.042894296 0.029525861 -0.018731022 -0.014221784 0.03939149
0.10398108 -0.062045496 0.04638042 -0.0074032997 -0.016318409 -0.023425076 -0.07914874 -0.10051734
-0.032170165 0.03967736 -0.02225952 0.031514566 0.09693589 -0.015385189 0.123063706 0.011841264
-0.08062418 -0.07545912 -0.036441866 0.062808424 -0.063110515 -0.07205255 0.012957948 -0.008861725
-0.11180115 -0.026314858 0.04637052 -0.09775065 0.035868734 0.014323323 -0.007906085 0.017220667
0.09445138 0.07720479 0.06003987 0.010470471 0.018317759 -0.051822487 0.008782391 -0.032454643
0.011078815 0.05314626 0.022770546 0.036875322 -0.09360958 -0.058354802 -0.11179971 -0.02991837

sequential_2/conv2d_4/Conv2D f4 [64, 2, 2, 64]
00000000: 078c 203c d453 423d 0574 aabd 4364 d0bd
00000010: 40bf c13d e1e3 0e3c 565a c7bd a8ff cc3d
00000020: 7845 163d ae26 d1bd 5c90 9fbd 088f 983d
00000030: 4faf 543d d9b8 003b cffa 9dbd fd06 b0bd
00000040: bd85 23bd 21e1 94bd c118 2cbd d421 3bbd
00000050: 0544 71bc 62f9 c7bd 264e 99bd ac58 debd
00000060: 2d78 9e3d 8b2c efbd bbd8 aa3d 3eb0 9e3c
00000070: 67d4 93bc 6ff1 32bd 9259 aabd d56f 123d
00000080: 5492 c6bd b42d c63b 7b94 d53c 1fe3 bcbd
00000090: 9928 5fbd 67b7 af3d 2d58 673d 7555 b33d
000000a0: d650 f33c c097 55bd 8a82 86bd 4889 ad3d
000000b0: 2186 d73d b833 d2bd b444 3f3d 432d e63d
000000c0: 2acb 1c3d bbfe 793d 26e4 82bc 137d eabd
000000d0: 075b b7bd ca53 9d3d dfe2 b03d 0669 24bd
000000e0: 41f7 a3bb ba7f 01bd 1584 833d 11b0 adbd
000000f0: b4ca 833d d6ec c4bd eba5 efbd 24e0 3b3c
00000100: aacc b8bc 6de8 33bd a0ee e73d c5cd f63c
00000110: 2581 00bd 1217 eebd b8ae 3f3c 9e92 7a3d
00000120: d1eb a13d 14ea ebbd e3f4 853d d2e6 c4bd
00000130: 7015 debd 2ffa a8bd ac7f 113d 2133 b03d
00000140: a6c5 8ebd e728 4abd a561 8b3c a85a dd3d
00000150: 24ba 9f3d 0af4 a33d 84e1 c9bd d4ad 80bd
00000160: 89e6 87bd 8e31 0fb9 62fc a6bd d27a 78bd
00000170: 7602 753d 027b b8bd 36bf a8bd 82ae c9bd
00000180: d591 3cbd f13f 19bc c9cf c1bd deac 9cbd
00000190: 2712 8a3c a3c0 723c 0cb0 953d 9071 8dbd
000001a0: 0458 0f3d e6c0 e7bd 1b10 583d ef0a 8c3d
000001b0: fc2a 4bbd 8fff d8bd 6508 b03d 24b0 a4bc
000001c0: fa3d 993d cf0a ff3c f4b8 5a3d a153 76bd
000001d0: 0f32 dd3c a153 b4bd b723 ec3c 2387 d5bd
000001e0: d2eb 82bd 9f01 8abd 6509 a7bd 0339 c23b
000001f0: f182 c4bd dc7d 013d 9dd3 823d 7063 b4bd
00000200: c809 b83d 6560 2cbc 932e 12ba 23be da3d
00000210: 7681 85bc 1a74 173d 6613 823d b89d bfbd
00000220: 619b 94bd 80a7 833d 50a7 b03d 03ca 74bd
00000230: 2676 3abc 587c 40ba bf7c f9bd fad8 bf3d
00000240: 4473 2fbd 280c 313d 4f5c ccbb 9e1c c9bd
00000250: 1e8f 8c3d a9ca bdbc 7ac3 913d 734a 9cbd
00000260: 9463 debd af6d 963d da75 9cbd 5cc4 b1bd
00000270: 1de7 b93d bd84 0e3d f55e c63c 9189 99bc
00000280: bbb7 a43d d1d0 52bd 76b5 b83d cec5 acbd
00000290: 430d dbbd 04aa 43bd f94e 8fba 11de 5f3d
000002a0: 6f8e f5bd b9a3 a2bd 7dba 8abc d597 c03c
000002b0: 41fe 93bd 9b0e d6bd 3cc3 c9bd e209 3a3d
000002c0: 36f4 edbd 5345 9dbd 1836 dbbd 5cec f1bc
000002d0: 300e 533d e157 8f3c c78f 8e3d 87d7 dfbb
000002e0: a498 f3bd 01ae 883d c815 8fbd 06b0 713c
000002f0: 32cf 973d f18f 9a3d 51e2 ab3c cd14 ecbc
00000300: 4337 8f3d 0552 9d3d 8189 7f3d 5fb3 803b
00000310: 51fc 8a3d 77da df3b 3538 1f3c f38e b2bd
00000320: 0e82 443d 582f f2bd eccd aebd ae94 69bd
00000330: 07de 28bd b11c 553d 93d8 87bd b82d 81bd
00000340: 06f4 a13d 7a33 883d 2f39 3b3d 0abe 873d
00000350: c4d8 4b3c 18aa fd3c db72 71bd 89c2 31bd
00000360: 08fd 84bc a53d b3bd 7702 ba3d 9869 a53c
00000370: 705c ccbd d966 4abd efd9 46bd c394 c3bd
00000380: f245 7dbc 3e5c d63c 213f 83bd a9fb a43a
00000390: 8a03 ab3d 76e9 3c3d 1e29 893d b789 5b3b
000003a0: 7721 89bd 68ed b4bd 8574 a43d 70c5 ceba
000003b0: 2d4a 0b3d 114b fabc 4a65 a43d 1cb4 9c3b
000003c0: b8f2 bcbd 38f8 10bc e5cd 393d 6da4 3c3c
000003d0: 9229 40bd 2439 913d 60a4 5e3c ebd7 fb3c
000003e0: 443b 913d 0ca3 513d 19b3 ca3a 1706 c7bd
000003f0: aed0 ddbd b29e b13d 928b ccbd 9cf8 8bbb
0.00979901 0.047443226 -0.0832291 -0.101753734 0.09460306 0.008721323 -0.09734027 0.100097
0.036687344 -0.10212456 -0.07791206 0.07449156 0.051925 0.0019641428 -0.077138536 -0.08595083
-0.039922465 -0.072695024 -0.042015795 -0.045686558 -0.01472569 -0.09764363 -0.07485609 -0.108567566
0.077377655 -0.11678418 0.08342119 0.019371148 -0.018045617 -0.04368728 -0.083178654 0.035751183
-0.096958786 0.0060479287 0.026071778 -0.092230074 -0.054482076 0.08579903 0.056480575 0.08756534
0.029701632 -0.052146673 -0.06567867 0.0847345 0.1052363 -0.10263771 0.04669638 0.11239102
0.03827969 0.061033946 -0.01597793 -0.11449637 -0.08952909 0.07681997 0.08637022 -0.04013922
-0.00500384 -0.03161595 0.06421677 -0.084808476 0.06435147 -0.09615485 -0.11701568 0.0114670135
-0.022558529 -0.04392283 0.11324811 0.030127415 -0.03137316 -0.11625494 0.011699371 0.06117498
0.079063065 -0.11519256 0.06540849 -0.09614338 -0.10843933 -0.08250844 0.035522148 0.08603502
-0.06971292 -0.049355414 0.017014334 0.10808307 0.077991754 0.08005531 -0.09857467 -0.06283155
-0.06635768 -0.00013656003 -0.08153607 -0.060664006 0.0598168 -0.09007837 -0.082395956 -0.09847738
-0.046037514 -0.009353624 -0.0946346 -0.07650159 0.016854359 0.014816436 0.07308969 -0.06906426
0.034996048 -0.11316089 0.052749734 0.06838023 -0.04960154 -0.10595619 0.08595351 -0.020103522
0.07482524 0.031133084 0.05339904 -0.06013835 0.027001409 -0.088050134 0.028825624 -0.10426166
-0.063926354 -0.067385904 -0.08156089 0.0059272065 -0.095952876 0.03161417 0.06388018 -0.08808029
0.089862406 -0.010521029 -0.0005576398 0.10680797 -0.016297083 0.036975957 0.06351356 -0.09356254
-0.07256199 0.064284325 0.08625662 -0.059762966 -0.011380708 -0.00073427474 -0.121819966 0.09367557
-0.042834535 0.043224484 -0.00623659 -0.098199114 0.06863235 -0.023167925 0.07117362 -0.076313876
-0.10858837 0.07345139 -0.07639666 -0.08680031 0.090772845 0.034794558 0.0242152 -0.018742355
0.08042856 -0.051468674 0.09018986 -0.08436166 -0.10695889 -0.04776956 -0.001093357 0.05465514
-0.11990058 -0.07941384 -0.016934628 0.0235099 -0.072262295 -0.104520045 -0.09851691 0.04541958
-0.11618845 -0.07679238 -0.10703677 -0.02953165 0.051527202 0.017497959 0.06961017 -0.006831113
-0.11894348 0.066738136 -0.06986576 0.01475144 0.07412566 0.07546986 0.02098194 -0.028818512
0.06992962 0.076816596 0.062386993 0.0039276327 0.06786407 0.006831463 0.009717991 -0.08718672
0.047975592 -0.11825436 -0.0853537 -0.057026558 -0.041227367 0.052029315 -0.06633105 -0.06307548
0.07907872 0.066504434 0.04570883 0.06628044 0.012441818 0.030964896 -0.058947425 -0.043398414
-0.016233936 -0.08751992 0.090825014 0.020191953 -0.099785686 -0.04941449 -0.04854768 -0.095498584
-0.015458571 0.026167031 -0.06408525 0.0012587208 0.083502844 0.046121083 0.066972956 0.0033498832
-0.06695836 -0.08834344 0.08030037 -0.0015775394 0.034006286 -0.030553373 0.08027132 0.004782213
-0.092259824 -0.008848242 0.045362372 0.011513812 -0.046914645 0.07090977 0.013588995 0.030742606
0.07091382 0.051180884 0.0015464752 -0.097179584 -0.10830818 0.08672847 -0.099875584 -0.00427158

sequential_2/conv2d_5/Conv2D f4 [64, 2, 2, 64]
00000000: 3221 8d3d 516f 4fbd b369 423d 94be 4e3a
00000010: 5b3f 843b 60cf ffbc feef 16bd e321 8bbd
00000020: 6cdb 893b 39b4 85bc abaa 5fbd 7688 0ebd
00000030: 6a02 563c 0b69 d83d 9be1 d2bc a542 cb3d
00000040: 4712 6cbd 42bb 4e39 3feb 803b 8240 60bd
00000050: f382 853d 413a 82bd 7523 94bd 749d 4e3d
00000060: fead 85bd 4606 2f3d 063a e23c 27ee 07bd
00000070: 98f2 833d 9fe0 933d e841 df3d 75b5 a1bc
00000080: e0c4 843d 0bd7 3ebd 9f8d 0b3d aade a8bd
00000090: abdd d7bb bc36 aebb 2a3a bf3c 1b66 c03c
000000a0: d9cd 63bc 8091 c53b 2ac3 113d 5e42 2cba
000000b0: 57aa 4b3d 54f9 c63b 93ec 553d 0267 f93c
000000c0: 0592 55bd 3d8e 493b cfd3 8a3d fa26 a43d
000000d0: 4a7b d5ba f9c1 52bd 2516 d5bc c069 053d
000000e0: 7486 9c3d bace 7c3d 40fd 703d 8d51 eebc
000000f0: 76b0 933d d6ea 673d c1c3 f23c f1a4 d73d
00000100: d7e4 adbd f4d3 573d c43a 50bd d5c5 7aba
00000110: 75de c33d c61f b13c ab21 a53d 09fe 8ebd
00000120: 3e5e 133c f1dd 263d 6cf0 083d f909 8cbd
00000130: 4e59 99bd e333 873c e709 843d 658f 043e
00000140: e4a9 b03d c2ec 0139 37ea 0b3e b621 8abd
00000150: 6530 903c 9e05 303d 0a10 ca3c 4f18 a7bd
00000160: 27c0 d33d a610 b43d 87f5 053d 1ad4 243d
00000170: 4746 e33d e131 a03c a44d f73d c577 f23d
00000180: 6be0 8b3d 5f68 683d 4a6b e63d 1a19 c5bd
00000190: 7456 c93d 65af adbd 7d5e a13d aa70 2a3d
000001a0: ac20 a2bd 72b7 f13c ad4c 063c e099 9d3c
000001b0: a4ba 993c f4f2 1abd 7fb3 903d 15e3 923d
000001c0: c01c 623d 66e2 f53b 371b 03bc 00d6 863c
000001d0: f717 b43d b453 eb3d 1936 cb3d 64b9 403d
000001e0: bb5e 90bd aece 51bd 504a d93c 2ecd 9c3c
000001f0: 4d89 40bd b0fb 853c 82b0 e03d cf41 dc3d
00000200: 2795 9a3d 4886 96bb 14b2 47bc b8b7 dcbc
00000210: 8586 ac3d b3d7 c33d 5aac 2f3d 64cf 4b3d
00000220: f422 43bd 82b5 d73d 6f10 35bd 925d 363d
00000230: 7040 a83b 72a6 7c3d a2ac 283d 943e 1a3d
00000240: 1c27 d4bb 4d48 ab3d 06c4 213d 7c6d 14bd
00000250: 164c e13d b9d6 9c3d 97e4 c4bd 4b08 d3bd
00000260: 1411 b4bd c031 82bd 586e 90bd 900a 25bd
00000270: 3f72 663d b498 b53d 91c2 af3b 27dc 5b3d
00000280: 93d7 803c 523c 083e 2edc db3c 4d15 a03d
00000290: 799a f73c acb5 b03d b438 a43d e67e 943c
000002a0: 4038 863d c850 78bd 3b58 b1bb 512f 103d
000002b0: 8931 efbc bb7c 14bd 42b5 933d 9ced 90bd
000002c0: 4b48 c53b 411d 343d 79a3 d63d a5cb a53d
000002d0: 72b5 133d 220f a03d 814e bc3d da1d 03be
000002e0: 6e0f 2ebd 3e0d b3bd 0549 993d 5ab0 ed3c
000002f0: c3e6 8a3d 76e8 bdbd e374 ba3d 82c2 cbbd
00000300: 8933 cdbd 715a 2dbd c932 883d 4127 82bd
00000310: a5e1 11bd f6aa fd3d 8862 5a3d d5f0 3fbd
00000320: dbe0 9c3d bf93 153d ae14 163e ae35 013e
00000330: 18b6 d1bc fd0a ed3d bece 863d 2b65 143e
00000340: 4509 73bd 7d11 c3bd 35a1 e8bc 5c98 9ebd
00000350: 164e 60bd 10e0 923d 2beb 2fbe fd63 843d
00000360: 44e7 263d 7e1b 41bd 5084 3dbd 6e0b a2bd
00000370: 087b 56bd d1f1 433d 0982 0ebd 38a9 943b
00000380: 663f a83d 82d7 db3d 3288 033d 061d 94bc
00000390: f48d fa3d 7866 df3d 08ac b93c e38a 463d
000003a0: bf6f 793d 98a0 d53c 026d d23d 4b38 a5ba
000003b0: 412e 553d 5484 893c c286 24bd e88d 543c
000003c0: b42b 64bd bc67 aa3c f5aa a0bd c8d6 543d
000003d0: 1dea 51bc e691 4b3d c6e7 b0bc 4ccb 793d
000003e0: db90 a23d 9357 b7bc 2b67 f73d 1cbe 1bbc
000003f0: 0aaa 6bbd 5375 ecbd 9eac 9dbd 6eaf f23b
0.06891097 -0.05064327 0.047464084 0.0007886675 0.004035873 -0.031226814 -0.036849968 -0.06793573
0.0042070653 -0.016321288 -0.05460612 -0.034798108 0.013062099 0.1056691 -0.025742343 0.09924821
-0.057634618 0.0001971545 0.0039342935 -0.05474902 0.06519117 -0.06358767 -0.072333254 0.050443128
-0.06527327 0.042730592 0.027615558 -0.033186104 0.064427555 0.072205774 0.109012425 -0.019739846
0.064828634 -0.0465918 0.034070607 -0.08245595 -0.006587704 -0.0053165834 0.023343164 0.023486188
-0.013904058 0.006029308 0.035586514 -0.0006571169 0.049722996 0.0060722027 0.052227568 0.030444626
-0.05214121 0.0030754947 0.067786805 0.08015247 -0.0016287353 -0.051454518 -0.026011536 0.032571554
0.076428324 0.061720587 0.058835268 -0.02909162 0.07211392 0.05662044 0.029634358 0.10529507
-0.08490913 0.05269237 -0.050837293 -0.00095662224 0.09563915 0.021621596 0.08063062 -0.06982047
0.008994637 0.040739004 0.03343241 -0.0683784 -0.07487737 0.016504234 0.06447201 0.12945326
0.08626154 0.00012390598 0.13663565 -0.06744711 0.017601201 0.042974107 0.024665851 -0.08158933
0.103393845 0.08792238 0.032704856 0.04024134 0.11097389 0.019555034 0.12075356 0.118392505
0.06829914 0.05674016 0.112509325 -0.09623928 0.09830943 -0.084807195 0.0787935 0.04161135
-0.07916388 0.029506419 0.008196992 0.019238412 0.018765755 -0.037829354 0.07065486 0.07172219
0.0552032 0.0075037954 -0.008002094 0.016459465 0.087936334 0.114905745 0.09922428 0.047051802
-0.070493184 -0.051222496 0.026524693 0.019140806 -0.04700594 0.016355366 0.10971166 0.107547395
0.0754798 -0.0045936443 -0.012188453 -0.026943073 0.08424095 0.09562626 0.042888977 0.04975833
-0.047640756 0.10532667 -0.044205125 0.04452283 0.0051346347 0.061682172 0.04118026 0.037657335
-0.0064743888 0.083634 0.039493583 -0.036237225 0.1100084 0.076581426 -0.096139126 -0.10304316
-0.0879232 -0.06357145 -0.070522964 -0.040293276 0.056261297 0.088670164 0.0053637703 0.05367675
0.015727794 0.1330426 0.026838388 0.07816563 0.030225025 0.08628401 0.08018628 0.018126916
0.065536976 -0.060623914 -0.005412129 0.035201374 -0.029198425 -0.036251765 0.072123066 -0.070765704
0.006020581 0.04397321 0.10480399 0.08095483 0.03606171 0.07815386 0.09194661 -0.12804356
-0.042495184 -0.0874276 0.074846305 0.029014755 0.067822956 -0.09272854 0.091043256 -0.09949209
-0.10019595 -0.04232258 0.066503115 -0.06355143 -0.035615582 0.12386124 0.053316623 -0.046860535
0.07660075 0.036517855 0.14656326 0.12618133 -0.025599524 0.115743615 0.06582402 0.14491718
-0.059335012 -0.0952482 -0.028397182 -0.07743904 -0.05476197 0.07171643 -0.17179553 0.06464384
0.040747896 -0.04714536 -0.04626876 -0.07912336 -0.052363425 0.047838036 -0.03479198 0.004536774
0.08215217 0.10734464 0.032112308 -0.018080246 0.12234107 0.10908216 0.022665039 0.048472296
0.060897585 0.026077554 0.10274698 -0.0012605278 0.052046064 0.016786732 -0.040167578 0.012973286
-0.05570574 0.020801418 -0.078451075 0.051962644 -0.012812165 0.049699686 -0.021594893 0.060984895
0.07937785 -0.022380626 0.120802246 -0.009505775 -0.05753521 -0.11545815 -0.0769894 0.0074061668

sequential_2/dense/BiasAdd/ReadVariableOp f4 [64]
00000000: 5209 afbb 935f f0bc 1c59 90bc 0825 a9bc
00000010: a798 8c3d 90b0 01bc 7a6b 0e3d 8983 08bc
00000020: 7d3b acbc 14dd 44bc 08a3 1abc 02f8 abbc
00000030: d764 8f3d e6f1 22bd 40fe 7f3d 64a7 19bd
00000040: 9f9f c0bb 59a4 9cbc e7e7 f2bc 0d75 4cbd
00000050: c4d2 823d 0a7b 05bc 3821 7fbc 33ed 85bc
00000060: 8183 923d ece3 35bd 85b0 f2bc 302e f6bc
00000070: 54f3 8e3d ef0f 2cbc aa34 95bc c952 cdbc
00000080: 41aa b13d e1de 963d ce5a 01bc d011 5e3d
00000090: 6ec2 3abc b031 a93d df93 7c3d ad22 cb3d
000000a0: 7982 70bc aca8 6ebc 8ebd a8bc 935a 43bc
000000b0: e00e fdbb 62b6 12bd 6dba 47bd 5d2c 16bd
000000c0: ff5f 2abd 8b4a 833d 1cea 65bc 78d1 08bc
000000d0: bdae 36bd 6d63 393c 4734 ecbb dbc0 21bd
000000e0: c343 a23d eb9f ce3d c2a0 7c3d fd04 39bc
000000f0: d93c 1cbc 7350 cfbb 8d44 a73d eb99 f0bb
-0.0053416872 -0.029342448 -0.017620616 -0.02064754 0.068650536 -0.007915631 0.034770466 -0.008332142
-0.02102446 -0.0120156 -0.009438284 -0.020992283 0.070016555 -0.039781474 0.06249833 -0.03751315
-0.0058784033 -0.019121336 -0.029651595 -0.049916316 0.063878566 -0.008147011 -0.015571885 -0.016348457
0.07153989 -0.044406816 -0.029625187 -0.03005132 0.06980005 -0.010501846 -0.018213589 -0.02506389
0.086750515 0.073667295 -0.007895185 0.054216206 -0.011398895 0.0826143 0.06166446 0.09918723
-0.014679545 -0.014566582 -0.0205982 -0.01192345 -0.0077227205 -0.035818465 -0.048761774 -0.036663402
-0.041595455 0.06410702 -0.014032867 -0.0083507225 -0.044600237 0.011315209 -0.0072083804 -0.039490562
0.07923081 0.10089096 0.061676748 -0.011292693 -0.009535992 -0.006326729 0.08167372 -0.007342567

sequential_2/dense_1/BiasAdd/ReadVariableOp f4 [2]
00000000: 9e52 963d 9352 96bd
0.07339977 -0.073399685
