exports/grape_black_rot.tflite (tflite, 485128 bytes, 16 tensors)

sequential_2/conv2d/Relu;sequential_2/conv2d/BiasAdd;sequential_2/conv2d_5/Conv2D;sequential_2/conv2d/Conv2D;sequential_2/conv2d/BiasAdd/ReadVariableOp f4 [64, 1, 1, 3]
0	0x39fbd74d	0.00048034862
1	0xb9e7ab60	-0.00044187438
2	0x3a6993b3	0.00089102535
3	0x3a83ada9	0.0010046262
4	0xba1f1969	-0.0006069155
5	0xba24882c	-0.00062763947
6	0x3995fcf9	0.00028607974
7	0x39ce4667	0.00039343836
8	0xb902d72e	-0.00012477927
9	0xba1451b7	-0.00056579284
10	0xba3ce12d	-0.00072051847
11	0xb8d769c3	-0.000102716986
12	0x39d9495b	0.0004144412
13	0x3a2d9754	0.0006621976
14	0xba666fdd	-0.00087904726
15	0xba85d337	-0.0010210042
16	0x3a3adc31	0.0007128148
17	0xba337556	-0.00068457925
18	0xb933c754	-0.00017145026
19	0xb7f66856	-2.937407e-05
20	0x3a6bbdb9	0.00089928095
21	0xb856b95a	-5.1194198e-05
22	0x39977ad9	0.00028892493
23	0x3a2b2669	0.0006528856
24	0x39c181c8	0.00036908523
25	0xb97f3c76	-0.00024341219
26	0x39229226	0.00015503968
27	0x3a088233	0.00052073895
28	0xba31ec79	-0.00067872513
29	0x3a7f6ffc	0.0009744165
30	0xb99f93eb	-0.0003043705
31	0xba89498c	-0.0010474189
32	0x3968344b	0.00022144725
33	0xb98afa17	-0.00026507743
34	0xb9d59799	-0.00040739475
35	0x39e48fc3	0.0004359466
36	0xb988c5dd	-0.0002608736
37	0x3a1c3fae	0.0005960417
38	0x3a86a11a	0.0010271401
39	0x3a233a75	0.00062266673
40	0xba2ef1bb	-0.0006673594
41	0x38c407ff	9.347498e-05
42	0xb9bd037e	-0.0003605149
43	0xba801d0a	-0.0009774279
44	0xba2b9152	-0.0006544787
45	0xba2ed79e	-0.00066697027
46	0x3988fdc1	0.00026129003
47	0xba0bd4f5	-0.0005334162
48	0xba0ae5e8	-0.0005298541
49	0x38e5f936	0.0001096599
50	0x3a749511	0.0009330074
51	0xb955c356	-0.00020386031
52	0x39b3ed0f	0.00034318163
53	0x39a5e8f5	0.0003164482
54	0x3a3830ff	0.0007026344
55	0xb9fd016c	-0.0004825698
56	0x3a17afa4	0.00057863654
57	0xb9af68bd	-0.00033456637
58	0xba5275fd	-0.0008028446
59	0x39db4a76	0.00041826413
60	0xba8082b0	-0.0009804573
61	0xb8b34bce	-8.549505e-05
62	0xba7c032e	-0.0009613511
63	0xba2fa93a	-0.0006700937
64	0x3a495d22	0.00076814194
65	0x3a660411	0.00087744097
66	0xba84c720	-0.0010130145
67	0xba86bf12	-0.0010280332
68	0xba1abb54	-0.0005902548
69	0xb99c0d58	-0.0002976458
70	0xba273a9b	-0.00063792773
71	0xb9309af4	-0.00016842393
72	0x39f04051	0.00045824287
73	0xba0da298	-0.00054029515
74	0xba5eeea3	-0.00085041876
75	0xba4138d4	-0.0007370834
76	0xba6a738e	-0.00089436106
77	0xba3b802c	-0.0007152583
78	0x394fde75	0.0001982393
79	0x3a29c566	0.0006476253
80	0xba878a42	-0.0010340887
81	0xb9d37738	-0.0004033388
82	0xb9db111e	-0.00041783688
83	0xb9de0295	-0.00042345063
84	0xba51f78d	-0.0008009605
85	0xba6f2603	-0.00091227907
86	0xba782961	-0.0009466615
87	0xba16e19c	-0.00057556643
88	0x3a7f22d4	0.0009732668
89	0xb98e28d0	-0.00027114758
90	0x38f9af3b	0.000119058845
91	0x3a3d4e45	0.0007221441
92	0xba79831f	-0.0009518135
93	0x3a8f4586	0.0010930754
94	0xba061f8c	-0.0005116395
95	0x3a1f7748	0.0006083143
96	0x3a522147	0.0008015823
97	0xba178853	-0.0005780507
98	0xb9ce0408	-0.00039294385
99	0xba4fc898	-0.0007926314
100	0x3a020eef	0.0004961332
101	0x3a379d51	0.0007004338
102	0xba7b17b0	-0.000957842
103	0x39c02a8f	0.00036652802
104	0xb9204501	-0.00015284495
105	0xba274cb8	-0.00063819764
106	0x380e4f1d	3.392912e-05
107	0x3a8ff98b	0.0010984404
108	0x3a6cf11b	0.0009038613
109	0xba97798a	-0.0011556607
110	0x3a79d5f5	0.0009530478
111	0xb99705ba	-0.0002880523
112	0xba662654	-0.0008779515
113	0xba859b1a	-0.0010193319
114	0x36c0e4e6	5.748693e-06
115	0xb8880287	-6.485456e-05
116	0xba4f7532	-0.0007913887
117	0x379f6e3f	1.9005614e-05
118	0x3a539e91	0.00080726395
119	0xbaa69cb2	-0.0012711494
120	0xba20c5fb	-0.0006133017
121	0x38f23173	0.0001154867
122	0xba514ba9	-0.00079839915
123	0x3a197e31	0.0005855291
124	0xb9abf807	-0.00032800456
125	0xba4ae5f4	-0.0007739954
126	0x3a2e06c8	0.0006638584
127	0x3a41d67d	0.0007394327
128	0xba4e262a	-0.0007863963
129	0x3a46f42f	0.0007589487
130	0xba420077	-0.0007400582
131	0x3a79fc54	0.0009536196
132	0x3a3ca614	0.00071963784
133	0x39939326	0.0002814766
134	0x3a5fcedd	0.00085376
135	0x3a5289d0	0.00080314
136	0xba1ba16b	-0.0005936834
137	0xb98b27bc	-0.0002654175
138	0x3a853cde	0.0010165235
139	0xba3445b6	-0.0006876843
140	0xba2c1962	-0.00065650616
141	0xba43671c	-0.0007454024
142	0xb9d49f10	-0.00040554302
143	0xba8b2dad	-0.0010618471
144	0x3a48afcf	0.0007655592
145	0x3a67abc2	0.00088375446
146	0xba547778	-0.00081049604
147	0xba0db3a8	-0.0005405494
148	0x394762f6	0.00019014985
149	0xba2b8000	-0.0006542206
150	0x3a0d2663	0.0005384443
151	0x3a510707	0.00079737644
152	0x39cac975	0.0003867854
153	0xba2083e8	-0.0006123171
154	0xb9566f90	-0.0002045019
155	0xb9b7cf08	-0.0003505873
156	0x39eaa15d	0.00044752183
157	0xba3765dc	-0.0006996074
158	0x3a2f8a12	0.00066962943
159	0xba22d661	-0.00062117545
160	0x39c5d307	0.00037731996
161	0xb9faf590	-0.00047866674
162	0x393154a2	0.00016911564
163	0x3a54b7c1	0.00081145397
164	0x39f8ce28	0.00047455844
165	0x3a561201	0.0008166135
166	0xb9bbf92d	-0.0003585307
167	0xba46dd52	-0.000758608
168	0xba3b7f77	-0.00071524776
169	0x3a66b490	0.00088007096
170	0x3a3c22c8	0.00071768137
171	0x3a6fa335	0.0009141446
172	0xb8c0465c	-9.168379e-05
173	0xba2d2861	-0.0006605443
174	0xb9fbd90f	-0.00048036172
175	0xb776bd49	-1.4706814e-05
176	0x3a8edf30	0.0010900255
177	0xb93ef344	-0.00018210436
178	0xb9465dbf	-0.00018917675
179	0xb99d2d92	-0.00029979326
180	0xba8f38c1	-0.0010926948
181	0xb9f21b5a	-0.00046178215
182	0x3a4a6489	0.00077206694
183	0xb9b7b61e	-0.00035040168
184	0xba42cccb	-0.0007431029
185	0x3a1c1aea	0.0005954938
186	0xba2bdd76	-0.00065561326
187	0xba98d61b	-0.0011660488
188	0xba707734	-0.0009173036
189	0x3a56e5ff	0.0008197724
190	0xba9a12d5	-0.001175488
191	0x3a852281	0.0010157378

sequential_2/conv2d/BiasAdd/ReadVariableOp f4 [64]
0	0xbd41f751	-0.047355
1	0x3d1840de	0.037171237
2	0xbd33ce0e	-0.04389768
3	0x3d26c9d1	0.04071981
4	0xbb99f770	-0.0046986863
5	0x3cacc9f4	0.021092393
6	0xbd3158af	-0.043297466
7	0xba9f2d5f	-0.0012144259
8	0xbc350a2e	-0.01104979
9	0xbb93d0ea	-0.0045109885
10	0xbca0abbe	-0.019613143
11	0xbc9c440f	-0.019075422
12	0xbc6ab4fc	-0.014325377
13	0x3cb50630	0.022097677
14	0xbbbd7300	-0.0057815313
15	0x3cc894a8	0.024484947
16	0xbcb192ed	-0.021676505
17	0xbd0c19a3	-0.034204137
18	0xbc0d08ed	-0.008608085
19	0xbc60e8cb	-0.013727377
20	0xbb67253f	-0.0035270003
21	0xbc9d1c80	-0.019178629
22	0xbbbdc68c	-0.005791491
23	0xbbae6c36	-0.0053229583
24	0xbbc327d6	-0.0059556765
25	0xbbc099b3	-0.0058776974
26	0xbbfeb7ee	-0.007773391
27	0xbbbf50d0	-0.005838491
28	0xbbbe3550	-0.005804695
29	0x3c62fb11	0.013853804
30	0xbc2d36ee	-0.010572178
31	0xbd266715	-0.04062565
32	0x3cdb6ba1	0.02678472
33	0xbc5c466e	-0.013444526
34	0x3d0dcaec	0.03461735
35	0xbcd936ee	-0.02651545
36	0x3a478efb	0.00076125533
37	0xbbac8926	-0.005265373
38	0xbbc192f2	-0.00590741
39	0xbc915bc6	-0.017743956
40	0xbc88f641	-0.016718986
41	0xbc0f0427	-0.008729017
42	0xbcb4a6e8	-0.022052243
43	0xbcabcdfd	-0.020972246
44	0xbd0a81ea	-0.033815302
45	0x3ae4cacc	0.0017455458
46	0x3d23efe3	0.040023696
47	0xbba97997	-0.0051719653
48	0xbcde8b79	-0.027166115
49	0x3d0382ac	0.03210704
50	0xbd30ce13	-0.043165278
51	0xbbc08697	-0.0058754194
52	0x3a8a8461	0.0010568016
53	0x3c861b30	0.016370386
54	0xbd040c8e	-0.032238536
55	0x3d0923ae	0.033481292
56	0xbc7e701c	-0.015529659
57	0xbc2b208d	-0.010444772
58	0xbd20da82	-0.039270885
59	0xbbbeaa59	-0.005818647
60	0xbd18a375	-0.03726526
61	0xbc80e79a	-0.015735436
62	0xbbba4629	-0.0056846333
63	0x3b391062	0.0028238525

sequential_2/conv2d_1/BiasAdd/ReadVariableOp f4 [64]
0	0x3bb8150e	0.0056177443
1	0x3cd29acd	0.02570858
2	0xbccb172f	-0.024791328
3	0xbc9ec1e0	-0.019379556
4	0xbc01fcc3	-0.007933798
5	0xbcb6ccc5	-0.022314439
6	0xbc295833	-0.01033597
7	0x3c92054b	0.01782479
8	0xbc8f1020	-0.017463744
9	0xbbe93367	-0.0071167233
10	0xbc65076c	-0.01397882
11	0x3c505c4b	0.012717317
12	0xbc45a072	-0.012062179
13	0xbc58f586	-0.013242131
14	0xbbcce926	-0.0062533794
15	0x3c843993	0.016140735
16	0x3bc9d5b9	0.006159511
17	0x3c4dae82	0.012553813
18	0xbc4249b0	-0.011858389
19	0xbbf5fd35	-0.0075069913
20	0x3a544285	0.00080970704
21	0x3c945334	0.01810608
22	0x3cbabd4d	0.022795344
23	0xbc2b8503	-0.010468724
24	0xbcc03ede	-0.023467477
25	0x3c4c7b47	0.0124805635
26	0xbb6e9eea	-0.0036410638
27	0xbaf70521	-0.0018846133
28	0x3c7ed40f	0.015553488
29	0x3cc792dc	0.02436202
30	0xb89d7366	-7.507838e-05
31	0x3c337ea6	0.010955488
32	0x3c93f19d	0.018059546
33	0x3b7d0a16	0.0038610748
34	0x3cbb61df	0.022873817
35	0xbc49b593	-0.012311357
36	0xbcacfc2e	-0.021116342
37	0xbc4dba68	-0.01255665
38	0x3c39e192	0.011345284
39	0xbc49b81b	-0.012311961
40	0x3c8b6b41	0.017018916
41	0xbc923819	-0.017849015
42	0xbbe89009	-0.0070972485
43	0x3c832fc0	0.01601398
44	0xbc980f15	-0.01856188
45	0xbc24f87a	-0.010069007
46	0x3bed8590	0.007248588
47	0x3b2e8f46	0.002663569
48	0xbb89496b	-0.0041896603
49	0x3cb5cfa7	0.022193743
50	0xbc2a2653	-0.010385114
51	0x3c6e7d2d	0.014556211
52	0xbc619d28	-0.013770379
53	0xbcb7cf0c	-0.022437595
54	0x3d46b82a	0.048515476
55	0x3bcd37b5	0.0062627443
56	0x3c9fc897	0.019504828
57	0x3c318ecf	0.010837271
58	0xba836576	-0.0010024745
59	0x3c8758d8	0.016521856
60	0xbca555d8	-0.020182535
61	0x3c7efcd6	0.0155632105
62	0xbc54fc17	-0.012999556
63	0xbc64b86f	-0.013959988

sequential_2/conv2d_2/BiasAdd/ReadVariableOp f4 [64]
0	0xbb997a10	-0.0046837404
1	0xbafca5ea	-0.001927552
2	0xbc281328	-0.010258473
3	0xbc2b70ce	-0.010463906
4	0xbcbebd40	-0.0232836
5	0x3c10eba3	0.008845243
6	0xbc205894	-0.009786744
7	0xbc2f987a	-0.010717506
8	0x3c8f4175	0.017487267
9	0xbc33f7da	-0.010984385
10	0xbc0c0fa5	-0.008548652
11	0x39a6845e	0.00031760609
12	0x3ca57012	0.02019504
13	0xbc079b72	-0.008276807
14	0xbbe472a1	-0.0069716726
15	0x3bd6cb34	0.0065549854
16	0x3c185229	0.009296932
17	0x3cad354b	0.021143576
18	0x3c11dc16	0.00890257
19	0x3c46a5e8	0.012124516
20	0xbc1acd42	-0.009448351
21	0x3ac323e9	0.0014888021
22	0x3b3b6cd5	0.0028598804
23	0xbc2b7ded	-0.010467035
24	0xbc03b7ac	-0.008039396
25	0x3c729b9a	0.014807606
26	0x3c3b93d2	0.011448817
27	0xbca99955	-0.020702997
28	0xbcfc51ed	-0.030800784
29	0xbc28ec64	-0.010310266
30	0xbc3e95a1	-0.011632354
31	0xbd2e7422	-0.04259122
32	0xbc0e3e5d	-0.008681861
33	0x3c73f4d3	0.014889914
34	0x3cab8c38	0.020940885
35	0x3c0eb00e	0.008708967
36	0xbca79f29	-0.020461636
37	0x3c3ada93	0.011404651
38	0x3cfa5bb7	0.030561311
39	0xbc905990	-0.017620832
40	0xbc6198dd	-0.013769356
41	0xbc15813b	-0.009125049
42	0x3a167904	0.00057400786
43	0xbc455193	-0.012043375
44	0xbc045944	-0.008077923
45	0x3c8d76b5	0.017268518
46	0x3b86e602	0.0041167745
47	0x3c27e7d5	0.010248144
48	0x3c3f88e6	0.011690354
49	0x3c232069	0.009956458
50	0xbc3f23b9	-0.011666232
51	0x3adcee60	0.0016855709
52	0xbc3e9491	-0.011632101
53	0xbc0fdadb	-0.008780207
54	0xbbb372d9	-0.0054763374
55	0xbc1131f9	-0.008862012
56	0xbc4db275	-0.0125547545
57	0xbc181641	-0.0092826495
58	0xbb5826b2	-0.0032982049
59	0x3c83d2c5	0.016091714
60	0xbc37acc3	-0.011210623
61	0x3bae3a18	0.005316984
62	0x3c9fbc84	0.019499071
63	0xbbe7ce41	-0.007074148

sequential_2/conv2d_3/BiasAdd/ReadVariableOp f4 [64]
0	0x3c8d7232	0.017266367
1	0xbc06d910	-0.008230463
2	0x3c8fb8a5	0.0175441
3	0x3bb7d000	0.0056095123
4	0xbc0864ac	-0.008324783
5	0x3c88803b	0.016662708
6	0xbc0d58f0	-0.008627161
7	0x3cebf9e7	0.028805686
8	0x00000000	0.0
9	0xbcc11e21	-0.023573937
10	0x3c8edda8	0.017439678
11	0xbc61e7ff	-0.013788222
12	0x3b8f51a8	0.004373748
13	0xbbfa96f7	-0.007647391
14	0x3c20f20c	0.0098233335
15	0xbbc3eef1	-0.005979412
16	0xbc55069c	-0.013002064
17	0xbca6a161	-0.020340623
18	0xbc6bc2c8	-0.014389701
19	0x3c012ecf	0.007884695
20	0xbc3b4ef5	-0.011432399
21	0x3c04cad6	0.0081050005
22	0x3c8934ac	0.016748749
23	0xbafba0ef	-0.0019197742
24	0xbb96c55e	-0.0046011647
25	0xbbf99e29	-0.007617731
26	0xbbc6fa46	-0.0060723154
27	0xbc1ee58f	-0.009698286
28	0xbc155ea1	-0.0091168
29	0xbc9902cb	-0.01867809
30	0x3c18b93a	0.009321505
31	0xbc31f73e	-0.01086217
32	0x3d6752e2	0.056475528
33	0x3c65d3d6	0.014027556
34	0xba65d07a	-0.0008766722
35	0xbc2596bc	-0.010106739
36	0xbce81eaa	-0.028334934
37	0xbc97e8b5	-0.01854358
38	0x3c967419	0.018365907
39	0xbc292a0d	-0.010324967
40	0x3b697834	0.0035624625
41	0xbc19d595	-0.009389301
42	0xbc88bd80	-0.016691923
43	0xbbf93660	-0.007605359
44	0xbd1a6105	-0.03769018
45	0x3bddfb7d	0.0067743645
46	0xbb840ea6	-0.0040300665
47	0xbc4b670b	-0.012414704
48	0xbc25921f	-0.010105639
49	0x3c962bdb	0.018331459
50	0xbc8af92c	-0.016964518
51	0xbc1d75e2	-0.009610625
52	0xbc12adc9	-0.008952566
53	0xbca119c4	-0.019665606
54	0xbc025642	-0.007955136
55	0x3d07dede	0.033171527
56	0x3c45cdc3	0.012072983
57	0xbcaa113d	-0.020760173
58	0x3c832501	0.016008856
59	0xbbe9574a	-0.0071210014
60	0x3b4fcf4a	0.0031709247
61	0xbbd4d1d6	-0.006494741
62	0x3c50ac93	0.012736457
63	0x3c5e9e24	0.013587508

sequential_2/conv2d_4/BiasAdd/ReadVariableOp f4 [64]
0	0x3ada89a2	0.0016673098
1	0xbbf3d6c5	-0.007441374
2	0x3b3308f8	0.0027318578
3	0xbc2c5a0b	-0.010519515
4	0x3b836042	0.0040092776
5	0x3bd24919	0.0064174053
6	0xbc5e77b5	-0.013578345
7	0xbccbbbff	-0.024869917
8	0xbc44de2f	-0.012015863
9	0xbbdb892a	-0.006699701
10	0xbce4a507	-0.027910722
11	0xbc84862d	-0.016177261
12	0xbc295821	-0.010335953
13	0xbbf7e174	-0.007564718
14	0x3bbdb71d	0.005789651
15	0x3ce3fa45	0.027829299
16	0x3d41bf19	0.047301386
17	0xbc4dde1c	-0.012565162
18	0xbcbbe283	-0.022935158
19	0xbc881c0c	-0.016614936
20	0xbc9f108e	-0.019417074
21	0x3c4348c0	0.0119192
22	0xbb59d0b2	-0.0033235964
23	0xbbf56c50	-0.0074897185
24	0x3d0f28c7	0.034950998
25	0xbcb42840	-0.021991849
26	0xbba41e1d	-0.0050084726
27	0xbc1b3ed7	-0.009475431
28	0xbc65cd24	-0.01402596
29	0x3cf55eb4	0.029952385
30	0x3c629aa9	0.013830819
31	0xbb84686e	-0.0040407693
32	0xbbf22b00	-0.00739038
33	0xbcc92c58	-0.024557278
34	0xbc364e34	-0.0111270435
35	0x393a5c64	0.0001777276
36	0x3c873d92	0.016508851
37	0xbbba914c	-0.0056935903
38	0xbc938698	-0.018008515
39	0xbcceff75	-0.025268296
40	0xbc9f8f17	-0.01947741
41	0x3b8f1a09	0.0043671173
42	0xbce74ead	-0.028235758
43	0xbc0d7a01	-0.008635045
44	0xbc1d7ae1	-0.009611816
45	0x3ca6fda3	0.020384615
46	0xbc5c8636	-0.013459733
47	0xbbc4eefd	-0.006009935
48	0xbb2edc3c	-0.0026681563
49	0x3bcb2c73	0.006200367
50	0xba626602	-0.0008636416
51	0xbc388063	-0.0112610785
52	0x3cf84b13	0.030309236
53	0x3bce48bc	0.0062952917
54	0x3dc740ae	0.097291335
55	0xbcd3f1e0	-0.02587217
56	0x39fb02a6	0.00047876424
57	0xbc41f542	-0.011838259
58	0xbc91b894	-0.017788209
59	0xbc516131	-0.01277952
60	0xbc89292f	-0.01674327
61	0xbc9bf234	-0.01903639
62	0x3d33f605	0.043935794
63	0xbbe542f5	-0.0069965073

sequential_2/conv2d_5/BiasAdd/ReadVariableOp f4 [64]
0	0xba82b1d5	-0.0009971211
1	0xbc9c26b2	-0.01906142
2	0xbb774a3d	-0.0037733458
3	0xbd06e365	-0.032931704
4	0x3c867403	0.01641274
5	0xbc09fe42	-0.008422436
6	0xbbdbd69d	-0.0067089335
7	0x3c248a15	0.010042687
8	0x3d2f312e	0.04277151
9	0xbc7a6d67	-0.015284873
10	0xbc9da163	-0.019241994
11	0xbc1bdaae	-0.0095125865
12	0xbba85617	-0.005137216
13	0x3c3dd22f	0.011585756
14	0x3db5a082	0.08868505
15	0xbce6491e	-0.028111037
16	0x3cd1aceb	0.025595149
17	0xbbb8f84c	-0.0056448337
18	0xbb3bb3eb	-0.0028641175
19	0xba18de8d	-0.00058315025
20	0x3c2ecb0f	0.01066853
21	0xbc09941d	-0.008397129
22	0x3cb92cf5	0.022604445
23	0xbb6f4a0d	-0.0036512644
24	0x00000000	0.0
25	0x3c86f2e4	0.016473241
26	0x3bce6a21	0.0062992726
27	0x3c8f09f2	0.017460797
28	0x3dd0f33a	0.10202642
29	0xbc839930	-0.016064256
30	0x3d3462eb	0.044039648
31	0xbc4b8bf6	-0.012423506
32	0xbc4a78ad	-0.012357873
33	0x3cd8733d	0.026422137
34	0xbc9b62aa	-0.018967945
35	0x3d0e9093	0.034805845
36	0xbabfbe79	-0.0014628909
37	0x3cb97888	0.022640482
38	0xbc9a34e6	-0.018824052
39	0xbc9051ed	-0.01761719
40	0xbc16babc	-0.009199794
41	0x3de09a82	0.1096697
42	0xbaf79a3c	-0.001889057
43	0xbbd776f2	-0.0065754587
44	0xbca2892f	-0.019840805
45	0x3cf55097	0.029945655
46	0x3d888747	0.06666427
47	0xbc6b3a5e	-0.014357178
48	0x3a95bfba	0.0011424937
49	0xbc1b1683	-0.009465816
50	0x3cd3246c	0.025774203
51	0x3bab8211	0.005234011
52	0xbce032f4	-0.027368046
53	0x3ae48a2a	0.0017436196
54	0xb8be11ac	-9.063198e-05
55	0xbc2a054d	-0.01037724
56	0x3d983fd6	0.07434051
57	0xbc3b4470	-0.011429891
58	0xbc7da0b9	-0.015480214
59	0xbc101b2c	-0.008795541
60	0x3d34059a	0.043950655
61	0xbc1223d0	-0.008919671
62	0xbb9cf727	-0.004790205
63	0xbb938e69	-0.0045030606

sequential_2/conv2d_1/Conv2D f4 [64, 2, 2, 64]
0	0x3c8519d5	0.01624767
1	0x3dc8ea6d	0.09810338
2	0xbdadee63	-0.08492734
3	0x3d7dbf52	0.061950035
4	0x3d35ded6	0.044401966
5	0xbd8a0ecb	-0.06741103
6	0xbdf3644a	-0.11884363
7	0x3da282e3	0.07935121
8	0x3dac9099	0.08426017
9	0xbb05affa	-0.002039908
10	0xbc4dce9f	-0.012561469
11	0x3d141308	0.036150962
12	0xbdd843cf	-0.105598085
13	0x3e045e0e	0.12926504
14	0xbd3e42c9	-0.04645041
15	0x3d766f91	0.06016499
16	0xbc50bd8e	-0.012740506
17	0xbdbd4083	-0.0924082
18	0x3d03406f	0.03204387
19	0xbdc9261f	-0.09821724
20	0x3c0d9cae	0.008643312
21	0xbd8c3e68	-0.068478405
22	0x3cdfd53c	0.027323358
23	0x3d309afe	0.043116562
24	0xbd6f29ee	-0.058389597
25	0x3d7e9c36	0.062160693
26	0xbc9250c7	-0.017860783
27	0x3c288ba8	0.010287203
28	0x3d5d4ea6	0.054030083
29	0x3c50aba8	0.012736239
30	0xbcad3bf4	-0.021146752
31	0xbd35cb7a	-0.044383503
32	0x3dd53e0b	0.104122244
33	0x3bf64783	0.007515849
34	0x3dbe599c	0.092944354
35	0xb93f7379	-0.00018258196
36	0x3d9dfbf3	0.07714071
37	0x3d483fa6	0.048888825
38	0x3d47ef28	0.04881206
39	0xbd31d9eb	-0.043420713
40	0xbdd1312a	-0.102144554
41	0xbe26c8e6	-0.16287574
42	0x3caff78e	0.021480348
43	0xbcc5dbde	-0.024152692
44	0x3c083bc3	0.00831503
45	0x3dfd0229	0.12353928
46	0x3d626c78	0.055279225
47	0x3dc73d25	0.09728459
48	0x3d2555c9	0.040365014
49	0xbd6c8a39	-0.057749007
50	0xbddab972	-0.10679902
51	0xbd8bd60a	-0.06827934
52	0x3c4a7b73	0.012358534
53	0x3d9a683e	0.07539414
54	0x3ce0e9c3	0.027455216
55	0x3e098c0d	0.13432331
56	0x3d22bbfa	0.03973005
57	0x3cd16c82	0.025564436
58	0xbd54cb83	-0.051951896
59	0xbd336c94	-0.04380472
60	0xbccec7a1	-0.025241675
61	0x3d8e4170	0.06946075
62	0x3d06372e	0.032767467
63	0x3e172ffb	0.14764397
64	0xbd3fc52b	-0.046818893
65	0x3dd78564	0.10523489
66	0x3d2eebf1	0.04270548
67	0xbc7664d5	-0.015038689
68	0x3d6681f7	0.056276288
69	0x3d6499f7	0.055810895
70	0xbbc99eb2	-0.006152951
71	0xbc9d2724	-0.019183703
72	0x3c9825a1	0.01857263
73	0x3db2abbf	0.08724164
74	0xbdc17c36	-0.094475195
75	0x3dc1dba8	0.09465724
76	0xbdd822b5	-0.10553495
77	0xbc38496b	-0.011247973
78	0xbd0ea3e2	-0.03482426
79	0xbd9f020d	-0.07764063
80	0x3ce0e61c	0.027453475
81	0xbda16ad0	-0.07881701
82	0xbdae469c	-0.085095614
83	0x3b6acff8	0.0035829525
84	0x3d456615	0.048193056
85	0x3ce29984	0.027661093
86	0x3ce21a6c	0.02760049
87	0xbc263898	-0.010145329
88	0x3d93a35f	0.07208895
89	0x3c31b4bf	0.010846316
90	0xbdd97f96	-0.10620038
91	0xbc42caf3	-0.011889207
92	0xbdc6a1fe	-0.09698866
93	0xbde1359a	-0.10996552
94	0x3b49dcbd	0.0030801736
95	0xbd881bfe	-0.06645964
96	0x3db18616	0.08668153
97	0xbdbe4a47	-0.09291511
98	0x3d1ae3f2	0.03781504
99	0xbd96559a	-0.07340546
100	0x3cb30392	0.021852288
101	0xbd1644aa	-0.036686577
102	0x38adaad7	8.281104e-05
103	0x3dab9db1	0.083796866
104	0x3d2bba0d	0.04192548
105	0xbd88e888	-0.06684977
106	0xbdbf4e30	-0.09341085
107	0x3c972519	0.018450307
108	0x3dbffb17	0.093740635
109	0x3d71356f	0.05888885
110	0x3d835754	0.06413141
111	0xbdc289dc	-0.09498951
112	0xbd4f4191	-0.05059964
113	0xbd572c52	-0.0525325
114	0x3ce5c455	0.02804772
115	0x3dda4615	0.10657898
116	0x3d9cfc8a	0.076653555
117	0xbdb4b8a8	-0.08824283
118	0xbd60788d	-0.054802466
119	0xbd05ad5f	-0.032636043
120	0xbdb8ed1a	-0.090295985
121	0x3dc72857	0.09724491
122	0x3d8bf0d7	0.06833046
123	0x3d9a9ff7	0.07550042
124	0x3d86c519	0.06580562
125	0xbd04ffd3	-0.032470535
126	0xbd858af6	-0.06520645
127	0x3e2159a5	0.15756853
128	0x3d4636d5	0.048392136
129	0x3e0f4227	0.13990079
130	0x3db8b4d5	0.09018866
131	0xbdcdd1b7	-0.100497656
132	0xbd9d9d2d	-0.076959945
133	0x3db14e9b	0.08657571
134	0x3d978b3e	0.07399605
135	0x3d48a274	0.048983052
136	0xbd38c105	-0.045105953
137	0xbd956806	-0.072952315
138	0x3d2e90ef	0.04261869
139	0xbd48250f	-0.048863467
140	0xbda2e270	-0.07953346
141	0x3ce1affe	0.02754974
142	0xbdb1d112	-0.08682455
143	0xbdc1ea9d	-0.09468577
144	0x3d0eb7b3	0.034843158
145	0xbc161829	-0.009161034
146	0x3c403918	0.011732362
147	0x3c2d7946	0.010587996
148	0x3caa6df3	0.020804381
149	0x3aab9e87	0.001309351
150	0x3d1d1eb8	0.038359374
151	0xbc93fd94	-0.018065251
152	0xbda5435a	-0.08069487
153	0x3dc8e727	0.09809714
154	0xbdb54d40	-0.08852625
155	0x3d17c1e6	0.03705015
156	0xbbaed121	-0.0053349887
157	0x3d37494d	0.04474764
158	0xbd7ad21c	-0.061235532
159	0x3cb6cd9b	0.022314837
160	0x3e066487	0.13124286
161	0xbd43181a	-0.047630407
162	0x3dc66572	0.09687318
163	0x3d1fc112	0.039002486
164	0x3cb844e0	0.02249378
165	0xbc85dad1	-0.016339691
166	0xbd9674f4	-0.07346526
167	0xbd844503	-0.064584754
168	0x3d2ac407	0.041690852
169	0xbbcc3b7d	-0.0062326775
170	0x3d2b144f	0.041767415
171	0x3dd2358d	0.1026412
172	0x3d9eb3f7	0.07749169
173	0xbc46306b	-0.012096505
174	0x3e093794	0.13400108
175	0x3ccc49dc	0.024937563
176	0xbd736f67	-0.059432413
177	0xbca1705a	-0.019706894
178	0xbca4fe18	-0.020140693
179	0xbc88150f	-0.016611604
180	0x3d6e097b	0.05811451
181	0xbdaf9907	-0.085741095
182	0x3dbaaaea	0.091146305
183	0x3dce79a1	0.100817926
184	0x3d4c6196	0.049897753
185	0x38f71364	0.000117814896
186	0xbd936694	-0.071972996
187	0x3d945f9d	0.07244799
188	0x3d0c52bb	0.034258585
189	0xbda06470	-0.07831657
190	0x3d1d543e	0.038410418
191	0x3df9e2b6	0.12201445
192	0x3c80ada2	0.015707795
193	0xbcc78ffd	-0.024360651
194	0xbd3974c5	-0.045277376
195	0x3d86b755	0.065779366
196	0x3cbb5cd4	0.022871412
197	0xbd3d0d67	-0.04615536
198	0x3c1fb61e	0.00974801
199	0x3cc8c119	0.024506139
200	0x3cecadf4	0.028891541
201	0xbdb264f5	-0.08710662
202	0xbd455cfd	-0.048184384
203	0x3d675f75	0.05648752
204	0x3d1638c1	0.03667522
205	0x3e16950d	0.14705296
206	0x3dafaa7f	0.085774414
207	0x3d303ac4	0.043024793
208	0xbe18f7fc	-0.14938349
209	0x3d30e36f	0.043185648
210	0x3d933db0	0.071895
211	0xbddecb8f	-0.108786695
212	0x3d61e925	0.055153985
213	0xbdd130a1	-0.10214353
214	0x3becbcfa	0.007224676
215	0xbda19d59	-0.0789134
216	0xbd8c23df	-0.06842779
217	0xbd56d653	-0.05245049
218	0xbc627177	-0.013820997
219	0xbd40e1ca	-0.04709033
220	0xbc35afce	-0.011089278
221	0x3d3374c9	0.043812547
222	0xbdf16310	-0.11786473
223	0x3d707af5	0.05871101
224	0x3db6cdab	0.08925947
225	0x3cc72eb2	0.024314258
226	0x3ce1c503	0.027559763
227	0xbe02e96e	-0.12784359
228	0x3e10158f	0.14070724
229	0xbb9974d4	-0.0046831165
230	0xbdbfb8f4	-0.09361449
231	0x3bbf9cd6	0.0058475537
232	0x3da22667	0.07917481
233	0xbd004421	-0.031314973
234	0xbd36b628	-0.04460731
235	0xbc844a18	-0.016148612
236	0xbcfe8d11	-0.031073125
237	0x3d86a67a	0.06574722
238	0x3cae96c5	0.021312127
239	0x3bdf276a	0.0068101184
240	0xbd75f8d5	-0.060051758
241	0x3d087b87	0.03332093
242	0xbdc896f5	-0.09794418
243	0x3c056bd1	0.008143381
244	0xbd97a0b3	-0.07403698
245	0xbd8e1a6e	-0.06938635
246	0x3dba7879	0.091050096
247	0x3c7af844	0.01531798
248	0xbd2132cf	-0.039355095
249	0x3bcb3d7c	0.006202398
250	0x3da24fff	0.07925414
251	0x3d38e882	0.04514361
252	0x3c5f1bf7	0.013617507
253	0x3db29e01	0.08721543
254	0x3dac76a7	0.08421069
255	0xbb893517	-0.004187237

sequential_2/conv2d_2/Conv2D f4 [64, 3, 3, 64]
0	0xbcadbc28	-0.021207884
1	0x3beba8c6	0.00719175
2	0x3d690b0c	0.0568953
3	0xbd2d44dd	-0.042302
4	0x3cecca92	0.028905187
5	0x3cb68305	0.022279272
6	0x3d0ecbd3	0.03486235
7	0x3cb4f7aa	0.022090752
8	0x3a3d6756	0.0007225176
9	0x3c24c1e6	0.010055995
10	0xbcd53d10	-0.026030093
11	0x3d792fe3	0.060836684
12	0x3d83916c	0.064242214
13	0xbd73227c	-0.05935906
14	0xbacce2d4	-0.0015631565
15	0x3d755bd0	0.059902012
16	0xbcd51ce2	-0.026014749
17	0x3c541cdf	0.0129463365
18	0xbc8e189b	-0.017345717
19	0x3d64b236	0.055834018
20	0x3cab8c5c	0.020940952
21	0x3ca4a73d	0.020099277
22	0x3c1444ee	0.009049637
23	0xbd0a2a36	-0.03373166
24	0xbc4dc852	-0.012559967
25	0x3c87e9dc	0.016591005
26	0x3d2767bc	0.040870413
27	0x3ceb8463	0.02874965
28	0xbb74cc44	-0.0037353197
29	0xbd8689e4	-0.06569269
30	0x3bf2cfce	0.007410026
31	0xbcfcc49a	-0.030855466
32	0xbb39bbf9	-0.00283408
33	0x3b235996	0.0024925224
34	0xbd65cccc	-0.056103513
35	0xbc48aa40	-0.012247622
36	0x3ce6dba1	0.0281809
37	0x3d3b7dc4	0.045774236
38	0xbd0ebd83	-0.0348487
39	0xbd8efb66	-0.06981544
40	0xbd130851	-0.035896603
41	0xbd2bfd39	-0.04198954
42	0x3d46a07c	0.048492894
43	0xbd3d7e37	-0.046262946
44	0xbccdbe0d	-0.025115037
45	0xbd734a5a	-0.05939708
46	0xbcefcdda	-0.029272962
47	0x3d0bbae9	0.0341138
48	0xbd09ff8a	-0.033690967
49	0xbd8ca67d	-0.068676926
50	0x3c8f80da	0.017517496
51	0x3cab4cf7	0.020910723
52	0xbd718046	-0.05896022
53	0xbd8bbf7b	-0.068236314
54	0x3c956170	0.018234938
55	0x3bf2a0d7	0.0074044275
56	0xbd8607a1	-0.06544424
57	0x3c887561	0.016657533
58	0xbcbe4ad5	-0.023229042
59	0x3c438baf	0.011935159
60	0xbc421ae1	-0.011847229
61	0x3baff0ad	0.005369267
62	0x3c0ef042	0.008724274
63	0x3b2fd9b4	0.0026832642
64	0x3d8608d1	0.0654465
65	0xbd1365a1	-0.035985593
66	0xbd1ad5c1	-0.037801508
67	0xbc92cab7	-0.017918928
68	0x3d85af8f	0.06527626
69	0xbd9fff42	-0.078123584
70	0x3c9d9128	0.019234255
71	0x3d1eeab1	0.038798038
72	0xbccf4906	-0.025303375
73	0x3c786752	0.015161352
74	0xbcf0a36d	-0.029374802
75	0x3bbb9986	0.0057250885
76	0xbd826cda	-0.06368418
77	0x3d39da48	0.045374185
78	0xbb3b8504	-0.002861322
79	0x3c331683	0.01093066
80	0xbcd1c955	-0.025608698
81	0xbd9774f2	-0.073953524
82	0xbd5e09af	-0.054208454
83	0x3d2903d8	0.04126343
84	0xbca88d01	-0.020575048
85	0x3d1169e9	0.035501394
86	0x3c3087e5	0.010774587
87	0xbd284df4	-0.041089967
88	0xbd3f9db7	-0.046781268
89	0x3ce8cca0	0.028417885
90	0xbcc501a7	-0.02404864
91	0xbd8bad96	-0.06820218
92	0xbd711c4f	-0.058864888
93	0xbd924fbf	-0.071441166
94	0x3d50b533	0.050954055
95	0x3d6b2f30	0.05741805
96	0x3aa1ac17	0.0012334612
97	0x3d4f1d65	0.050565142
98	0x3d6abe1c	0.05731021
99	0xbd923fb6	-0.07141058
100	0x3d010630	0.03150004
101	0x3c71d700	0.014760733
102	0xbd9d1f48	-0.07671982
103	0x3ba7ac43	0.0051169707
104	0x3ca1b4c7	0.019739522
105	0xbb6a5a8d	-0.003575954
106	0xbd8cdbaf	-0.06877839
107	0x3a44d17a	0.0007508021
108	0x3c3e9333	0.011631775
109	0xbd1e34e9	-0.038624678
110	0x3d1eebf0	0.038799226
111	0x3c88b833	0.016689396
112	0xbd84549c	-0.064614505
113	0x3c826cc8	0.015921012
114	0x3abb3a3e	0.0014284325
115	0xbd69d555	-0.057088215
116	0xbd80d9c0	-0.062915325
117	0x3d6776b7	0.0565097
118	0xbd2e4d34	-0.042554095
119	0xbd7c97e1	-0.06166828
120	0xbd03acd0	-0.03214723
121	0xbcc0626d	-0.023484433
122	0xbd57fc10	-0.05273062
123	0x3d19562f	0.037435707
124	0xbda48211	-0.08032621
125	0x3d1e8a89	0.038706336
126	0xbda3a443	-0.07990315
127	0x3d0da4e9	0.0345811
128	0x3c1f3d1f	0.009719162
129	0xbccd608c	-0.025070451
130	0x3c5ce30a	0.013481865
131	0xbc4aaec9	-0.012370774
132	0x3d77a736	0.0604622
133	0x3d6f97b1	0.058494274
134	0x3d7a811a	0.061158277
135	0xbd5b8113	-0.05358989
136	0x3cdb06a4	0.026736565
137	0xbd15bdd5	-0.03655799
138	0x3d8544ea	0.06507285
139	0x3cd44faa	0.025916893
140	0x3d00d6ab	0.031454723
141	0x3ca324eb	0.019915065
142	0xbcf9f06c	-0.03051015
143	0x3d3eebbe	0.04661154
144	0x3cd6b281	0.026208164
145	0xbd38221a	-0.044954397
146	0xbd2a61fa	-0.041597344
147	0xbb87f49c	-0.0041490328
148	0x3d0c3670	0.034231603
149	0xbcdb9eb3	-0.026809072
150	0xbd2e0ebc	-0.04249452
151	0x3badb516	0.005301128
152	0x3d683353	0.05668957
153	0xbd081fcd	-0.033233453
154	0xbd523598	-0.051320642
155	0xbd239d1c	-0.039944753
156	0x3cbf1526	0.023325514
157	0xbc897f9a	-0.016784478
158	0xbc3258c4	-0.010885421
159	0xbbf62280	-0.007511437
160	0x3ba71be0	0.0050997585
161	0x3d22d18b	0.039750617
162	0xbc33f9ff	-0.010984897
163	0xbcb2892c	-0.021793924
164	0x3d21291c	0.039345846
165	0xbd8aea86	-0.06783013
166	0x3bd95f3c	0.0066336673
167	0xbd46459e	-0.048406236
168	0x3bd3a1f1	0.006458514
169	0x3d5df46c	0.054188177
170	0x3a8a4280	0.0010548383
171	0x3c68cf60	0.014209598
172	0xbd51495d	-0.051095355
173	0xbd8a6b70	-0.06758773
174	0x3d04fe3a	0.03246901
175	0x3d2ddea7	0.042448666
176	0xbbb69c61	-0.005572841
177	0x3caa0b30	0.020757288
178	0x3d3af555	0.045644123
179	0xbd8dc341	-0.06922007
180	0xbc9efd93	-0.019408023
181	0xbd9998c1	-0.074998386
182	0xbd63c840	-0.055610895
183	0xbb863730	-0.0040959343
184	0x3d064b28	0.03278652
185	0xbd8fca5d	-0.070210196
186	0xbd9d3dde	-0.07677816
187	0x3b3cbfb7	0.0028800794
188	0x3c2425c2	0.010018768
189	0xbc38ae20	-0.011271983
190	0xbd1889c7	-0.03724077
191	0xbd4abf4c	-0.04949884
192	0x3cf14695	0.029452601
193	0x3ce9d33e	0.028543111
194	0xbd7f4c7b	-0.062328797
195	0xbc7fcd99	-0.015612983
196	0xbd3b6020	-0.04574597
197	0x3d4b2b1c	0.04960166
198	0x3d719de1	0.058988456
199	0xbc5fb696	-0.013654372
200	0x3c925769	0.017863946
201	0xbd53c7dc	-0.051704273
202	0x3d5c30c1	0.053757433
203	0x3bc90c17	0.0061354744
204	0x3ca7bd98	0.020476148
205	0x3c973539	0.018457996
206	0x3cc009c3	0.023442155
207	0x3d4013ef	0.04689401
208	0x3a2a8af8	0.00065056933
209	0xbd2f2e77	-0.04276892
210	0x3d5531a1	0.052049283
211	0xbc8ffa42	-0.017575387
212	0x3d73dc7e	0.05953645
213	0xbd92d776	-0.07170002
214	0xbcac75f9	-0.021052347
215	0xbd38c850	-0.045112908
216	0xbd73ead5	-0.059550125
217	0xbd542ada	-0.05179868
218	0x3d110338	0.03540346
219	0x3c139137	0.00900679
220	0xbd531944	-0.051537767
221	0xbd4446a7	-0.04791894
222	0xbd0b999b	-0.034082036
223	0xbbd44c80	-0.006478846
224	0x3cabd4cf	0.020975498
225	0xbc46823d	-0.012116012
226	0xbcbc10b2	-0.02295718
227	0x3d3484d8	0.044072002
228	0x3cadb405	0.021204004
229	0xbc8f2f52	-0.017478619
230	0x3d5ccd06	0.053906463
231	0xbcf791f0	-0.030220956
232	0x3c223bc1	0.009901942
233	0x3d159865	0.036522288
234	0xbd87e0c2	-0.06634666
235	0x3cc4786a	0.0239832
236	0xbce24df3	-0.02762506
237	0xbc6d9244	-0.0145002045
238	0xbb9af3ef	-0.004728786
239	0xbd143879	-0.03618667
240	0xbd60b703	-0.054862034
241	0xbbb01bfb	-0.0053744293
242	0xbd9510e7	-0.072786145
243	0xbc8f8222	-0.017518107
244	0x3ccf97ff	0.025341032
245	0x3cc0e725	0.023547718
246	0x3cfa45d4	0.030550875
247	0xbd7e9c4f	-0.062160786
248	0x3d513de1	0.051084403
249	0xbd2c0764	-0.041999236
250	0x3cdb3a5c	0.026761226
251	0xbd2b8d4c	-0.041882798
252	0xbd5b2a2e	-0.053507023
253	0xbcfd75fc	-0.030940048
254	0xbd99499d	-0.07484744
255	0xbd5d87c3	-0.05408455

sequential_2/conv2d_3/Conv2D f4 [64, 2, 2, 64]
0	0xbd95f531	-0.07322157
1	0x3b5f99a7	0.0034118684
2	0x3dc96d91	0.09835351
3	0xbde09e0d	-0.10967646
4	0xbca6c97d	-0.020359749
5	0x3ce803e8	0.028322175
6	0xbd210906	-0.039315246
7	0xbe027422	-0.12739614
8	0x3d345917	0.044030275
9	0x3d887316	0.06662576
10	0xbdc50275	-0.09619609
11	0xbe0576c9	-0.13033594
12	0xbb784b0c	-0.0037886528
13	0x3d1c2055	0.03811677
14	0xbccbcd0c	-0.024878047
15	0x3c24b2a5	0.010052358
16	0xbdbc147d	-0.09183595
17	0x3da6d8e6	0.08146839
18	0xbcb55d45	-0.022139201
19	0xbccb9905	-0.024853239
20	0x3bcf5963	0.0063277944
21	0x3c13e5c2	0.0090269465
22	0xbdca9201	-0.09891129
23	0xbd87b142	-0.06625606
24	0x3d8ee894	0.069779545
25	0xbcfa8401	-0.030580522
26	0xbd1211e0	-0.03566158
27	0x3d964ee1	0.07339264
28	0x3cb71edd	0.022353584
29	0x3c482ba6	0.012217438
30	0x3bf8d720	0.0075940043
31	0xbd9778f9	-0.073961206
32	0xbdc1abe2	-0.09456612
33	0xbddb1dc0	-0.10699034
34	0xbd17943f	-0.037006613
35	0xbe2d4dce	-0.16924211
36	0xbc0d14c5	-0.008610909
37	0xbca50daa	-0.020148117
38	0x3e0fae57	0.14031349
39	0x3c022c66	0.007945156
40	0xbdf1ec28	-0.11812621
41	0x3da089f7	0.07838815
42	0x3ca296aa	0.019847233
43	0xbdbdfeac	-0.092770904
44	0xbc35e7be	-0.011102615
45	0xbd57b4a7	-0.052662518
46	0xbcecf870	-0.028927058
47	0xbdbdbb5c	-0.092642516
48	0x3d115d04	0.035489097
49	0x3d51e6db	0.05124555
50	0x3db6346e	0.08896719
51	0x3dc34b0b	0.09535798
52	0xbdc201f4	-0.09473029
53	0x3d6a21cd	0.05716114
54	0xbc02e790	-0.007989779
55	0xbc23024d	-0.009949279
56	0x3dc79422	0.09745051
57	0xbc116226	-0.008873498
58	0xbd66aaf6	-0.056315385
59	0x3d6ad09c	0.05732785
60	0x3c8e679b	0.017383387
61	0xbc7562df	-0.014977186
62	0xbdde8d1b	-0.108667575
63	0xbdbf0062	-0.09326245
64	0x3d1f7a40	0.038934946
65	0xbd6e48a7	-0.058174755
66	0xbd583df6	-0.052793466
67	0x3c9c60cd	0.019089127
68	0xbc2daa1a	-0.010599637
69	0xbc81589b	-0.01578932
70	0xbddb1d6d	-0.10698972
71	0xbd7f4358	-0.062320083
72	0xbdb16ff9	-0.08663935
73	0x3dc11695	0.09428135
74	0x3dd44f32	0.10366668
75	0xbd68538c	-0.0567203
76	0x3d2b4346	0.041812204
77	0xbdb807be	-0.08985852
78	0x3d8c5268	0.06851655
79	0xbda37548	-0.07981354
80	0x3cb6dde2	0.022322599
81	0xbd007a1a	-0.031366445
82	0xbc4dc4fb	-0.012559171
83	0x3db54ccd	0.08852539
84	0xbd017492	-0.03160531
85	0xbdde1efc	-0.108457536
86	0xbd889630	-0.06669271
87	0xbd81d25b	-0.0633895
88	0x3d436bf4	0.047710374
89	0x3b3e725f	0.002905987
90	0x3bb8d9bb	0.00564119
91	0xbc92dc55	-0.017927328
92	0xbc0dd1ab	-0.008655946
93	0x3dc7b31f	0.097509615
94	0xbd5a07a3	-0.05322994
95	0xbb98bddc	-0.004661305
96	0xbd420775	-0.047370393
97	0x3d92dde7	0.07171231
98	0xbcb3810c	-0.02191212
99	0xbd9abe81	-0.07555867
100	0x3cbccd3c	0.023047082
101	0xbda5bbf7	-0.08092492
102	0x3da5e2e4	0.080999166
103	0x3d8aff0f	0.0678693
104	0x3d9bc598	0.076060474
105	0x3b961f29	0.0045813513
106	0x3d9b17d0	0.07572901
107	0x3dd31614	0.103069454
108	0x3db03603	0.08604052
109	0x3ce2d8d6	0.027691286
110	0x3c362319	0.011116766
111	0xbd3ba1b0	-0.045808494
112	0x3cfe2caa	0.031027157
113	0x3d05a8ac	0.03263156
114	0x3c604b6f	0.01368986
115	0xbd5489ad	-0.05188911
116	0x3dbcf77a	0.0922689
117	0x3bc0a2b9	0.005878773
118	0xbdb1d079	-0.08682341
119	0xb90bb6c4	-0.00013324158
120	0xbbfce802	-0.007718087
121	0xbc8f96f9	-0.017528044
122	0xbd470cb8	-0.048596114
123	0x3dbf0db7	0.09328788
124	0xbd188ad4	-0.03724177
125	0x3dfdb26b	0.12387546
126	0xbac14212	-0.0014744422
127	0x3daf8839	0.08570904
128	0xbd2e3afc	-0.04253672
129	0xbd1a7494	-0.037708834
130	0xbd8a009f	-0.067384
131	0xbdc0a7e5	-0.09407023
132	0xbdc16f88	-0.09445101
133	0x3da2f8b8	0.079575956
134	0xbcfe951f	-0.031076966
135	0xbc9b4626	-0.018954348
136	0x3bdbc92d	0.0067073316
137	0xbcabe85e	-0.020984825
138	0x3db3a13a	0.08770986
139	0xbce092ab	-0.027413687
140	0xbdbaed52	-0.091272965
141	0xbce8cc04	-0.028417595
142	0x3d0c95de	0.034322612
143	0xbdc37576	-0.09543888
144	0x3a3b0840	0.0007134713
145	0xbd757357	-0.05992445
146	0xbcd2f03a	-0.025749315
147	0x3d9a04cc	0.07520446
148	0x3d91de15	0.07122437
149	0x3d670208	0.05639842
150	0xbc67a540	-0.01413852
151	0xbd93ad63	-0.07210805
152	0x3c85fd80	0.01635623
153	0x3dffe135	0.12494127
154	0xbda0c341	-0.07849742
155	0xbda9301b	-0.082611285
156	0x3d272a0d	0.040811587
157	0xbdab151c	-0.08353636
158	0xbdc27c2d	-0.09496341
159	0x3d87e6a9	0.06635792
160	0xbd8dea0a	-0.06929405
161	0x3dc28c3f	0.09499406
162	0x3dc69503	0.096963905
163	0xbc766b33	-0.015040207
164	0xbd2f3b47	-0.04278114
165	0x3c1f9516	0.009740135
166	0x3d0e82c8	0.03479269
167	0xbccb6d08	-0.024832264
168	0x3dbc9287	0.092076354
169	0xbd28be36	-0.041197024
170	0x3ce5cdd8	0.028052256
171	0xbce07aa4	-0.02740223
172	0xbd5a31d1	-0.053270165
173	0x3d13fd13	0.036130022
174	0xbcd7abc1	-0.026327016
175	0x3db7508b	0.08950909
176	0x3e0388b9	0.12845124
177	0x3d8b94c9	0.06815488
178	0x3d9ccf78	0.07656759
179	0x3dc40fa7	0.09573298
180	0xbbe2820c	-0.0069124755
181	0x3bded518	0.006800305
182	0x3ce5170f	0.027965097
183	0xbd20eb8f	-0.039287146
184	0x3db127c5	0.086501636
185	0xbd5eba74	-0.054377034
186	0xbd43b9aa	-0.047784485
187	0x3d8bc1bb	0.068240605
188	0x3d26a648	0.040685922
189	0xbd894d2f	-0.06704175
190	0xbd452563	-0.048131358
191	0x38cb4b5f	9.693833e-05
192	0xbd58bc6a	-0.05291406
193	0xbd25ddbf	-0.040494677
194	0x3d3ac535	0.045598228
195	0xbdbdb408	-0.09262854
196	0x3b6290b0	0.0034571104
197	0x3c28e421	0.010308296
198	0x3d6472ac	0.055773422
199	0x3d9dd0c3	0.07705834
200	0x3bab9e79	0.0052373973
201	0xbd791c57	-0.060818043
202	0xbdaa60de	-0.08319257
203	0x3e0b941e	0.13630721
204	0x3dba5e6f	0.09100043
205	0xbcd2d406	-0.025735866
206	0x3d58921f	0.052873727
207	0x3d6a20f7	0.057160344
208	0x3d803bd4	0.06261411
209	0x3d9a9585	0.0754805
210	0x3c8319c3	0.016003495
211	0xbccbb5fc	-0.02486705
212	0xbd63e80e	-0.055641226
213	0x3d3d93c7	0.04628351
214	0x3d7a6eef	0.06114095
215	0x3dd089e3	0.1018255
216	0x3d63b01c	0.055587873
217	0x3d31ded7	0.043425407
218	0xbd2a325c	-0.041551933
219	0xbd8860c9	-0.06659085
220	0xbdb36aa7	-0.08760577
221	0x3dc2b19c	0.095065325
222	0x3d815984	0.06315902
223	0xbd267b12	-0.040644713
224	0xbdbda5b1	-0.09260119
225	0x3dca7443	0.098854564
226	0x3d9c3601	0.07627488
227	0x3e305dc4	0.17223269
228	0xbd026e7c	-0.031843647
229	0x3cfd8767	0.030948354
230	0xbd0b8e2f	-0.034071144
231	0xbc2a97d5	-0.010412176
232	0x3cbcd88f	0.023052482
233	0x3d2a7b52	0.041621514
234	0xbd56c3dc	-0.05243288
235	0xbd9a96b1	-0.07548273
236	0xbdc8f0f7	-0.098115854
237	0x3dc66487	0.09687143
238	0x3c71198d	0.014715564
239	0xbd1e26cb	-0.038611215
240	0x3baa92ba	0.0052054795
241	0x3dbecab6	0.09316008
242	0xbbba016b	-0.0056764386
243	0xbdc97109	-0.09836013
244	0x3da0d3a0	0.07852864
245	0xbd6c0c47	-0.057628896
246	0x3d50dfbc	0.05099462
247	0xbdbd6c24	-0.09249142
248	0xbdba2ca7	-0.09090548
249	0xbd623270	-0.055223882
250	0xbd847446	-0.0646749
251	0x3d8f679e	0.07002185
252	0x3d87b291	0.06625856
253	0xbd8d0e24	-0.06887463
254	0xbcc417da	-0.023937155
255	0x3bf0e27d	0.0073512183

sequential_2/conv2d_4/Conv2D f4 [64, 2, 2, 64]
0	0x3d0024b1	0.03128499
1	0x3d882397	0.06647413
2	0x3d9d8807	0.07691961
3	0x3d8e0047	0.06933647
4	0x3c1e80bd	0.009674248
5	0xbd56afe8	-0.05241385
6	0xbd45d3cc	-0.04829769
7	0x3b75fd39	0.0037534966
8	0x3c516748	0.012780972
9	0x3d1b43fd	0.037906636
10	0xbd7e325e	-0.062059753
11	0xbd51591b	-0.05111037
12	0x3d70901e	0.05873119
13	0x3d90ce82	0.07070638
14	0xbc976654	-0.018481411
15	0x3dd8f424	0.10593441
16	0xbc1d67e4	-0.009607289
17	0x3dca40b8	0.09875625
18	0x3dc586ed	0.09644876
19	0xbd7dcd9b	-0.06196366
20	0x3dc74de9	0.09731657
21	0xbc292e02	-0.0103259105
22	0xbd3aeed3	-0.045637917
23	0x3decb515	0.11557976
24	0x3dec8b65	0.11550025
25	0xbd4d2f58	-0.05009398
26	0xbd88a758	-0.06672543
27	0x3cd3c884	0.02585245
28	0x3dadb9c6	0.08482699
29	0x3d934f18	0.0719282
30	0xbd1a9ca5	-0.037747044
31	0x3d82b43f	0.063820355
32	0xbd7bee0c	-0.061506316
33	0x3df5328b	0.11972531
34	0x3d0efcfe	0.03490924
35	0xbcff8092	-0.031189237
36	0xbc34d61a	-0.011037374
37	0xbd923482	-0.07138921
38	0xbcfaa3e9	-0.030595737
39	0xbd0d0636	-0.03442975
40	0x3c986453	0.018602526
41	0x3ddb3c96	0.10704915
42	0xbd95c4cd	-0.073129274
43	0x3d9c837f	0.076422684
44	0x3cc4f63c	0.024043195
45	0x3d3949c3	0.04523636
46	0x3dc5f1c3	0.09665253
47	0x3d067884	0.032829776
48	0xbe0b4033	-0.13598709
49	0xbdcfcd4a	-0.10146578
50	0x3d90413b	0.07043692
51	0x3c4c78b7	0.012479953
52	0xbcb23c55	-0.021757284
53	0xbd19b3e8	-0.037525088
54	0x3b440472	0.0029909876
55	0x3dc2a4dd	0.095041014
56	0x3de9c685	0.11414818
57	0xbdb6c20d	-0.08923731
58	0xbd41df28	-0.04733196
59	0xbc5cf5f3	-0.013486373
60	0x3d1e7654	0.038687065
61	0xbc5ac25a	-0.013352001
62	0xbd120e43	-0.035658132
63	0xbc587a0a	-0.01321269
64	0xbda7ec26	-0.081993386
65	0xbc871c1a	-0.016492892
66	0x3db816d2	0.08988728
67	0xbd2be796	-0.041968904
68	0xbd5f2793	-0.0544811
69	0x3d19ae30	0.037519634
70	0xbd098339	-0.03357241
71	0x3c8ba400	0.017045975
72	0x3daf3b21	0.085562
73	0xbd27314e	-0.040818505
74	0x3dc11ed5	0.09429709
75	0x3d254a92	0.04035432
76	0xbd1b1426	-0.037861012
77	0xbde0a939	-0.10969777
78	0xbc917776	-0.017757159
79	0xbd156d92	-0.036481448
80	0x3daf67be	0.08564709
81	0xbc4a8c88	-0.012362607
82	0xbb072e19	-0.0020626842
83	0xbcce889f	-0.02521163
84	0xbd85a4c1	-0.06525565
85	0xbd3cd080	-0.04609728
86	0xbc85dd22	-0.016340796
87	0xbd9358d4	-0.07194677
88	0x3d72d056	0.059280716
89	0xbd975fde	-0.07391332
90	0x3da4f1e2	0.08053948
91	0x3d1ada28	0.037805706
92	0xbda50ba1	-0.08058859
93	0xbcc6cdae	-0.024267998
94	0xbdec165c	-0.11527702
95	0x3d3979be	0.045282118
96	0x3d4d3394	0.050098017
97	0xbccdd3c1	-0.025125386
98	0x3da88d41	0.08230067
99	0xbd9c28d4	-0.07624975
100	0x3cafcdfd	0.021460528
101	0x3c3881ae	0.011261387
102	0xbd879ff1	-0.06622303
103	0xbccac177	-0.024750454
104	0x3c855622	0.016276423
105	0x3dd8a5b7	0.105784826
106	0x3d0d5d0b	0.03451256
107	0xbc07844f	-0.008271291
108	0x3da3cba7	0.07997828
109	0x3d16088d	0.03662925
110	0xbd5b5d02	-0.053555496
111	0x3d22e746	0.03977134
112	0xbd728085	-0.059204597
113	0xbcc4d1e5	-0.024025867
114	0x3bb0ab69	0.0053915274
115	0xbca1a57c	-0.01973223
116	0x3ca15e46	0.019698273
117	0xbd92666b	-0.07148441
118	0xbbc28d4b	-0.0059372536
119	0xbd463af7	-0.048396077
120	0x3dcb9b2c	0.09941706
121	0xbdd3e67d	-0.103466965
122	0xbc853600	-0.0162611
123	0x3c9cf507	0.019159807
124	0x3da36695	0.0797855
125	0xbdf0ab70	-0.11751449
126	0x3dd5e86c	0.104447216
127	0xbdead7dd	-0.11466954
128	0xbdb095d2	-0.08622326
129	0xbd88de2d	-0.06683002
130	0xbc692a7a	-0.014231319
131	0xbbef05de	-0.0072944006
132	0xbd913c2b	-0.07091554
133	0xbdda65e5	-0.10663966
134	0x3c854b98	0.016271397
135	0x3dbd6c38	0.09249157
136	0xbd90761a	-0.07053776
137	0xbb81e1c4	-0.003963681
138	0xbcfa777a	-0.030574549
139	0xbdc558f1	-0.09636105
140	0xbdc415cc	-0.0957447
141	0xbc12cb9c	-0.008959677
142	0x3d0defa2	0.03465236
143	0x3d82f017	0.0639345
144	0xbdbeea20	-0.093219995
145	0x3e0f8b5d	0.14018007
146	0xbd8d0402	-0.0688553
147	0x3d837327	0.06418448
148	0x3dfb458c	0.122691244
149	0x3da198b5	0.07890455
150	0xbd840b73	-0.06447496
151	0x3db65faa	0.08904965
152	0x3cd08311	0.025453122
153	0x3db2fda0	0.087397814
154	0x3d1aa5b9	0.0377557
155	0xbbf4dd51	-0.007472672
156	0x3c32d070	0.010913953
157	0x3b0f34db	0.0021851573
158	0x3d803105	0.0625935
159	0xbc588d61	-0.013217301
160	0xbdcdc705	-0.100477256
161	0x3c90dfbc	0.01768481
162	0x3d835ace	0.06413804
163	0xbce3778f	-0.02776697
164	0x3d886f65	0.06661872
165	0xbda36d6a	-0.079798535
166	0x3db1db6f	0.08684432
167	0x3d2dd898	0.042442888
168	0x3d7aec99	0.061260793
169	0xbc251383	-0.010075453
170	0xbda8549e	-0.082192644
171	0xbbd997b5	-0.0066403993
172	0x3dbad6f5	0.09123031
173	0xbe195f3d	-0.14977737
174	0xbd584888	-0.052803546
175	0x3c15d730	0.009145543
176	0x3c99891a	0.018742133
177	0xbdeada06	-0.11467366
178	0x3abf488e	0.0014593767
179	0x3dafbd02	0.08580972
180	0x3dc3f20a	0.0956765
181	0xbd144c44	-0.036205545
182	0xbdd0f647	-0.10203224
183	0x3d4923a1	0.049106244
184	0xbd128248	-0.035768777
185	0xbba8a81d	-0.005146994
186	0x3d9d4fe3	0.07681253
187	0x3d77020e	0.060304694
188	0x3d961c40	0.07329607
189	0xbdd2f54e	-0.103006944
190	0x3d9e48c9	0.077287264
191	0xbc988a8d	-0.018620754
192	0x3d4ccfbe	0.050002806
193	0xb9bb953f	-0.00035778616
194	0xbdb72075	-0.089417376
195	0x3d0e6a88	0.034769565
196	0x3dadfd5e	0.084955916
197	0xbd2d1bc0	-0.042262793
198	0xbd45d368	-0.048297316
199	0xbdba4cf0	-0.09096706
200	0xbb89f980	-0.004210651
201	0xbda33c24	-0.07970455
202	0xbd0b12a6	-0.03395333
203	0x3de0e6b1	0.10981501
204	0xbdda324d	-0.10654125
205	0x3cb48cc3	0.022039777
206	0x3de16807	0.1100617
207	0x3d438d85	0.047742385
208	0xbda38533	-0.0798439
209	0x3e183a13	0.14865904
210	0x3debfdd5	0.11523024
211	0x3ce33fd1	0.027740391
212	0x3bde751c	0.006788863
213	0xbcb48e5a	-0.022040535
214	0xbdd86422	-0.10565974
215	0x3de19f80	0.1101675
216	0xbce0ccc7	-0.027441395
217	0x3dd15b1b	0.10222455
218	0xbcbf2577	-0.023333294
219	0x3d8f292e	0.06990276
220	0xbd939662	-0.072064176
221	0x3d325a12	0.04354293
222	0x3d51c721	0.051215295
223	0xbcf2d87f	-0.029644249
224	0xbd8a6c14	-0.067588955
225	0x3cc576fd	0.02410459
226	0xbda09a03	-0.078418754
227	0x3e01237e	0.12611195
228	0xb8e8c7d5	-0.00011099844
229	0x3d820757	0.06349056
230	0x3d2f23d4	0.042758778
231	0x3da6311b	0.08114835
232	0x3d29ab32	0.04142303
233	0xbd29c77b	-0.041450005
234	0x3dd24e84	0.10268882
235	0xbcd6e06f	-0.026230065
236	0xbc2b673c	-0.010461625
237	0xbcebd5d1	-0.028788479
238	0xbb06f605	-0.0020593416
239	0x3b28dad8	0.0025765207
240	0xbcd52562	-0.026018802
241	0x3d5273c2	0.051379927
242	0xbd2ee7b5	-0.04270144
243	0x3dca8679	0.0988893
244	0xbc5cf0e6	-0.013485169
245	0xbcfaf3a2	-0.030633751
246	0xbd360a9d	-0.044443715
247	0xbd871369	-0.06595499
248	0x3ca52002	0.020156864
249	0xbd6f01fd	-0.058351506
250	0x3d9b5282	0.075840965
251	0x3d2b32e7	0.04179659
252	0xbdef74d5	-0.11692206
253	0x3d99ce5c	0.07510063
254	0x3c316294	0.0108267255
255	0x3dba4492	0.0909511

sequential_2/conv2d_5/Conv2D f4 [64, 2, 2, 64]
0	0xbd63b850	-0.055595696
1	0xbd5e6b20	-0.05430138
2	0xbde69ca3	-0.11260345
3	0xbc933eff	-0.017974375
4	0xbd973ca7	-0.073846154
5	0x3db204d8	0.0869233
6	0x3d01e54d	0.03171282
7	0xbb3eb536	-0.002909971
8	0x3db864ab	0.09003576
9	0x3dcea074	0.10089198
10	0xbdebd7e9	-0.11515791
11	0x3d05deca	0.03268317
12	0xbdc4c1f2	-0.09607305
13	0x3da4360a	0.0801812
14	0x3dca4a5b	0.098774634
15	0x3db80fc9	0.08987386
16	0x3cf0e6ad	0.02940687
17	0x3d18530d	0.03718858
18	0xbd86c4a0	-0.06580472
19	0xbd043fe4	-0.032287493
20	0x3dc2dc0b	0.09514626
21	0x3d30b96d	0.043145586
22	0x3d90f784	0.0707846
23	0xbd7977e9	-0.06090537
24	0xbcf1d1b1	-0.029518934
25	0xbd292d00	-0.04130268
26	0xbc9dfa31	-0.01928434
27	0x3d1ead8c	0.038739726
28	0xbd5cabef	-0.053874906
29	0x3d9d1139	0.076693006
30	0x3cfa9871	0.030590268
31	0xbd146e41	-0.03623796
32	0xbd97166e	-0.07377325
33	0x3aff5a2b	0.0019481828
34	0x3d8532da	0.0650384
35	0x3d03e3c5	0.03219964
36	0xbdcafbd5	-0.099113144
37	0xbdae1395	-0.08499829
38	0xbba2e22a	-0.0049708085
39	0xbd144578	-0.036199063
40	0xbd3ad4e5	-0.04561319
41	0xbdac0068	-0.08398515
42	0x3dc0ea37	0.09419673
43	0x3d21df7d	0.039519776
44	0x3dead236	0.11465876
45	0xbda501db	-0.080569945
46	0x3d24b1b6	0.04020854
47	0xbd323618	-0.04350862
48	0xbcdcf479	-0.026972042
49	0xbdd0b2b0	-0.10190332
50	0xbd25b406	-0.040454887
51	0xbdc98c4e	-0.09841214
52	0xbc5c6864	-0.013452623
53	0xbdb94834	-0.09046975
54	0xbdac6114	-0.08416954
55	0xbd2a60a9	-0.04159609
56	0x3c96309a	0.018333722
57	0xbc054a2d	-0.008135361
58	0xbb9db4e3	-0.004812823
59	0x3e1d971a	0.15389672
60	0xbbe728ec	-0.007054439
61	0xbd125c92	-0.035732813
62	0x3d8901d1	0.066897996
63	0xbd672480	-0.056431293
64	0x3d3e548e	0.046467356
65	0x3d8c268e	0.06843291
66	0x3d9be5c6	0.07612185
67	0x3dd8f1c2	0.10592987
68	0xbd958915	-0.07301537
69	0x3beb83fc	0.0071873646
70	0xbcb4bc27	-0.022062374
71	0x3b0f84f7	0.0021899322
72	0xbb54eb74	-0.0032488974
73	0x3dd3c1ee	0.103397235
74	0x3d64c1f1	0.05584902
75	0xbcbcdca9	-0.023054438
76	0xbab4d8a9	-0.001379748
77	0x3d9a27e1	0.075271375
78	0xbd245c28	-0.04012695
79	0x3e06df0a	0.1317102
80	0xbc808b3e	-0.015691396
81	0xbdf14f75	-0.11782733
82	0xbd90b24c	-0.070652574
83	0x3c798473	0.015229332
84	0xbd822fcb	-0.06356772
85	0xbdd1b602	-0.10239793
86	0xbd91d6d9	-0.07121057
87	0xbd818c40	-0.06325579
88	0xbcc1a923	-0.023640221
89	0xbdccf33e	-0.10007332
90	0x3dbec0c3	0.0931411
91	0xbd21e4ba	-0.03952477
92	0xbc5495c1	-0.012975157
93	0xbd90a33a	-0.07062383
94	0xbdba1e9c	-0.090878695
95	0x3d5fe0d3	0.05465777
96	0x3d8a6246	0.067570254
97	0xbd4e10b5	-0.0503089
98	0xbd42b13c	-0.047532305
99	0x3db65e8e	0.089047536
100	0xbd729fc0	-0.05923438
101	0x3deedfbd	0.116637684
102	0xbccf65b9	-0.02531706
103	0xbc695182	-0.014240624
104	0xbc8d1f2a	-0.017226774
105	0x3da76328	0.081732094
106	0x3e05f1b6	0.13080487
107	0x3da023ad	0.078193046
108	0xbd469019	-0.048477266
109	0xbcba0ac9	-0.02271022
110	0xbd0f280e	-0.03495031
111	0xbc90e46f	-0.01768705
112	0xbd059050	-0.03260833
113	0xbc862cf3	-0.016378855
114	0x3dc2d9ee	0.09514223
115	0xbca184da	-0.019716669
116	0xbc2018e0	-0.009771556
117	0xbd4ed1a3	-0.050492894
118	0xbd11e2a8	-0.035616547
119	0x3d142750	0.036170304
120	0xbd8bb42f	-0.06821477
121	0xbbb0983d	-0.005389242
122	0xbd840616	-0.06446473
123	0x3e3262f7	0.17420565
124	0x3d7ca7bb	0.061683398
125	0x3d6154d4	0.05501254
126	0x3da37c33	0.079826735
127	0x3ddfe31f	0.10931992
128	0xbc6a4934	-0.01429968
129	0x3d525936	0.05135461
130	0x3d1c7119	0.038193796
131	0xbc17e2bd	-0.009270367
132	0xbcaa1881	-0.020763637
133	0x3d9341f5	0.07190315
134	0x3d609186	0.054826282
135	0x3b671a65	0.0035263535
136	0xbd237d1a	-0.039914228
137	0x3d91b2c2	0.071141735
138	0xbd299a4f	-0.041406926
139	0xbdc8ca03	-0.09804156
140	0x3d145a48	0.03621891
141	0x3c220aee	0.009890301
142	0xbd3e36f8	-0.04643914
143	0x3dd927e0	0.10603309
144	0xbd2c7089	-0.04209951
145	0x3dd03d44	0.101679355
146	0x3dbda9d0	0.09260905
147	0xbda1ff0b	-0.07909974
148	0x3c0f9848	0.008764334
149	0x3d500fbb	0.05079625
150	0x3dcbb880	0.099473
151	0x3deefa80	0.11668873
152	0x3db644c7	0.08899837
153	0x3dc623d7	0.09674805
154	0x3c839da4	0.01606638
155	0xbceba370	-0.028764457
156	0x3c3b694c	0.011438679
157	0xbcd62b6f	-0.026143758
158	0x3da36cda	0.07979746
159	0x3d340d39	0.043957923
160	0x3c8babc3	0.017049676
161	0xbd71f1cd	-0.05906849
162	0xbd39de2a	-0.045377888
163	0x3be694f6	0.0070368005
164	0x3d110631	0.035406295
165	0xbd5cd633	-0.053915214
166	0x3d3dee8a	0.046370067
167	0x3d94c83a	0.07264753
168	0x3dba39ed	0.0909308
169	0x3d8c682d	0.068558075
170	0x3ddac9ab	0.10682996
171	0xbd349357	-0.044085827
172	0x3df3ff6b	0.119139515
173	0xbdbcbcca	-0.09215696
174	0x3dadbc47	0.08483177
175	0xbd6cb5e8	-0.057790667
176	0xbdb29572	-0.08719911
177	0xbc913316	-0.017724555
178	0x3d81486d	0.06312642
179	0xbbc7332d	-0.0060790987
180	0x3bed0935	0.0072337636
181	0x3d3f9069	0.04676858
182	0xbdcebfbb	-0.100951634
183	0xbc6b777f	-0.014371752
184	0xbdb90a00	-0.090351105
185	0x3dc1d7a9	0.09464962
186	0xbd835c66	-0.06414108
187	0xbc91ef18	-0.017814204
188	0x3d953878	0.07286161
189	0x3da45dcf	0.08025705
190	0xbba598b3	-0.0050536036
191	0xbdb7b56a	-0.08970149
192	0x3d370419	0.044681642
193	0x3debec72	0.11519708
194	0x3da4b7db	0.0804288
195	0xbd883311	-0.06650365
196	0x3d9ac6f9	0.07557482
197	0xbd999b94	-0.07500377
198	0x3de6ea35	0.1127514
199	0xbd8d01c8	-0.06885105
200	0xbd643490	-0.05571419
201	0x3e029fc4	0.12756258
202	0xbd8f98bd	-0.070115544
203	0x3cb6b10c	0.02230122
204	0x3d98a118	0.07452601
205	0xbdc33fbe	-0.09533642
206	0xbc42f48c	-0.011899125
207	0x3d1e73f5	0.038684804
208	0x3b13ac7a	0.0022533224
209	0x3c3d7174	0.011562694
210	0x38921dec	6.967396e-05
211	0xbd04a845	-0.032387037
212	0xbd1eeaa1	-0.03879798
213	0xbd3c0ab6	-0.045908652
214	0xbdc14498	-0.09436911
215	0xbd09ee61	-0.0336746
216	0x3d36efd5	0.044662315
217	0x3df1a448	0.11798912
218	0x3d979e73	0.07403269
219	0x3e023233	0.12714462
220	0x3de117fc	0.10990903
221	0x3dc8f4c2	0.09812309
222	0x3c23c6b0	0.009996101
223	0x3d8ce9e7	0.06880551
224	0xbd8a2274	-0.06744853
225	0x3df689f4	0.12038031
226	0x3da7fc91	0.0820247
227	0x3c9bca55	0.019017378
228	0x3dbe5dfd	0.092952706
229	0xbda585d1	-0.08082164
230	0xbd7a4701	-0.06110287
231	0x3ce052d4	0.027383246
232	0xbcc0174e	-0.023448613
233	0x3d718d90	0.058972895
234	0x3d1784fc	0.03699206
235	0x3daee7b5	0.08540288
236	0xbd06b964	-0.032891646
237	0x3d25c295	0.04046877
238	0x3dbb532f	0.091467254
239	0xbd95d799	-0.073165126
240	0xbdcaacd6	-0.09896247
241	0xbd965b37	-0.073416166
242	0x3cec6b43	0.02885974
243	0xbd199fc8	-0.037505895
244	0xbba60d5e	-0.0050675115
245	0x3dd40cdc	0.10354015
246	0x3d443643	0.04790331
247	0x3dc28d8b	0.094996534
248	0xbd9f262b	-0.07770952
249	0x3cec0d16	0.028814834
250	0xbd20dd8a	-0.039273776
251	0x3dac2cfb	0.08407017
252	0x3d121a35	0.035669524
253	0x3d33281a	0.043739416
254	0x3ba52759	0.005040091
255	0x3dc303d3	0.09522214
