exports/grape_black_measules.tflite (tflite, 485128 bytes, 16 tensors)

sequential_2/conv2d/Relu;sequential_2/conv2d/BiasAdd;sequential_2/conv2d_5/Conv2D;sequential_2/conv2d/Conv2D;sequential_2/conv2d/BiasAdd/ReadVariableOp f4 [64, 1, 1, 3]
0	0xb984515a	-0.00025237614
1	0x39dac507	0.00041726997
2	0x39025dc7	0.00012432701
3	0xba869e74	-0.0010270611
4	0x3a696049	0.0008902592
5	0x3a6f70e5	0.0009133949
6	0xb9e4e9bf	-0.00043661703
7	0xba03268f	-0.0005002999
8	0x39e8b23d	0.00044383286
9	0x379f110c	1.8962215e-05
10	0x39db8df3	0.00041876695
11	0x3a4f3664	0.0007904528
12	0xb9dcbb62	-0.0004210128
13	0xb9b2f8d4	-0.00034136197
14	0x3a794ba9	0.00095098704
15	0x39cfcbd0	0.0003963397
16	0x3a616d1a	0.0008599326
17	0x3a0f61de	0.00054696004
18	0xb96da198	-0.0002266228
19	0x3a2a3479	0.00064928044
20	0xb924645e	-0.00015677648
21	0xba40378f	-0.00073324976
22	0xb9d945df	-0.00041441523
23	0x3a12a312	0.00055937574
24	0x398b2fb8	0.000265477
25	0xba124f0a	-0.0005581236
26	0x3a09c64f	0.00052556855
27	0xba88f668	-0.0010449411
28	0xb8cf97f5	-9.8988334e-05
29	0x3840b069	4.5940662e-05
30	0xb8cb8637	-9.704794e-05
31	0xba175df9	-0.0005774196
32	0xb806ecad	-3.216851e-05
33	0x383475c8	4.3025037e-05
34	0x3a75896e	0.0009366487
35	0xba795d6d	-0.0009512518
36	0xba3c84b2	-0.0007191404
37	0x383bdfaa	4.4792578e-05
38	0xba940291	-0.0011292269
39	0x39b02a8c	0.00033601036
40	0x3a1c2741	0.0005956777
41	0xba7c29b3	-0.0009619251
42	0x39e169a6	0.00042994058
43	0x3a274528	0.00063808495
44	0xb998f1ab	-0.00029171756
45	0xb9cc518e	-0.00038970675
46	0xba2b96a8	-0.0006545582
47	0xb9b52c66	-0.0003455609
48	0x381bac93	3.7115602e-05
49	0x3a2b1986	0.00065269356
50	0x39dd16a2	0.00042169268
51	0xba84b364	-0.0010124263
52	0x383f8d77	4.5669698e-05
53	0xb78bd963	-1.667132e-05
54	0xb9f4ca3d	-0.00046689986
55	0xba5fa0c9	-0.0008530734
56	0xba3b1540	-0.00071366504
57	0x388684e3	6.41437e-05
58	0xba8a61cd	-0.0010557711
59	0xb8d7dcbd	-0.000102931146
60	0xb964f35d	-0.00021834434
61	0x39ca2217	0.0003855384
62	0x38d58707	0.00010181782
63	0xb9525222	-0.00020057758
64	0x3a9edc6a	0.0012120132
65	0xba621fec	-0.00086259726
66	0xb7d16cfe	-2.4965495e-05
67	0x3a2a8452	0.00065047026
68	0xba292c76	-0.00064534636
69	0xba245ac4	-0.00062696286
70	0xb7727bcc	-1.4453148e-05
71	0xb9fa84b2	-0.00047782582
72	0x396e6d0a	0.00022738069
73	0xb9c71251	-0.00037969885
74	0x38c762b9	9.507448e-05
75	0x39b56f12	0.00034605764
76	0x385d18c8	5.2713585e-05
77	0xb9b0d6b5	-0.00033729305
78	0x3953c8f6	0.00020197392
79	0xba01f2eb	-0.0004957157
80	0xba95fde9	-0.0011443469
81	0xba739f14	-0.0009293419
82	0x39535eb4	0.00020157808
83	0xb920f631	-0.00015350503
84	0xba711bd7	-0.0009197569
85	0x3a249b07	0.00062792044
86	0x3a95bfb4	0.001142493
87	0xb96cd38c	-0.00022585521
88	0xba42a0ad	-0.0007424455
89	0xba7e3c4f	-0.0009698318
90	0x3a58a94a	0.0008264972
91	0x39d7ec61	0.00041184112
92	0xba8e3bb7	-0.0010851537
93	0x399de8f4	0.00030118937
94	0x394f437b	0.00019766197
95	0xba9d7f7c	-0.0012016143
96	0x3a8590b6	0.0010190222
97	0x3a232aec	0.00062243524
98	0xba4ed25a	-0.0007889621
99	0x3a7af1fd	0.0009572802
100	0xb9f0c057	-0.00045919672
101	0x38c94461	9.5971634e-05
102	0x390a7936	0.0001320586
103	0x39ba53aa	0.0003553902
104	0xba31c536	-0.0006781401
105	0xb9cdd1c9	-0.0003925695
106	0xb9665b18	-0.00021968444
107	0x3a366f9f	0.0006959382
108	0xba714512	-0.00092037127
109	0xba89067d	-0.0010454204
110	0xb98bf1ff	-0.00026692447
111	0xb9a0ea91	-0.00030692344
112	0xba0cd4fa	-0.0005372312
113	0xba83fbe7	-0.001006958
114	0x3978a78e	0.00023713542
115	0x3902bb1d	0.00012467471
116	0x389c12c8	7.442158e-05
117	0x3a2b67ff	0.0006538629
118	0xba12c384	-0.0005598592
119	0xba19e73b	-0.0005870943
120	0x3a52897f	0.0008031353
121	0xba88f8a6	-0.001045008
122	0xb801a59e	-3.091024e-05
123	0xba0e7deb	-0.00054356334
124	0xb8374cce	-4.370213e-05
125	0xba3dc0dc	-0.0007238516
126	0xb9d9ed91	-0.00041566466
127	0xba702ade	-0.0009161661
128	0x3a88628f	0.0010405349
129	0x3a6f9783	0.00091397035
130	0xba427797	-0.0007418333
131	0x38cf9105	9.897541e-05
132	0x3803c282	3.1413983e-05
133	0xba621c3a	-0.0008625422
134	0xba7e288c	-0.0009695373
135	0x3a37d9fe	0.00070133794
136	0x3a8f1c30	0.0010918435
137	0xba577938	-0.0008219662
138	0x3a8dfb39	0.0010832316
139	0xba9b740e	-0.0011860149
140	0x3a3c2cd3	0.000717831
141	0xba952151	-0.0011377727
142	0xb9809b1b	-0.00024529625
143	0x391070f4	0.00013774988
144	0x3a2d5d53	0.00066133327
145	0x3a396cd5	0.0007073407
146	0xba728e17	-0.00092527404
147	0x38d8944b	0.00010327304
148	0xba82df73	-0.0009984806
149	0x3a6e6ab6	0.00090948807
150	0x3a362c61	0.0006949362
151	0xba188089	-0.0005817493
152	0xba1118c7	-0.0005535003
153	0x3a5eae68	0.00084946165
154	0xb9f9296f	-0.0004752385
155	0x39d2f17e	0.00040234247
156	0xba418cb4	-0.0007383332
157	0xbaa1068d	-0.0012285277
158	0x3a805d6e	0.0009793469
159	0x3a911904	0.0011070077
160	0xb9ee4a44	-0.0004545023
161	0xba10bce4	-0.0005521311
162	0x3a699a92	0.00089112774
163	0x3a587260	0.00082567893
164	0xb999b86f	-0.00029319848
165	0x3a739c8d	0.0009293042
166	0xba197938	-0.000585455
167	0xb97c6d72	-0.00024073364
168	0xb90aa14a	-0.0001322079
169	0xba5069d9	-0.0007950343
170	0xb9bd889f	-0.0003615068
171	0xba97e8be	-0.0011589748
172	0x3a76b736	0.0009411456
173	0x3a8153b1	0.0009866861
174	0x3a963293	0.0011459164
175	0xb9c4306d	-0.00037420113
176	0xba2b046e	-0.00065237924
177	0xb6b37273	-5.3479394e-06
178	0xb85cc3e5	-5.263453e-05
179	0xb718a7a8	-9.0989415e-06
180	0xba3e40dc	-0.00072575896
181	0xb80293e4	-3.113215e-05
182	0xba7e5d27	-0.0009703212
183	0x3a19c791	0.00058662245
184	0xb94e5941	-0.0001967894
185	0x39053dcf	0.00012706894
186	0x3a2ca00f	0.000658513
187	0xba947a84	-0.0011328016
188	0x3a3aefeb	0.00071310875
189	0xb9a749f0	-0.0003190781
190	0xb8cce254	-9.769635e-05
191	0x3a890201	0.0010452868

sequential_2/conv2d/BiasAdd/ReadVariableOp f4 [64]
0	0xbcb5593b	-0.022137275
1	0xbc072099	-0.008247518
2	0xbc19a86c	-0.009378534
3	0xbd18a883	-0.03727008
4	0x3c2a6ed5	0.010402401
5	0xbcc2deb9	-0.023787843
6	0xbccd8e4a	-0.025092263
7	0xbc831bbd	-0.016004438
8	0x3b8dc787	0.004326764
9	0x3d751f6d	0.059844423
10	0xbbaac195	-0.005211065
11	0xbd73d378	-0.059527844
12	0xbc5ec49b	-0.013596679
13	0xbd2647c9	-0.040595803
14	0xbd285257	-0.04109415
15	0x3cff4d4c	0.031164788
16	0xbd2e5808	-0.042564422
17	0x3d4db3c8	0.05022028
18	0x3d206d8e	0.03916698
19	0xbbc55771	-0.0060223867
20	0xbc9c083e	-0.019046899
21	0xbc97c495	-0.018526355
22	0xbc7b3ff0	-0.015335068
23	0xbbc41a3d	-0.005984573
24	0x3cab9a30	0.020947546
25	0xbc8bb394	-0.017053403
26	0x3c922ae9	0.017842727
27	0x3d30bc29	0.043148194
28	0xbc63673e	-0.013879595
29	0xbbc37d8e	-0.005965895
30	0xbd6dc7c1	-0.05805183
31	0x3cf91bd1	0.030408772
32	0xbd109e60	-0.03530729
33	0xbc8f2cb6	-0.017477375
34	0xbcc09457	-0.023508234
35	0xbb9bb706	-0.0047520427
36	0xbbc0f6ac	-0.0058887806
37	0xbb5a37ff	-0.0033297536
38	0xbc05764d	-0.008145881
39	0x3d455e00	0.04818535
40	0x3d30da4b	0.04317693
41	0xbbc2fca6	-0.005950528
42	0x3cf5cc6d	0.030004704
43	0xbab1692b	-0.0013535371
44	0xbbc41705	-0.0059841895
45	0xbd248841	-0.040169004
46	0xbc0902f6	-0.008362522
47	0xbbadf515	-0.005308757
48	0xbcfbbebb	-0.030730596
49	0x3cd7bea1	0.026336016
50	0x3d2707a8	0.040778786
51	0xbc49feac	-0.012328785
52	0xbc4cdbe3	-0.012503597
53	0xbb3d1885	-0.0028853726
54	0xbd41cbdd	-0.04731356
55	0xbb2f93f2	-0.0026791063
56	0xbbbacefa	-0.005700943
57	0x3ae9eae2	0.001784649
58	0x3bf9ba43	0.007621081
59	0xbbc334ba	-0.005957213
60	0xbbc3b298	-0.005972218
61	0x3b498b58	0.0030753221
62	0x3c97a34b	0.018510481
63	0xbcb254bc	-0.02176892

sequential_2/conv2d_1/BiasAdd/ReadVariableOp f4 [64]
0	0xbb111bee	-0.0022141892
1	0xbc669a01	-0.014074803
2	0xbc8149bd	-0.015782231
3	0x3c84399e	0.016140755
4	0x3c8f6346	0.017503392
5	0x3c9fe38b	0.01951768
6	0x3cae2a26	0.021260332
7	0xbc4ef134	-0.0126307495
8	0xbc8c2d1f	-0.01711136
9	0xbc83dff5	-0.016098002
10	0x3c0395a2	0.008031281
11	0x3d022cfb	0.031781178
12	0xbcf01ed3	-0.029311573
13	0xbd00105e	-0.03126561
14	0xbbeb40b0	-0.007179342
15	0xbbd11b96	-0.0063814623
16	0x3c0f4de9	0.008746603
17	0xbc7e5f85	-0.015525703
18	0xbcc9e0d8	-0.024643347
19	0xbca864b1	-0.020555826
20	0x3cb5aa8f	0.022176055
21	0x3c90f155	0.017693201
22	0x3c17fcf1	0.0092766145
23	0x39356d31	0.00017302182
24	0x3cb1ef98	0.021720693
25	0xbcc23222	-0.023705546
26	0xbc1f94c6	-0.00974006
27	0xbc28b8a3	-0.010297927
28	0xbcd82a6e	-0.02638742
29	0x3ba859a6	0.00513764
30	0xbb7093de	-0.003670923
31	0x3cae0c76	0.021246176
32	0xbc82e390	-0.01597765
33	0xbab1b1e5	-0.0013557045
34	0xbc6ee5c8	-0.014581151
35	0xbcfa2e66	-0.030539703
36	0xbcf5c03e	-0.029998895
37	0xbc123e82	-0.008926036
38	0xbc3f2d83	-0.011668566
39	0xbd286ef7	-0.04112145
40	0xbcb3d1b0	-0.021950573
41	0x3c81483f	0.01578152
42	0x3a63a5a6	0.00086840463
43	0x3c530cce	0.012881471
44	0xbb95c54f	-0.00457064
45	0xbc6c5077	-0.014423481
46	0xbcae1b2e	-0.021253195
47	0xbcbf7adc	-0.023374014
48	0xbd1071f7	-0.035264935
49	0x3c04d5bb	0.008107598
50	0xbc8ed6bf	-0.017436383
51	0xbbfb1df8	-0.0076634847
52	0x3bc314b1	0.0059533943
53	0x3bebdbdb	0.0071978397
54	0x3c454859	0.012041175
55	0xbc0a7f5f	-0.008453219
56	0x3cb2460c	0.021761917
57	0x3c70fba8	0.014708437
58	0xbbcc2264	-0.0062296856
59	0x3bb74240	0.0055926144
60	0x3ba0e08a	0.0049095796
61	0xbc3ae081	-0.011406065
62	0xbccab968	-0.024746612
63	0xbc55cf79	-0.013049954

sequential_2/conv2d_2/BiasAdd/ReadVariableOp f4 [64]
0	0x3ce07751	0.027400644
1	0x3c8ed0d8	0.017433569
2	0x3c7e58d4	0.015524108
3	0xbbd1bec4	-0.006400915
4	0x3bec6db6	0.007215227
5	0x3bf7e5a5	0.0075652176
6	0x3bbb4f05	0.005716207
7	0x3c1ec050	0.009689406
8	0xbc6cfc71	-0.014464484
9	0x3bbf5211	0.0058386405
10	0xbbf5612e	-0.0074883914
11	0xbca03c5f	-0.019560037
12	0xbcdfee90	-0.027335435
13	0x3c990543	0.018679267
14	0xbce3c8fd	-0.0278058
15	0x3d0f92c7	0.035052087
16	0xbd94ce45	-0.07265905
17	0x3bb8a7e8	0.0056352504
18	0x3a85de09	0.0010213266
19	0xbc47cafb	-0.01219439
20	0xbd331dd5	-0.043729622
21	0xbbcd98e2	-0.0062743286
22	0xb9f6cb01	-0.00047072026
23	0xbce85e8b	-0.028365394
24	0xbb6c939c	-0.0036098724
25	0xbc0a3155	-0.008434613
26	0xbc058efe	-0.008151768
27	0xbc34f044	-0.011043612
28	0x3b9712fd	0.004610418
29	0x3c9521f3	0.018204665
30	0xbc85be6f	-0.016326157
31	0xbba49051	-0.0050220867
32	0x3b85d53a	0.0040842565
33	0x3cfb446a	0.03067227
34	0xbbcfc0ac	-0.006340107
35	0x3c774a9c	0.015093472
36	0xbd30e2de	-0.043185107
37	0xbbed79e9	-0.007247199
38	0x3c827b7b	0.01592802
39	0x3c9d8233	0.019227123
40	0x3c23d768	0.010000087
41	0xbbfd9443	-0.0077386214
42	0xbc6f560f	-0.01460792
43	0x3cc7070c	0.024295352
44	0xbd1f0e1e	-0.038831823
45	0x3c3c79c6	0.011503642
46	0x3c725c27	0.014792479
47	0x3bbb77b0	0.005721055
48	0xbaf96dd3	-0.0019029923
49	0xbc76a9d0	-0.015055135
50	0xbb45c718	-0.0030178484
51	0xbcd5c7fd	-0.026096338
52	0xbc84e59c	-0.016222768
53	0x381a041d	3.6720292e-05
54	0x3aee2d71	0.0018171502
55	0xbce2f023	-0.027702397
56	0x3cd0cc6c	0.025488101
57	0xbc862a09	-0.016377466
58	0xbcbc3f98	-0.022979543
59	0xbc31f472	-0.010861503
60	0xbc219a2c	-0.009863418
61	0xbd9c51ae	-0.07632767
62	0xbc84616f	-0.016159741
63	0xbbc5c3b5	-0.006035293

sequential_2/conv2d_3/BiasAdd/ReadVariableOp f4 [64]
0	0x3ceea5f7	0.029131873
1	0x3cc730f0	0.024315327
2	0xbc5d8f32	-0.01352291
3	0x3cd58e01	0.02606869
4	0xbc85afed	-0.01631924
5	0x3bd6e21b	0.0065577156
6	0x3c842e45	0.016135344
7	0x3c17d920	0.009268075
8	0xbd0a61fc	-0.03378485
9	0xbc9c1c19	-0.019056367
10	0x3cbfc16f	0.023407666
11	0xbc1750cd	-0.009235573
12	0xbcb6605c	-0.022262745
13	0xbd1a6026	-0.03768935
14	0x3c86fce9	0.016478019
15	0xbc225d4a	-0.009909937
16	0xb9594284	-0.00020719512
17	0x3c8ebe42	0.017424706
18	0xbc5dab9b	-0.013529683
19	0xbd0a0b22	-0.033702023
20	0x3d2e6c1c	0.04258357
21	0xbc9fcd78	-0.019507155
22	0x3cc2fb2a	0.023801405
23	0xbc53616d	-0.012901646
24	0xbc8d6102	-0.017258171
25	0xba8c9314	-0.0010724985
26	0xbd323e35	-0.043516356
27	0xbc90963c	-0.017649762
28	0xbd8ae5db	-0.06782123
29	0x3d52d42f	0.051471885
30	0x3ad89503	0.0016523901
31	0x3afd3af6	0.001931994
32	0x3d20da6e	0.03927081
33	0xba40b8e5	-0.000735177
34	0xbbe6f32b	-0.007048031
35	0x3ca495f6	0.020091038
36	0xbd059f98	-0.032622904
37	0xbc38225b	-0.01123866
38	0x3ca72152	0.02040163
39	0xbc2c1a29	-0.010504284
40	0xbcab7313	-0.020928895
41	0x3cdf0a5c	0.02722662
42	0xbd90125a	-0.0703475
43	0xbd435267	-0.047686007
44	0x3c974a23	0.018467968
45	0x3c16eb8b	0.009211431
46	0x3bf8411b	0.0075761206
47	0xbb1a9eb4	-0.002359313
48	0x3ca23e34	0.019805051
49	0x3d735ad2	0.059412785
50	0x3c8a1a67	0.016858293
51	0xbc9d56b8	-0.01920639
52	0xbcf6a729	-0.030109005
53	0xbd019318	-0.03163442
54	0xbc6f8410	-0.0146188885
55	0xbd10945e	-0.035297744
56	0x3cb916b8	0.022593841
57	0x3c5fa0fb	0.013649221
58	0xbd40eebf	-0.047102686
59	0x3cb80228	0.022461966
60	0x3cbde9a6	0.023182701
61	0x3ca21235	0.019784072
62	0xbc9c0835	-0.019046882
63	0xbcfd1751	-0.030894907

sequential_2/conv2d_4/BiasAdd/ReadVariableOp f4 [64]
0	0xbc6f68ce	-0.01461239
1	0xbd2a379b	-0.041556936
2	0xbc12b418	-0.0089540705
3	0xbc669060	-0.014072508
4	0x3e1c2713	0.1524928
5	0x3c3e9b4d	0.011633706
6	0x3db41870	0.087937236
7	0x3b81597d	0.0039474354
8	0x3d106317	0.03525075
9	0x3d7815fe	0.06056785
10	0xbc19c321	-0.009384901
11	0xbb679f64	-0.0035342807
12	0x3d9aad4e	0.075525865
13	0xbb67a225	-0.0035344448
14	0xbd38988d	-0.04506736
15	0x3d59e417	0.05319604
16	0xbd809035	-0.06277505
17	0x3d27c667	0.040960696
18	0xb9e59aaf	-0.00043793532
19	0xbcb37e3d	-0.021910781
20	0x3d801c9c	0.06255457
21	0x3d70a4d2	0.058750935
22	0xbca73c5a	-0.02041452
23	0xbcb59672	-0.022166464
24	0xbcbd6a00	-0.023121834
25	0xbc7434db	-0.01490518
26	0x3cb60d34	0.022223093
27	0x3d775957	0.060387935
28	0xbc854414	-0.016267814
29	0xbc51ecd0	-0.012812808
30	0xbbe0da67	-0.006861973
31	0x3d871e1b	0.06597539
32	0x3cd0c521	0.025484623
33	0x3db9ad9d	0.09066317
34	0x3d6da40b	0.05801777
35	0xbd15dcd9	-0.03658757
36	0xbd256528	-0.040379673
37	0xbc22dd9d	-0.009940532
38	0xbbc5f716	-0.006041418
39	0xbd1db497	-0.038502302
40	0xbb23a7fc	-0.0024971953
41	0x3dce0ccf	0.10061037
42	0xbd031a15	-0.032007296
43	0xbcb80e61	-0.022467794
44	0xbc86b0a5	-0.016441653
45	0x3cece3df	0.028917251
46	0xbc990c92	-0.018682752
47	0xbbc327ca	-0.005955671
48	0xbcb24ad0	-0.021764189
49	0x3bb8e546	0.005642566
50	0xbcba921b	-0.022774747
51	0xbc87a976	-0.016560297
52	0x39f1eb53	0.00046142432
53	0xbbfee7c8	-0.0077790953
54	0xbc9e8576	-0.019350749
55	0xbba90300	-0.0051578283
56	0xbc19e50c	-0.009392988
57	0x3d75d734	0.060019687
58	0xbc8e2b4c	-0.01735463
59	0xbb9fe676	-0.004879768
60	0xbd1d2682	-0.038366802
61	0xbd12cdc6	-0.035840772
62	0xb9c8c8fd	-0.0003829672
63	0xbc911a74	-0.01771281

sequential_2/conv2d_5/BiasAdd/ReadVariableOp f4 [64]
0	0x3d7d6e37	0.061872687
1	0x3ddce1e3	0.10785272
2	0xbd03403f	-0.03204369
3	0xbcc7cf8e	-0.024390962
4	0xbc893569	-0.0167491
5	0xbc27df83	-0.01024616
6	0xbc727219	-0.014797711
7	0xbc6e6f49	-0.0145529
8	0x3cbefcbf	0.023313878
9	0xbc5e41d3	-0.013565498
10	0xbd2b285d	-0.04178654
11	0x3b7ee7be	0.0038895453
12	0x3da04093	0.078248166
13	0x3aaf333f	0.0013366713
14	0xbd4e272f	-0.050330337
15	0xbc139300	-0.0090072155
16	0xbcb64e21	-0.022254052
17	0xbc1cfdad	-0.009581965
18	0xbc189623	-0.009313139
19	0xbc2e7258	-0.010647379
20	0x3d3e23b7	0.04642078
21	0x3bb88744	0.0056313593
22	0x3ab06c7a	0.0013460063
23	0x3e00093d	0.12503524
24	0xbcc7efa0	-0.024406254
25	0x3d922db6	0.07137625
26	0xbce19bfb	-0.027540198
27	0x3c658aa8	0.014010109
28	0x3d44f47f	0.048084732
29	0xbc8f35ce	-0.01748171
30	0xba1a62f0	-0.00058893766
31	0xbd163632	-0.03667278
32	0x3d9761ec	0.07391724
33	0x3d927ce8	0.0715273
34	0x3d9c9734	0.07646027
35	0xbce8713d	-0.028374309
36	0xbc8b5e84	-0.017012842
37	0xbc1f2067	-0.009712315
38	0xbc3e9af3	-0.011633622
39	0xbd062e5f	-0.032759067
40	0x3e10a349	0.14124788
41	0x3d7a3f91	0.061095778
42	0xbc54db14	-0.012991685
43	0xbc598ae3	-0.013277742
44	0xbd00e228	-0.03146568
45	0xbc8e575a	-0.017375637
46	0xbc2cab95	-0.010538955
47	0x3cc1a5a9	0.023638563
48	0xbcdde31e	-0.027085837
49	0xbca8b034	-0.020591833
50	0xbd256b89	-0.040385757
51	0xbbc4c38b	-0.006004756
52	0xbc68da2c	-0.0142121725
53	0xbd1d94b6	-0.0384719
54	0xbc963873	-0.018337464
55	0xbc043950	-0.008070305
56	0xbc838279	-0.016053425
57	0x3d7985ba	0.060918547
58	0x3dc38cfd	0.09548376
59	0xbcb8e09d	-0.022568041
60	0x3d94ce83	0.072659515
61	0xbcc3571e	-0.023845252
62	0x3dbad96f	0.091235034
63	0xbc8b4e84	-0.017005213

sequential_2/conv2d_1/Conv2D f4 [64, 2, 2, 64]
0	0xbdb06b72	-0.086142436
1	0xbcb2faeb	-0.021848163
2	0xbcafc41b	-0.021455815
3	0x3dac2bfe	0.08406828
4	0xbe230def	-0.15923284
5	0xbccb18ff	-0.024792193
6	0xbd0ba2bc	-0.034090742
7	0x3d4f518c	0.05061488
8	0xbd94dec6	-0.07269053
9	0x3d898bd6	0.06716125
10	0xbd748cde	-0.059704654
11	0x3d121a09	0.03566936
12	0x3d1ac6fd	0.037787426
13	0x3d1bddf6	0.038053475
14	0x3b4e1d15	0.003145044
15	0x3d988464	0.074471265
16	0xbd45c92d	-0.04828756
17	0xbad3d86b	-0.001616252
18	0x3df557dc	0.119796485
19	0xbdbdcf57	-0.092680626
20	0xbd937a94	-0.07201114
21	0xbd0d2bac	-0.034465477
22	0xbc541aa9	-0.012945809
23	0x3dc40f85	0.095732726
24	0xbc09252c	-0.008370679
25	0xbd1a4d11	-0.037671153
26	0x3cc1c8cf	0.023655323
27	0x3d966129	0.073427506
28	0x3cde3f96	0.02712993
29	0xbd0309fc	-0.031991944
30	0xbcbab813	-0.022792852
31	0xbda53ee1	-0.08068634
32	0xbdbaf216	-0.091282055
33	0x3de3f1f4	0.11130133
34	0x3cf35452	0.029703293
35	0xbd5772d0	-0.052599728
36	0xbd6edb60	-0.05831468
37	0xbd6f0cfd	-0.058361996
38	0xbd6def6f	-0.05808967
39	0xbda33c3a	-0.07970472
40	0x3d1a88d8	0.03772816
41	0x3d788e1a	0.060682394
42	0xbcac751b	-0.021051934
43	0x3cf9a773	0.030475354
44	0xbda9d216	-0.08292024
45	0xbd80e0e1	-0.06292892
46	0xbc029ef4	-0.007972468
47	0xbda642cb	-0.081182085
48	0x3c3ed2f7	0.011646978
49	0x3cb2ff16	0.02185015
50	0x3d609c64	0.054836646
51	0xbd89c464	-0.06726912
52	0xbd8dca1b	-0.06923314
53	0x3da175af	0.078837745
54	0x3d40688f	0.046974715
55	0x3bf29d2f	0.0074039917
56	0x3cfe4fab	0.031043848
57	0xbdf5bfd3	-0.11999478
58	0xbd47647d	-0.048679817
59	0x3c1a34e8	0.009412028
60	0xbd938210	-0.07202542
61	0x3d2499b3	0.04018564
62	0xbc806386	-0.015672456
63	0xbc3db8d5	-0.011579712
64	0xbdf6eca8	-0.12056857
65	0x3d3245cb	0.04352359
66	0xbd5c9183	-0.05384971
67	0xbd7b2c49	-0.06132153
68	0x3c54af51	0.012981252
69	0xbda3a560	-0.07990527
70	0xbd186d8c	-0.037213847
71	0x3d1586b4	0.036505416
72	0xbdb3b3db	-0.08774539
73	0x3d344188	0.044007808
74	0xbd32d4d6	-0.043660007
75	0xbd8e9b04	-0.06963161
76	0x3dab7ce7	0.083734326
77	0x3b58ebae	0.003309946
78	0x3d59bb21	0.053156976
79	0xbcf437fb	-0.02981185
80	0x3da3634f	0.07977926
81	0xbca75e02	-0.020430569
82	0x3e194dd3	0.14971094
83	0x3d6af6e4	0.05736436
84	0x3d90c222	0.07068278
85	0xbd88746a	-0.06662829
86	0xbd82452b	-0.06360849
87	0xbd22ba56	-0.039728485
88	0xbd4910b7	-0.049088206
89	0x3ca699df	0.020337043
90	0x3af3d9e4	0.0018604365
91	0x3c1a2e8c	0.009410512
92	0xbc687cc4	-0.014189903
93	0xbd430029	-0.047607575
94	0xbc6703ad	-0.0140999975
95	0x3d6b977c	0.057517514
96	0xbda26c9b	-0.07930871
97	0x3d245371	0.04011864
98	0x3cbc0324	0.022950716
99	0x3d4bf348	0.049792558
100	0x3d508748	0.050910264
101	0x3dd87dae	0.105708465
102	0x3ca2d650	0.019877583
103	0x3d372c54	0.04472001
104	0x3d43e67a	0.04782722
105	0x3d11b92e	0.03557699
106	0xbbda58af	-0.006663404
107	0x3b10cfe2	0.0022096564
108	0x3d3704c9	0.044682298
109	0xbd86e219	-0.065860935
110	0xbc6b6049	-0.014366218
111	0x3ce8055e	0.028322872
112	0xbd35088e	-0.04419761
113	0x3dba308e	0.09091292
114	0xbc49d5a4	-0.012319002
115	0xbd894d0a	-0.06704147
116	0x3ca859cf	0.020550637
117	0xbc3ae694	-0.011407513
118	0xbdcf2947	-0.10115295
119	0x3df3bba6	0.119010255
120	0x3dd28756	0.102797195
121	0xbdae1e93	-0.08501925
122	0x3dae33e2	0.085059896
123	0x3cd263e4	0.025682397
124	0xbd1d7d9e	-0.038449876
125	0x3d1ed7e1	0.038780097
126	0x3bd12e3c	0.0063836854
127	0xbd9eec80	-0.077599525
128	0x3d093754	0.03350003
129	0x3b2a62ef	0.002599891
130	0xbc511c65	-0.012763117
131	0xbb3e6a61	-0.0029055106
132	0xbd5904e9	-0.0529832
133	0x3c850f28	0.016242579
134	0x3ddd8190	0.10815728
135	0xbc519bd5	-0.012793501
136	0x3dced346	0.10098891
137	0x3dfa20d6	0.12213294
138	0xbd929dd3	-0.07159009
139	0x3cba75b5	0.022761205
140	0x3dd6d28c	0.104893774
141	0x3d00eddb	0.031476837
142	0xbd1fbbfa	-0.038997628
143	0x3bd51dcb	0.0065037957
144	0x3dc7c3cd	0.09754143
145	0xbccd07d9	-0.025028156
146	0x3de5c462	0.11219098
147	0x3d9fd605	0.07804493
148	0xbdb1e5f9	-0.08686442
149	0xbc3fa0b3	-0.0116960285
150	0xbc923d0a	-0.017851371
151	0xbd96bfba	-0.07360788
152	0x3d729bda	0.059230663
153	0x3da38623	0.07984569
154	0x3c828674	0.015933253
155	0xbd7eb4e6	-0.062184237
156	0x3d505906	0.05086615
157	0xbdb4bd12	-0.08825125
158	0x3bd03788	0.006354276
159	0xbdb65f6a	-0.089049175
160	0xbda38375	-0.07984058
161	0x3de9722c	0.1139873
162	0x3d559b40	0.05215001
163	0x3b0a03f7	0.0021059492
164	0xbdd403e9	-0.10352308
165	0xbda4aedd	-0.08041165
166	0x3b4de285	0.0031415534
167	0xbc2b7f48	-0.010467358
168	0xbd48ea76	-0.049051724
169	0x3d483a2e	0.04888361
170	0xbe021d36	-0.12706456
171	0xbdbcc332	-0.09216918
172	0x3cc9e6cf	0.02464619
173	0xbd879cdd	-0.06621716
174	0xbd8366a7	-0.06416064
175	0x3d8c13bc	0.068397015
176	0xbd06a022	-0.03286756
177	0xbd6e6fbb	-0.058212023
178	0xbd0d3d4e	-0.034482293
179	0x3bc0e0ee	0.0058861887
180	0x3d5a02e5	0.053225417
181	0x3d75081b	0.059822183
182	0x3dc865e9	0.09785063
183	0x3d9d38db	0.0767686
184	0x3da3272f	0.07966458
185	0xbd882e14	-0.06649414
186	0xbca0c77b	-0.01962637
187	0x3cfadcd4	0.030622877
188	0x3dd20ee7	0.10256749
189	0x3c015d0a	0.007895717
190	0xbc2bdf8a	-0.010490308
191	0x3bdba075	0.0067024776
192	0x3dab13c7	0.083533816
193	0xbd007d55	-0.031369526
194	0x3c74633a	0.014916236
195	0x3cf0496b	0.029331883
196	0xbde261b0	-0.11053789
197	0xbb8e9f38	-0.0043524764
198	0xbdba63d0	-0.09101069
199	0x39989915	0.00029105754
200	0xbd9be502	-0.07612039
201	0x3df62e1f	0.12020516
202	0xbd6a04a9	-0.05713335
203	0x3da4540b	0.080238424
204	0x3dadd3b6	0.08487646
205	0xbcf1ba28	-0.029507712
206	0xbdc34488	-0.09534556
207	0x3e199748	0.14999115
208	0xbc9a1cdb	-0.018812587
209	0x3dbeefb3	0.09323063
210	0x3da434d0	0.08017886
211	0xbbb286bf	-0.005448192
212	0xbabf7f83	-0.0014610145
213	0xbdc997d8	-0.09843415
214	0x3c81bd37	0.015837295
215	0x3dd5d551	0.104410775
216	0xbdce1b53	-0.100638054
217	0xbb67875b	-0.003532848
218	0x3b420187	0.002960296
219	0x3d48918f	0.04896694
220	0x3c21a474	0.009865869
221	0x3b610258	0.0034333672
222	0x3b82296e	0.003972224
223	0x3a92b401	0.0011192561
224	0xbd508b63	-0.05091418
225	0xbdb18b8d	-0.08669195
226	0x3df2043b	0.11817213
227	0x3d9ce013	0.07659926
228	0xbd9cf2ff	-0.07663535
229	0xbda36081	-0.07977391
230	0xbda29dd1	-0.07940257
231	0x3cd45936	0.025921445
232	0x3de1beaf	0.11022698
233	0xbd3d3a7c	-0.046198353
234	0x3d5140a9	0.051087055
235	0x3d7d505d	0.06184422
236	0x3d922736	0.07136385
237	0xbdd18a4a	-0.10231455
238	0x3de0dc08	0.10979468
239	0xbd584450	-0.052799523
240	0xbbcb0a82	-0.006196321
241	0x3b6a70a4	0.0035772705
242	0x3e06dcdf	0.13170193
243	0xbd9cafb8	-0.07650703
244	0x3d9f4324	0.07776478
245	0xbda03646	-0.07822852
246	0x3db1d3c1	0.08682967
247	0x3d84c678	0.064831674
248	0xbd53b455	-0.05168565
249	0x3c2020b4	0.009773422
250	0x3d0a9a3c	0.033838496
251	0xbdc0cc0c	-0.09413919
252	0x3cf23444	0.029565938
253	0xbc82d621	-0.015971245
254	0xbd80662d	-0.062694885
255	0xbdd40804	-0.10353091

sequential_2/conv2d_2/Conv2D f4 [64, 3, 3, 64]
0	0x3c9a67cd	0.018848324
1	0xbd2fe337	-0.0429413
2	0x3c55e541	0.013055147
3	0x3d0b87f3	0.0340652
4	0xbd0038a8	-0.03130403
5	0xbd4ce689	-0.050024543
6	0xbc82f045	-0.01598371
7	0xbd473fa7	-0.048644688
8	0x3beeb1e0	0.007284388
9	0x3db60091	0.08886827
10	0xbd842e6d	-0.064541675
11	0x3d4f220c	0.05056958
12	0x3d2c6a38	0.042093486
13	0x3d6c6a7a	0.05771873
14	0xbade26ae	-0.0016948783
15	0xbdcc9833	-0.09989967
16	0xbd2f9010	-0.042861998
17	0x3c91aeba	0.017783511
18	0x3d256144	0.040375963
19	0xbd772acb	-0.060343545
20	0xbd3e613a	-0.04647944
21	0xbd8afee8	-0.06786901
22	0xbd7610e2	-0.060074694
23	0xbd60f8fa	-0.054924943
24	0x3d845168	0.064608395
25	0x3c5f3b5d	0.013624993
26	0x3d035adf	0.032069083
27	0x3d013fe7	0.031555083
28	0xbd84c4c3	-0.06482842
29	0xbc7a1a0b	-0.015264998
30	0x3ce1a5d6	0.027544897
31	0xbd722f36	-0.059127055
32	0xbc07c847	-0.008287496
33	0xbd8a7a08	-0.06761557
34	0x3d79f96d	0.061028887
35	0x3d2796dc	0.040915355
36	0x3d4aee04	0.049543396
37	0xbc41454b	-0.011796306
38	0xbc8a09f9	-0.016850458
39	0xbd194040	-0.03741479
40	0x3c905408	0.017618194
41	0x3d77ea57	0.06052622
42	0x3b810cae	0.003938279
43	0xbd997316	-0.07492654
44	0xbbc2e614	-0.0059478376
45	0xbc88a16f	-0.01667854
46	0xbd362ca8	-0.04447618
47	0xbcd5aca0	-0.02608329
48	0x3d3b325a	0.045702316
49	0xbd24f110	-0.040268958
50	0x3d375d07	0.044766452
51	0xbce35755	-0.027751604
52	0x3d21b54e	0.039479546
53	0xbd1776ff	-0.036978718
54	0x3ba95357	0.0051674056
55	0x3c99a3aa	0.018754799
56	0xbd76adb1	-0.06022424
57	0xbd4dc0b9	-0.050232623
58	0xbc9d4343	-0.019197112
59	0xbcc79d01	-0.024366857
60	0x3d2ae027	0.041717675
61	0x3d845864	0.06462172
62	0xbd786848	-0.060646325
63	0x3c974cfe	0.01846933
64	0xbdac9af9	-0.08427996
65	0x3bdb98bb	0.0067015565
66	0xbd791777	-0.060813393
67	0x3dcf81ce	0.1013218
68	0xbd2ecb5b	-0.042674404
69	0xbd74aa60	-0.059732795
70	0x3db1952a	0.08671029
71	0xbab946ae	-0.0014135444
72	0xbda3daea	-0.08000739
73	0x3c764899	0.015031957
74	0x3cbed65a	0.02329557
75	0x3d48c2be	0.049013846
76	0xbd179b4e	-0.037013344
77	0x3d0040c3	0.03131176
78	0xbd31ce11	-0.04340941
79	0xbdc50ac5	-0.09621195
80	0xbcb65de0	-0.02226156
81	0xbc4df86d	-0.012571436
82	0xbd875dee	-0.066097125
83	0x3c70c58c	0.014695536
84	0x3d51cd15	0.051220972
85	0x3cf7af57	0.030234976
86	0x3cfddf4f	0.03099027
87	0xbc9ea5bf	-0.019366143
88	0xbd3a4f9e	-0.045486085
89	0xbcb51236	-0.02210341
90	0xbcfec24d	-0.03109851
91	0x3d6a905e	0.057266586
92	0xbd83a0d4	-0.0642716
93	0x3c79d215	0.015247841
94	0x3c109c3f	0.0088263145
95	0x3bfa6b07	0.007642153
96	0x3ce4ece9	0.027944999
97	0x3d96b460	0.073586226
98	0x3c080bac	0.008303564
99	0x3d325e13	0.043546747
100	0xbbb31f46	-0.0054663746
101	0x3d29494b	0.041329663
102	0xba7eee05	-0.0009724799
103	0xbd856d0f	-0.06514942
104	0x3d95e84c	0.07319698
105	0xbd18b821	-0.037284974
106	0x3cf1d122	0.029518668
107	0x3dd786f0	0.10523784
108	0xbb83bd1b	-0.004020346
109	0x3cb4eb2e	0.022084799
110	0x3d8ae09c	0.06781122
111	0xbced9460	-0.029001415
112	0xbce0414a	-0.027374882
113	0x3a3c6fb1	0.0007188274
114	0xbd8e7251	-0.06955398
115	0xbcc5805e	-0.024109062
116	0x3c70274b	0.014657806
117	0x3cc206ac	0.023684822
118	0x3d5b9d9b	0.0536171
119	0x3d55ddea	0.052213587
120	0x3d51459f	0.051091786
121	0x3d43391a	0.04766188
122	0xbd3f4388	-0.046695262
123	0x3d924bf4	0.07143393
124	0x3c83165a	0.016001869
125	0x3d10533c	0.03523563
126	0xbc523443	-0.012829843
127	0x3d28fe93	0.041258406
128	0xbaa561d3	-0.0012617655
129	0xbd7c8c2f	-0.061657127
130	0xbd90b468	-0.0706566
131	0xbcc2fe35	-0.023802856
132	0x3d3caab4	0.046061233
133	0xbb229d36	-0.0024812943
134	0x3d9952bc	0.074864835
135	0x3c88ab63	0.016683286
136	0xbbe155ef	-0.006876699
137	0x3defaca9	0.11702854
138	0x3c5f3b02	0.013624908
139	0x3c59e3b8	0.013298921
140	0xbd3d0913	-0.046151232
141	0x3d4b36a3	0.049612653
142	0xbb6c47fe	-0.0036053653
143	0xbbe15613	-0.006876716
144	0xbd5421c9	-0.051790033
145	0x3b04fdf4	0.002029297
146	0xbd361103	-0.044449817
147	0x3d5ef336	0.054431163
148	0xbbf85f4a	-0.0075797187
149	0x3da17c09	0.07884986
150	0x3ca4e6ac	0.020129524
151	0x3d1e3d59	0.038632724
152	0x3d909425	0.07059506
153	0xbd6c5a30	-0.057703197
154	0xbd75f4cc	-0.06004791
155	0x3b2df96c	0.0026546372
156	0xbdaed081	-0.08535863
157	0x3ced69f4	0.028981186
158	0xba9f8c53	-0.0012172557
159	0x3b56bdea	0.0032767006
160	0x3d5b22d4	0.05350001
161	0x3d43a19c	0.047761545
162	0xbd90fafa	-0.0707912
163	0x3caf84be	0.021425601
164	0xbd0bc406	-0.03412249
165	0xbced0210	-0.028931648
166	0xbc01e84f	-0.007928922
167	0x3c489727	0.012243069
168	0x3d865d80	0.065608025
169	0xbcc2f014	-0.023796119
170	0xbb969d3a	-0.0045963796
171	0xbd2ce473	-0.042210054
172	0xbd9d96d1	-0.076947816
173	0x3c1dd2fe	0.009632824
174	0x3c7a73ee	0.015286429
175	0x3d04ca23	0.032419335
176	0xbdc60a84	-0.096699744
177	0xbc2ea3b5	-0.010659148
178	0xbcdf87db	-0.02728646
179	0x3c8e2b76	0.017354708
180	0xbbef5fb9	-0.007305112
181	0x3dab9437	0.08377879
182	0x3cecce35	0.02890692
183	0x3b27eb06	0.0025622263
184	0x3dbbd7a0	0.091719866
185	0x3c8e5a27	0.017376972
186	0x3d863d90	0.06554711
187	0x3b2e2c12	0.002657656
188	0xbcb8a5e5	-0.022540042
189	0x3d6dad08	0.058026344
190	0x3cf7b4db	0.030237606
191	0x3d9a5b82	0.07536985
192	0x3c1a65fa	0.009423727
193	0xbc91bcac	-0.017790161
194	0xbc90a3dd	-0.017656261
195	0xbc900b01	-0.017583372
196	0x3d72a5b0	0.059240043
197	0xbc98dc0a	-0.01865961
198	0xbd3809b1	-0.044931117
199	0xbbd789e6	-0.006577718
200	0xbc9a3efc	-0.018828861
201	0x3dbcd313	0.09219947
202	0x3c61636a	0.013756612
203	0xbbfa0ed1	-0.007631161
204	0x3c911b80	0.017713308
205	0x3cb8ba1d	0.022549683
206	0xbd019a3d	-0.031641234
207	0x3986bf88	0.00025701174
208	0xbd944b3e	-0.07240914
209	0xbd59b1a9	-0.053147946
210	0xbc7c8379	-0.015412205
211	0xbccd35ab	-0.025050005
212	0x3d117391	0.035510603
213	0x3ce7577c	0.028239958
214	0x3ca41b1e	0.020032462
215	0xbcedc2a6	-0.02902348
216	0x3d89d702	0.067304626
217	0xbab0f7d9	-0.0013501599
218	0xbcf1b834	-0.02950678
219	0xbd88ff4d	-0.0668932
220	0x3d237f47	0.039916303
221	0x3d6bbcf8	0.05755326
222	0x3cbda5d6	0.023150366
223	0x3d7026dd	0.058630813
224	0xbd3ba6ad	-0.04581325
225	0xbd9da3b1	-0.07697237
226	0xbc9e3588	-0.019312635
227	0xbb2b3767	-0.0026125552
228	0xbc3f4695	-0.011674543
229	0xbd92481a	-0.071426585
230	0x3c651e5e	0.013984291
231	0x3d8b63e8	0.06806165
232	0x3d4add81	0.04952765
233	0x3d0babf0	0.03409952
234	0x3c9bec63	0.019033616
235	0x3d45fda8	0.04833761
236	0xbd3e1f82	-0.046416767
237	0x3cb25754	0.021770157
238	0x3cb2f2e3	0.021844333
239	0x3d81590d	0.06315813
240	0xbd8002c8	-0.062505305
241	0x3d77a9cb	0.06046466
242	0x3c847265	0.016167829
243	0xbcc6be98	-0.024260804
244	0xbd692e06	-0.056928657
245	0xbd4248ae	-0.047432594
246	0x3c5985df	0.013276546
247	0xbd995cd6	-0.0748841
248	0x3d99af82	0.075041786
249	0xbd6cfe9f	-0.057860013
250	0xbd7ba65a	-0.061437942
251	0x3d8fe1d5	0.07025496
252	0x3cea8c50	0.02863136
253	0x3bb43b2b	0.0055002174
254	0xbd0c48ce	-0.03424912
255	0xbd2ab10f	-0.041672762

sequential_2/conv2d_3/Conv2D f4 [64, 2, 2, 64]
0	0xbd9e8519	-0.0774023
1	0x3a1668c0	0.0005737655
2	0x3d99f046	0.07516532
3	0x3d7e56ba	0.062094428
4	0x3e24af6d	0.16082545
5	0x3de5bf78	0.112181604
6	0x3d9a7dd4	0.07543531
7	0xb9a0a311	-0.00030639072
8	0xbd78103e	-0.060562365
9	0xbd6c8432	-0.05774326
10	0x3d7dcfd9	0.061965797
11	0xbc24b818	-0.010053657
12	0x3c4e4358	0.012589298
13	0xbd5b16eb	-0.053488653
14	0xbc6546a7	-0.013993896
15	0xbd2683f2	-0.040653177
16	0x3d6c0f4a	0.05763177
17	0xbdd5032f	-0.10400998
18	0xbdcbe9ca	-0.09956701
19	0x3d220e1f	0.03956425
20	0x3d394e69	0.045240793
21	0xbde825e9	-0.11335356
22	0x3d986f85	0.07443146
23	0x3de59dcc	0.11211738
24	0x3c87e2a0	0.016587555
25	0x3d07eb35	0.033183295
26	0xbdce3dba	-0.10070367
27	0x3b9698bd	0.0045958445
28	0x3d369daf	0.044583973
29	0x3dcb2002	0.099182144
30	0x3dcd436f	0.100226276
31	0x3d15c79d	0.03656732
32	0xbd4809a6	-0.048837326
33	0x3d7e80d4	0.06213458
34	0xbc90eef3	-0.017692065
35	0x3d5638c0	0.052300215
36	0xbdc93c3e	-0.098259434
37	0x3d50a85b	0.050941806
38	0x3dd37569	0.103251286
39	0xbd0d0068	-0.034424216
40	0xbccea808	-0.025226608
41	0x3dbb2af2	0.091390505
42	0x3d9df8a7	0.07713442
43	0x3db4e47f	0.08832645
44	0xbdae62e7	-0.08514958
45	0xbdb4d678	-0.08829969
46	0x3cea5376	0.02860425
47	0xbd871893	-0.06596484
48	0xbce1d4c9	-0.027567284
49	0x3db9102f	0.0903629
50	0x3d90d1dc	0.070712775
51	0xbd32c0ec	-0.043641016
52	0xba6c6329	-0.00090174616
53	0x3bf378fb	0.0074301935
54	0x3d7dab08	0.061930686
55	0xbde88851	-0.11354125
56	0x3d69fbc4	0.057124868
57	0x3dba48d0	0.09095919
58	0x3d52cafc	0.051463112
59	0xbde6ce23	-0.11269786
60	0x3db00049	0.085938044
61	0xbe15a6f0	-0.14614463
62	0x3db33e93	0.087521695
63	0x3d8d6e10	0.069057584
64	0x3e0f9a7f	0.1402378
65	0x3df2c770	0.11854446
66	0xbd1c92a5	-0.03822579
67	0x3d558e79	0.052137826
68	0x3d0f977d	0.03505658
69	0x3c3f81be	0.011688648
70	0xbd946b13	-0.07246985
71	0xbd5cc1c5	-0.05389573
72	0xbd847c81	-0.0646906
73	0x3da3c7b7	0.07997077
74	0x3e34d789	0.17660345
75	0x3d00cb4a	0.03144387
76	0xbd96aa1d	-0.07356665
77	0x3db5ca8a	0.08876522
78	0x3ca2552c	0.019816004
79	0xbd3b7106	-0.045762084
80	0xbc8bf249	-0.017083304
81	0x3b1779f8	0.002311347
82	0xbdab616f	-0.08368193
83	0x3d506d4f	0.050885495
84	0xbb09a490	-0.0021002628
85	0xbc699381	-0.014256359
86	0x3cd14119	0.025543736
87	0x3d1cbba2	0.038264878
88	0xbda2c537	-0.07947772
89	0xbbefde2b	-0.0073201857
90	0x3d6b9bf8	0.05752179
91	0xbd16ec28	-0.03684631
92	0x3e09a874	0.13443166
93	0x3d3736a5	0.044729847
94	0xbd9dc414	-0.077034146
95	0xbdc75130	-0.09732282
96	0x3dbdda0c	0.09270105
97	0xbd948e9a	-0.072537616
98	0x3b1a0978	0.002350418
99	0x3d55ca78	0.052195042
100	0xbd99fa30	-0.075184226
101	0xbd346cb9	-0.044049
102	0x3e01d92a	0.12680498
103	0xbd993778	-0.07481283
104	0x3ce45dfd	0.027876848
105	0x3cfcb1ca	0.030846495
106	0x3d2614ae	0.040547065
107	0x3dfb75a6	0.12278299
108	0xbda2d05a	-0.07949896
109	0x3c6c57cd	0.01442523
110	0x3dd3e880	0.1034708
111	0x3de152b3	0.11002102
112	0x3d9816a4	0.07426193
113	0xbd81943e	-0.06327103
114	0xbdefd0f2	-0.11709775
115	0xbcc5bbc8	-0.024137393
116	0xbde8831a	-0.11353131
117	0xbb9fdda1	-0.004878715
118	0x3cbc71a1	0.023003401
119	0xbdf1f3dc	-0.118140906
120	0x3dd5d941	0.104418285
121	0x3d6c996c	0.057763502
122	0x3d56ca82	0.05243922
123	0x3d2d65dd	0.042333473
124	0x3d8474c4	0.06467584
125	0xbd25a96a	-0.04044477
126	0xbd9cfcbf	-0.07665395
127	0x3ddd935d	0.10819123
128	0xbbea77ef	-0.0071554105
129	0xbdf78101	-0.120851524
130	0xbda228b1	-0.079179175
131	0xbdeb853a	-0.1150002
132	0xbd6289e4	-0.055307284
133	0xbd7d2e9d	-0.061812032
134	0x3da8db4b	0.08244952
135	0x3dc77a9e	0.09740184
136	0xbc2edb46	-0.010672396
137	0xbd8dd503	-0.069253944
138	0x3c9b9d77	0.018995984
139	0x3d97b609	0.07407767
140	0x3d18b7ce	0.037284665
141	0x3d94efb9	0.07272286
142	0x3dc67c04	0.09691623
143	0xbda7ef20	-0.08199906
144	0xbd91d669	-0.071209736
145	0x3da6c14f	0.081423394
146	0xbc4e5139	-0.012592607
147	0xbd9f78a5	-0.07786683
148	0xbc693034	-0.014232684
149	0x3d4ca738	0.04996416
150	0xbd868795	-0.06568829
151	0xbcd38fed	-0.025825465
152	0xbb2028cb	-0.0024438377
153	0xbd36a29e	-0.044588678
154	0xbd9be0e0	-0.07611251
155	0xbc856630	-0.016284078
156	0xbdb6c8cc	-0.08925018
157	0xbd9ab147	-0.07553344
158	0x3d93df48	0.07220322
159	0xbca27bbf	-0.019834397
160	0xbc953a67	-0.018216325
161	0x3ca7b7c6	0.020473372
162	0xbd155424	-0.036457196
163	0x3d7e9aeb	0.06215946
164	0xbc4db32e	-0.012554927
165	0xbb6884f4	-0.0035479637
166	0xbdb9fc1e	-0.09081291
167	0x3ddef8d4	0.10887304
168	0x3c96fdca	0.018431563
169	0xbdd98a52	-0.10622086
170	0x3e138874	0.14407521
171	0x3d69df1e	0.057097547
172	0xbc8eeaf1	-0.017446013
173	0x3daf247e	0.08551882
174	0x3a8f23ce	0.0010920705
175	0x3dd9a51a	0.10627194
176	0xbdb5a064	-0.08868483
177	0xbd018ca1	-0.031628255
178	0xbd5b8fd3	-0.05360396
179	0xbd81f21e	-0.06345008
180	0xbde06b1a	-0.10957928
181	0xbd852e1c	-0.06502935
182	0x3d3840ec	0.04498379
183	0x3cba2e8c	0.022727273
184	0x3d4f0952	0.050545998
185	0x3d84dee7	0.06487828
186	0xbcc34e85	-0.023841152
187	0xbb85f830	-0.004088424
188	0xbdcb049f	-0.09912991
189	0x3c440a4d	0.0119653465
190	0x3c84fbb4	0.016233303
191	0xbdb7413e	-0.08947991
192	0x3d81c933	0.06337204
193	0xbd9da582	-0.07697584
194	0xbd2f08a5	-0.042732853
195	0x3d0b5742	0.034018762
196	0xbdaab514	-0.08335319
197	0x3dae2f6d	0.085051395
198	0xbce2b772	-0.027675364
199	0xbc510954	-0.012758572
200	0x3dada4ed	0.08478723
201	0x3d600693	0.05469377
202	0x3a73c46f	0.0009298985
203	0xbd5548e4	-0.052071467
204	0xbbd4400e	-0.0064773625
205	0xbdd8d70d	-0.10587893
206	0xbd174701	-0.03693295
207	0xbde38f47	-0.11111312
208	0xbd162fa6	-0.036666535
209	0x3d1f9a75	0.03896566
210	0xbab4e7c3	-0.001380198
211	0xbce54ecf	-0.02799168
212	0x3c3a64de	0.011376588
213	0xbd965e16	-0.07342164
214	0xbd9c8a3c	-0.076435536
215	0xbd87697b	-0.06611916
216	0x3dc55eed	0.09637246
217	0xbde03e94	-0.10949436
218	0x3dc793a5	0.09744958
219	0xbc214067	-0.009842015
220	0xbd13e52a	-0.03610722
221	0x3ca9cbd6	0.02072708
222	0x3d718d11	0.058972422
223	0x3cdecf97	0.027198596
224	0xbc08ecd6	-0.008357247
225	0xbd2a9c62	-0.041653045
226	0xbe136012	-0.14392117
227	0x3a06a7a7	0.00051366765
228	0xbd34f9b9	-0.044183467
229	0x3d86254c	0.065500826
230	0xbdc4065a	-0.09571524
231	0x3c5d17e1	0.013494463
232	0x3c80f14e	0.015740063
233	0x3dcffc71	0.10155571
234	0xbdb78565	-0.0896099
235	0x3d3243a4	0.04352154
236	0x3ca7347d	0.02041077
237	0xbdf76805	-0.12080387
238	0x3d71d12d	0.059037376
239	0x3d73a477	0.059483018
240	0xbc96d9e4	-0.018414445
241	0xbb228ea1	-0.0024804252
242	0xbd447950	-0.047967255
243	0xbd079e20	-0.033109784
244	0x3dc42106	0.09576611
245	0x3d96df20	0.073667765
246	0xbdaca311	-0.0842954
247	0xbd19663f	-0.037451025
248	0xbd06555a	-0.03279624
249	0xbcb703cc	-0.022340678
250	0x3d55e665	0.052221674
251	0xbd71dd7a	-0.059049107
252	0x3d9afa1e	0.07567237
253	0xbddb5495	-0.10709492
254	0x3da32f92	0.07968058
255	0x3d24ff72	0.040282674

sequential_2/conv2d_4/Conv2D f4 [64, 2, 2, 64]
0	0xbda52744	-0.0806413
1	0x3d470675	0.048590142
2	0x3d60d82e	0.054893665
3	0xbd82cf50	-0.06387198
4	0xbc3153c6	-0.010823196
5	0xbcf54362	-0.029939357
6	0xbc6fcab0	-0.014635727
7	0x3d992154	0.0747706
8	0x3d182b26	0.037150525
9	0xbda4420c	-0.0802041
10	0xbdd30022	-0.1030276
11	0x3d72721f	0.059190866
12	0xbcadd942	-0.02122176
13	0xbd602e07	-0.054731395
14	0x3c8c5f8a	0.0171354
15	0x3d804546	0.06263213
16	0xbdd66dd6	-0.10470168
17	0xbc8d3f4f	-0.017242102
18	0xbb66a49c	-0.003519333
19	0x3cf6bbe9	0.0301189
20	0x3d589da3	0.05288471
21	0x3d7441d1	0.05963308
22	0x3d84b1f3	0.064792536
23	0x3d8cd15e	0.06875871
24	0xbd4bb4fd	-0.04973315
25	0xbd6981b7	-0.05700847
26	0x3ba20931	0.0049449434
27	0x3e1453d5	0.14485104
28	0xbd8042cf	-0.06262743
29	0xbd1f65d8	-0.038915485
30	0x3dbfa790	0.09358132
31	0x3d90e6b6	0.070752546
32	0xbdf16981	-0.117877014
33	0x3e0c4387	0.13697635
34	0x3e0e06f1	0.13869835
35	0xbc98740c	-0.018610023
36	0xbd14c48b	-0.03632025
37	0x3de19c0a	0.1101609
38	0x3da59549	0.080851145
39	0x3d83493d	0.064104535
40	0xbd903f8f	-0.07043373
41	0x3de01994	0.10942379
42	0xbdd0bafe	-0.10191916
43	0x3d84d773	0.06486406
44	0x3dec260c	0.11530694
45	0x3cf8a043	0.030349856
46	0xbd6785ac	-0.056523964
47	0x3d5e8178	0.05432269
48	0xbddc7c1b	-0.10765859
49	0x3d3601c6	0.044435285
50	0xbd8ac375	-0.06775562
51	0x3dd24244	0.102665454
52	0xbdb6c706	-0.089246795
53	0xbcc607d6	-0.024173658
54	0xbc029950	-0.007971123
55	0x3d0759f0	0.033044755
56	0xbda7b679	-0.08189101
57	0xbdab0fe7	-0.083526425
58	0x3ccfad33	0.025351143
59	0xbd0f6a46	-0.03501346
60	0xbd5c6004	-0.053802505
61	0x3bf877de	0.0075826487
62	0x3d97a365	0.07404212
63	0x3d90ca12	0.07069792
64	0x3df532a6	0.11972551
65	0xbd9b2177	-0.07574742
66	0x3dc5e0e1	0.09662033
67	0x3d3c13ef	0.045917448
68	0x3d638aab	0.055552166
69	0xbc34ae9d	-0.011027959
70	0x3daa9781	0.08329678
71	0x3d1860ee	0.037201814
72	0xbca26d4b	-0.019827506
73	0xba2d64a4	-0.0006614423
74	0xbd5f8067	-0.054565813
75	0x3db9c4a1	0.09070707
76	0xbcc17f27	-0.023620201
77	0x3decc602	0.115612045
78	0x3e050200	0.12989044
79	0xbcf4a791	-0.029865058
80	0xbd84435e	-0.06458162
81	0x3d954297	0.07288092
82	0x3c822a2f	0.015889255
83	0xbcd793d9	-0.026315616
84	0x3dca1aed	0.09868417
85	0x3db1116b	0.086459
86	0xbd1fbd70	-0.03899902
87	0xbd18b4c0	-0.03728175
88	0xbd0869a3	-0.033303868
89	0xbdbb71a7	-0.09152537
90	0x3dff9c55	0.1248099
91	0x3e3c5cd8	0.18394792
92	0x3df6a215	0.120426334
93	0x3d9529a2	0.072833315
94	0x3d8c648c	0.06855115
95	0xbcc4cb11	-0.02402261
96	0x3db65e19	0.089046665
97	0x3e3d3e45	0.18480785
98	0x3e17b614	0.14815551
99	0x3d944abb	0.07240816
100	0x3d82fdb5	0.06396047
101	0xbc9cc6a6	-0.019137692
102	0x3d4878e3	0.04894341
103	0x3bcf224f	0.0063212286
104	0xbe0b6b02	-0.13615039
105	0x3d61b653	0.05510552
106	0x3d1a6d94	0.037702158
107	0x3db70b0c	0.08937654
108	0xbd84fddf	-0.064937346
109	0x3cb2d236	0.021828752
110	0x3d1e3838	0.038627833
111	0x3cdc288a	0.0268748
112	0xbd20e596	-0.03928145
113	0x3d86c93d	0.06581352
114	0x3e0f9c94	0.14024574
115	0x3dbd8a07	0.09254842
116	0x3d6ad77e	0.057334416
117	0x3d5ffffa	0.054687478
118	0x3df46281	0.11932851
119	0x3c83bb4f	0.016080527
120	0xbbd2096f	-0.006409816
121	0x3d347a6e	0.04406207
122	0xbd66bacb	-0.056330483
123	0x3d2b2365	0.0417818
124	0x3db4b23d	0.08823059
125	0x3ddf7145	0.10910276
126	0x3c806c35	0.015676597
127	0xbd89de6f	-0.06731879
128	0x3d21a98d	0.039468337
129	0x3d46d217	0.0485402
130	0xbcc9eb45	-0.024648318
131	0xbd6c9072	-0.05775494
132	0x3d15841d	0.036502946
133	0xbc60fc8f	-0.01373209
134	0x3caa46a0	0.02078563
135	0xbd06eee3	-0.032942664
136	0x3dad42a7	0.084599786
137	0x3dc48ac6	0.095967814
138	0xbdd9c8f4	-0.10634032
139	0x3cff6335	0.031175235
140	0xbdaa7fc9	-0.08325154
141	0xbb72d7dc	-0.0037054932
142	0x3d94b0e7	0.07260304
143	0xbdab2fe7	-0.08358746
144	0x3b8d97e8	0.004321087
145	0xbcddd306	-0.027078163
146	0x3dd7b264	0.10532072
147	0xbdb806b6	-0.08985655
148	0xbde1f3a1	-0.11032797
149	0x3b0ee1e7	0.0021802129
150	0x3d8e79b0	0.06956804
151	0xbbe2f92c	-0.0069266763
152	0x3d7b6c74	0.061382726
153	0x3da3855f	0.07984423
154	0x3dac18b9	0.08403153
155	0x3df8ca9d	0.121480204
156	0x3c9285fe	0.017886158
157	0x3dd3d5fe	0.1034355
158	0xbca02768	-0.01955004
159	0xbdbd1692	-0.092328206
160	0xbd94368f	-0.07236969
161	0x3dc87a59	0.09788961
162	0x3d543c9f	0.051815625
163	0xbd9d7493	-0.076882504
164	0x3d4c7325	0.049914498
165	0x3c6160f4	0.013756026
166	0xbdb8921a	-0.09012242
167	0xbd09e429	-0.033664856
168	0x3d859495	0.065224804
169	0xbd3e2e13	-0.04643066
170	0x3cbe8dc8	0.023260966
171	0x3d86a40f	0.065742604
172	0xbd631ceb	-0.0554475
173	0x3dc3cdad	0.09560714
174	0x3dde0b8a	0.10842045
175	0x3cb7ed23	0.022451943
176	0xbd5b6bb8	-0.053569525
177	0xbbb0831c	-0.005386723
178	0x3cf8b429	0.030359345
179	0x3bf73de3	0.0075452193
180	0x3d9dbd08	0.077020705
181	0x3d19c51c	0.037541494
182	0x3b52eac2	0.0032183384
183	0xbbc87d6f	-0.0061184685
184	0xbdb21dfc	-0.08697125
185	0xbb252782	-0.002520055
186	0x3d08b08c	0.033371493
187	0xbc8aaba4	-0.016927548
188	0xbd32d010	-0.043655455
189	0xbd2ab091	-0.041672293
190	0xbb784fbf	-0.003788933
191	0xbd642146	-0.055695795
192	0xbdaef072	-0.08541955
193	0x3da2fe89	0.07958705
194	0xbd8ca202	-0.06866838
195	0xbdee9f2c	-0.116514534
196	0xbd2bf8bc	-0.04198526
197	0x3d5925c7	0.053014543
198	0x3bedbf9c	0.0072555076
199	0x3d3ce5ac	0.04611747
200	0x3d89eb55	0.06734339
201	0xbd5ade13	-0.053434443
202	0xbd75af33	-0.059981536
203	0x3d73d09d	0.05952512
204	0xbca57838	-0.020198926
205	0x3d30a7f0	0.043128908
206	0x3cd73262	0.026269142
207	0x3da083ef	0.07837664
208	0x3da3e110	0.08001912
209	0xbd854e3b	-0.06509062
210	0x3da774e0	0.08176589
211	0x3d9eefe5	0.077606
212	0x3d2db5fd	0.042409886
213	0x3debc8f5	0.11512939
214	0xbd9d587d	-0.076828934
215	0x3c344289	0.011002191
216	0x3d964a6d	0.07338414
217	0x3df11bb0	0.11772859
218	0xbd93e3e3	-0.072212
219	0xbca62d0a	-0.020285148
220	0xbd39a0d0	-0.04531938
221	0xbd5581e7	-0.052125838
222	0xbcd4d62d	-0.025981033
223	0x3d8db603	0.069194816
224	0x3d0c018a	0.034181155
225	0x3d7ae8a0	0.061257005
226	0xbd08a4e7	-0.033360388
227	0xbc27a87f	-0.010233044
228	0xbda8384d	-0.082138635
229	0xbdb4ec0d	-0.088340856
230	0xbaf66380	-0.0018797964
231	0xbc38def4	-0.011283625
232	0x3dbd83e5	0.092536725
233	0xbd8c0055	-0.06836001
234	0xbbd36cdd	-0.0064521865
235	0x3da324fd	0.07966039
236	0x3d333d09	0.04375938
237	0x3d95476b	0.072890125
238	0xbd42e3ff	-0.047580715
239	0xbb34cb1a	-0.0027586878
240	0xbda62665	-0.08112792
241	0xbdf539c0	-0.119739056
242	0x3dda515a	0.10660048
243	0x3c34816d	0.011017186
244	0xbd166af5	-0.036723096
245	0xbdda3a43	-0.10655644
246	0xbd1ec5ee	-0.03876298
247	0x3ce48e37	0.027899845
248	0x3d76eb9b	0.060283285
249	0xbdd5839a	-0.10425492
250	0xbd7e46fd	-0.06207942
251	0xbd106610	-0.035253584
252	0x3d6fe82b	0.058571022
253	0x3d3cb5dd	0.046071876
254	0x3d8c598b	0.068530165
255	0xbda15e8f	-0.07879364

sequential_2/conv2d_5/Conv2D f4 [64, 2, 2, 64]
0	0xbc526b92	-0.01284303
1	0x3d8a9456	0.06766574
2	0xbdb9a240	-0.0906415
3	0xbd1edacf	-0.03878289
4	0xbdc2f07c	-0.09518525
5	0x3d164c3f	0.036693808
6	0x3d612200	0.054964066
7	0x3d993b46	0.07482009
8	0x3d31994f	0.043359097
9	0xbd5494e8	-0.05189982
10	0xbd93ef0c	-0.07223329
11	0xbd7835c9	-0.06059817
12	0x3ba554aa	0.005045493
13	0xbdddbd72	-0.108271495
14	0x3d4fe81f	0.050758477
15	0xbd9d3c63	-0.076775335
16	0x3d0c15e5	0.034200568
17	0x3d480a86	0.04883816
18	0x3dc4cdcb	0.096095644
19	0x3d74a01c	0.059723005
20	0x3dc1e854	0.09468141
21	0x3d73f294	0.059557512
22	0x3d94f057	0.07272404
23	0xbd9f9c1a	-0.07793446
24	0x3dd586c6	0.104260966
25	0x3d9fa0a3	0.07794311
26	0xbde0c49a	-0.10974999
27	0x3db6cc1e	0.08925651
28	0x3db63faa	0.08898862
29	0xbca11d1d	-0.019667203
30	0xbcb47609	-0.02202894
31	0x3cf6144d	0.030038977
32	0x3d9a8a17	0.0754587
33	0xbdc99505	-0.09842876
34	0xbd8893b4	-0.06668797
35	0xbd748fca	-0.05970744
36	0xbdba4378	-0.090949
37	0x3d0012ea	0.031268038
38	0xbd093f1a	-0.033507444
39	0xbd4bb168	-0.049729735
40	0x3d5de0a6	0.05416932
41	0xbc6fdfc1	-0.014640749
42	0x3df72f36	0.12069552
43	0xbdb178a8	-0.086655915
44	0x3d21d4bf	0.03950953
45	0xbcb32285	-0.021867046
46	0xbdb5a71b	-0.088697635
47	0xbce217ed	-0.0275993
48	0xbd9c9c7a	-0.07647033
49	0x3d918865	0.07106093
50	0xbdc54a27	-0.09633284
51	0xbd95fb9d	-0.07323382
52	0xbde22e26	-0.11043958
53	0xbd24eafa	-0.040263154
54	0xbcf23505	-0.029566297
55	0xbca400b9	-0.020019876
56	0xbd870f84	-0.06594756
57	0x3d84c919	0.06483669
58	0xbd7f326d	-0.06230395
59	0xbd5c1672	-0.053732343
60	0x3d3e7535	0.046498496
61	0x3d5fb672	0.054617353
62	0xbb466960	-0.003027521
63	0x3de86af0	0.11348522
64	0xbd631c53	-0.055446934
65	0x3c672da6	0.0141100045
66	0x3c524546	0.012833899
67	0x3d93deda	0.0722024
68	0x3db2d805	0.08732609
69	0x3d9c376b	0.07627758
70	0xbcfbe36d	-0.030748094
71	0x3b89f791	0.0042104204
72	0xbd0aa3ce	-0.033847623
73	0x3d15326a	0.03642503
74	0x3d888fef	0.06668078
75	0xbda942a0	-0.08264661
76	0xbd7c22d0	-0.061556637
77	0xbd46d183	-0.04853965
78	0x3caa7ba6	0.020810913
79	0x3d1915f3	0.037374448
80	0xbdc95a8f	-0.09831726
81	0xbd304eab	-0.043043774
82	0xbdadd71d	-0.08488295
83	0x3cbaff6b	0.02282687
84	0x3d57c212	0.052675314
85	0x3c56ee22	0.013118299
86	0x3d7832ec	0.060595438
87	0xbd326eb5	-0.04356261
88	0x3d3f5086	0.046707653
89	0x3d94dcb4	0.07268658
90	0xbda6367e	-0.08115862
91	0x3d81004b	0.06298884
92	0xbb9989b1	-0.0046856035
93	0x3d9db20c	0.07699975
94	0x3cc7ebef	0.024404494
95	0xbc882407	-0.016618742
96	0x3db66cb2	0.08907451
97	0x3d2d393f	0.042290922
98	0x3dac4cfe	0.084131226
99	0xbd900efb	-0.07034107
100	0x3d93f318	0.07224101
101	0x3d90e888	0.07075602
102	0xbdd29626	-0.10282545
103	0x3d187a51	0.037226025
104	0xbd93a958	-0.07210034
105	0x3dfeeb62	0.124472395
106	0x3c9e09b7	0.019291742
107	0xbdb4ba34	-0.08824578
108	0x3d891cf6	0.06694977
109	0xbd2d4b4b	-0.042308133
110	0x3c085421	0.008320839
111	0xbdcea5fc	-0.10090253
112	0x3da1332e	0.0787109
113	0x3d5ac34c	0.053408906
114	0x3d68c51a	0.056828596
115	0x3dd22992	0.10261835
116	0xbd1450cb	-0.036209863
117	0x3cae0b29	0.021245556
118	0xbc3d1b7b	-0.011542196
119	0xbd91f08e	-0.0712596
120	0xbd89efe1	-0.067352064
121	0x3ba7b624	0.0051181484
122	0x3dae6613	0.08515563
123	0xbdd53f8a	-0.1041251
124	0xbd7e5cb8	-0.062100142
125	0xba1f77e8	-0.0006083236
126	0x3d93cb45	0.07216505
127	0x3d734820	0.059394956
128	0x3ce928d7	0.028461857
129	0x3dfd1ddf	0.12359213
130	0xbd8bcdb0	-0.06826341
131	0xbd79e6d8	-0.061011165
132	0x3dd9ae4a	0.10628946
133	0xbdcee2da	-0.10101862
134	0x3d87a431	0.06623114
135	0x3c8657d5	0.016399303
136	0x3deb2c95	0.11483113
137	0x3df56c93	0.119835995
138	0xbd7b913d	-0.061417807
139	0xbdf08942	-0.1174493
140	0xbd64ed8e	-0.055890612
141	0x3dad5296	0.08463018
142	0xbd8fb31e	-0.07016586
143	0xbda7a49d	-0.08185694
144	0x3de74df8	0.11294168
145	0xbcbdbba5	-0.023160765
146	0x3d59eb4d	0.053202916
147	0xbdbe6978	-0.0929746
148	0xbd6e7e3e	-0.058225863
149	0xbb6ff181	-0.0036612453
150	0xbd96e992	-0.07368769
151	0xbb0de726	-0.0021652668
152	0x3da9c188	0.08288866
153	0xbdc481c9	-0.09595067
154	0x3ccb7570	0.024836272
155	0xbd5d47f2	-0.05402369
156	0x3c91e192	0.017807756
157	0xbd5956d2	-0.053061314
158	0xbd320458	-0.043461174
159	0x3df88b2c	0.1213592
160	0x3d947087	0.072480254
161	0xbd8eb2e5	-0.06967715
162	0xbd0298f5	-0.031884152
163	0xbdc2fdad	-0.09521041
164	0xbdbd69e1	-0.092487104
165	0x3d9c0a1a	0.07619114
166	0xbde2264e	-0.11042462
167	0xbd4e973e	-0.050437205
168	0x3dc80f6e	0.09768568
169	0xbd4d891e	-0.050179593
170	0xbd944705	-0.072401084
171	0xbd12ee07	-0.03587153
172	0xbde96e68	-0.113980114
173	0x3da85dee	0.08221041
174	0xbdbc2094	-0.09185901
175	0xbda8c59a	-0.082408145
176	0xbd841e11	-0.06451047
177	0xbc4d068a	-0.012513766
178	0x3d8ece8a	0.06972988
179	0xbd23408c	-0.03985648
180	0x3c291b4a	0.010321448
181	0xbdbcde78	-0.0922212
182	0xbdd35ad6	-0.1032006
183	0x3d810242	0.06299259
184	0x3d773757	0.06035551
185	0x3d9e097e	0.07716654
186	0xbc0dc23a	-0.008652264
187	0xbd8df556	-0.0693156
188	0x3c8b8bf5	0.01703451
189	0xbd0fd2fe	-0.035113327
190	0xbd9096b1	-0.07059992
191	0xbcca1ffa	-0.02467345
192	0x3d9d5d6a	0.07683833
193	0xbd9b957f	-0.075968735
194	0xbdb6d689	-0.08927638
195	0xbe0c19a0	-0.1368165
196	0x3d1bf029	0.03807083
197	0xbd99826f	-0.07495581
198	0x3dffa367	0.124823384
199	0x3d07a411	0.03311545
200	0xbcbe03b0	-0.023195118
201	0x3c9e4281	0.01931882
202	0xbbe7dc48	-0.00707582
203	0xbd38e919	-0.045144174
204	0x3d735475	0.059406716
205	0xbdde5e26	-0.10857801
206	0x3d7c6f7f	0.06162977
207	0xbd76a769	-0.06021825
208	0xbde1f796	-0.110335514
209	0xbd8db359	-0.069189735
210	0xbc21244f	-0.009835317
211	0xbd496711	-0.049170557
212	0xbcd4f2db	-0.025994709
213	0xbd380c93	-0.044933867
214	0xbd430805	-0.04761507
215	0x3da84713	0.08216681
216	0xbd2f0e76	-0.0427384
217	0xbe37fa9e	-0.17966697
218	0x3cdec70a	0.027194519
219	0x3d1469af	0.0362336
220	0x3db5b28d	0.088719465
221	0x3d9055dc	0.070476264
222	0xbd450b32	-0.04810638
223	0x3de37429	0.1110614
224	0xbc8c6a03	-0.017140394
225	0x3d1d14a0	0.038349748
226	0x3da19ae4	0.07890871
227	0xbe2cd50d	-0.16878147
228	0x3d03259a	0.03201828
229	0xbdcd0bd3	-0.10012021
230	0xbe3c92d0	-0.1841538
231	0xbd13b0e4	-0.036057368
232	0x3d3cff1f	0.04614174
233	0x3c5be052	0.013420181
234	0xbd892977	-0.06697362
235	0xbdde8c3a	-0.1086659
236	0xbc2db3ec	-0.010601979
237	0xbbc0337c	-0.0058655124
238	0xbd862efa	-0.06551929
239	0x3dd8206d	0.1055306
240	0x3d99c2d1	0.075078614
241	0xbe0af512	-0.1357005
242	0x3d15e23e	0.036592714
243	0x3c9d7e79	0.019225346
244	0x3e09c335	0.13453372
245	0x3c915d92	0.017744813
246	0xbd75efdb	-0.060043197
247	0xbe1ef880	-0.15524483
248	0xbd9e62f4	-0.077337176
249	0xbd9feac5	-0.078084506
250	0x3be0132c	0.006838223
251	0xbd9294ba	-0.071572736
252	0xbd2ec449	-0.04266766
253	0xbc68a70f	-0.014199986
254	0xbcfd4402	-0.030916218
255	0xbd8de445	-0.069283046
