exports/grape_isariopsis_leaf_spot.tflite (tflite, 485128 bytes, 16 tensors)

sequential_2/conv2d/Relu;sequential_2/conv2d/BiasAdd;sequential_2/conv2d_5/Conv2D;sequential_2/conv2d/Conv2D;sequential_2/conv2d/BiasAdd/ReadVariableOp f4 [64, 1, 1, 3]
000000 01 d7 2f 3a e8 81 21 ba 47 38 fc 39 1d 27 1a ba
       0.00067077583 -0.000616102 0.00048107115 -0.0005880462
000010 73 7b 63 38 b0 4e 86 3a 98 12 83 ba 00 1f 3a b8
       5.423599e-05 0.0010246839 -0.0010000048 -4.4374727e-05
000020 16 bc 4e ba d6 34 58 39 e0 63 c9 38 37 98 03 ba
       -0.00078863034 0.00020619048 9.60303e-05 -0.0005019935
000030 77 df 6f 38 63 12 90 38 86 c5 6a 3a b9 db 45 3a
       5.719016e-05 6.86988e-05 0.0008955825 0.0007547695
000040 2a 07 81 ba ba a1 23 3a 44 5d d9 39 36 7b 94 37
       -0.0009844054 0.00062420557 0.00041458954 1.770035e-05
000050 e9 64 f8 b9 b8 87 0c 39 96 34 46 b9 5b 31 89 ba
       -0.0004737743 0.00013402 -0.00018902341 -0.001046698
000060 ea 5d e7 b9 ca 57 8d 3a 11 7d 90 ba ed 37 89 3a
       -0.00044129725 0.001078361 -0.0011023601 0.0010468938
000070 0b 87 98 38 96 81 9a 3a 5d e7 55 3a 38 ed 63 ba
       7.2730785e-05 0.0011787887 0.0008159781 -0.0008694711
000080 b0 f2 3b ba 6e b6 77 3a f9 fd 97 b9 22 86 8d ba
       -0.0007169647 0.00094494864 -0.0002899019 -0.0010797421
000090 25 96 94 b9 7f dd 6a 39 1d 13 53 ba 08 c0 9c b8
       -0.00028340626 0.00022398493 -0.00080518593 -7.474428e-05
0000a0 9c 12 94 ba 8f 79 86 3a 2c 09 e2 b8 86 a5 e9 b9
       -0.001129705 0.0010259616 -0.00010778228 -0.00044564548
0000b0 98 5b 6e 3a 22 5a 6b ba db a5 fc b9 ae f4 81 ba
       0.0009092628 -0.00089779694 -0.00048188758 -0.0009914839
0000c0 b9 f6 73 3a 29 2b 46 ba 27 c0 50 ba b4 3f 8d 3a
       0.0009306479 -0.0007559532 -0.0007963203 0.0010776431
0000d0 1c 70 49 b9 b6 a2 0f ba 24 7c 3f b9 e1 34 80 3a
       -0.00019210618 -0.0005479263 -0.00018261425 0.0009781384
0000e0 9d c3 3a ba d1 1a 3e ba 4a 2b 08 ba 58 a9 6a 39
       -0.00071244856 -0.0007251921 -0.0005194439 0.00022379064
0000f0 4b 7f f9 38 a3 a9 85 38 07 9c 63 ba 74 4f c9 39
       0.000118969554 6.3735315e-05 -0.00086826127 0.00038396905
000100 bb d2 84 3a dc 2b 6d ba a5 fb 83 ba 4c dd f1 39
       0.0010133603 -0.0009047368 -0.0010069503 0.0004613198
000110 1c 90 92 3a 61 1b de b8 7f e1 6f 3a 6a 25 e6 39
       0.0011181864 -0.000105908846 0.0009150728 0.00043896894
000120 5a da 20 b9 47 0c 4c 3a 08 27 d7 b8 e5 65 02 b9
       -0.00015340131 0.0007783812 -0.00010259269 -0.00012435725
000130 43 42 09 ba 92 c0 f5 39 17 9b 17 3a 5a be e4 39
       -0.0005236009 0.00046873518 0.0005783303 0.00043629372
000140 6f c5 63 3a cd 19 99 ba 97 3a 2f ba 64 0f d4 39
       0.00086887827 -0.0011680663 -0.0006684451 0.00040447258
000150 e2 f2 7b 3a a1 4a 3e ba d3 05 30 39 6c 66 37 3a
       0.00096110825 -0.00072590454 0.00016786838 0.0006996158
000160 1d 37 74 b9 ef 34 9d 3a 0e ae 58 ba 51 17 83 3a
       -0.00023290185 0.0011993925 -0.0008265682 0.0010001456
000170 c1 6f 63 38 9d 9f 63 3a c6 e6 69 ba 8c 8d 29 ba
       5.4225096e-05 0.0008683147 -0.00089226326 -0.00064679305
000180 68 22 91 3a 77 e6 2c 3a 33 b5 04 ba 3a 8c c9 b9
       0.0011072876 0.0006595621 -0.0005062401 -0.00038442184
000190 54 c6 46 3a 01 da 31 ba 89 ad 90 b7 b1 a7 e1 b9
       0.0007582654 -0.0006784499 -1.7246946e-05 -0.00043040284
0001a0 ba ab 83 b8 e3 d3 6b 3a ad e0 0e 37 6a 24 26 3a
       -6.278553e-05 0.0008996112 8.516171e-06 0.00063378236
0001b0 22 2f 89 ba 84 9b 42 39 fa 45 3b 3a cc 87 1f ba
       -0.0010466317 0.00018559216 0.0007143911 -0.0006085604
0001c0 36 84 3f 3a 30 52 96 3a ac ff 91 37 b4 5f 59 3a
       0.0007305773 0.0011468586 1.7404403e-05 0.0008292154
0001d0 7b 95 c5 b9 3d a5 35 ba 6c da 16 3a de 9d e5 39
       -0.0003768614 -0.00069292245 0.00057545933 0.00043795904
0001e0 a5 41 40 ba 40 54 41 3a 9d e5 93 ba 54 86 5b 3a
       -0.00073340005 0.000737492 -0.001128364 0.00083742035
0001f0 ee 52 64 b9 4f 67 39 b9 46 14 dc b9 69 70 d1 b7
       -0.00021774668 -0.0001768146 -0.00041976775 -2.4967087e-05
000200 fb e1 07 ba 92 ae 83 3a a3 5b 6e 3a 31 9d 08 b9
       -0.0005183515 0.0010046533 0.00090926344 -0.00013028529
000210 9b 1e 80 3a 93 1d c5 b9 8a c6 e4 b9 b3 33 03 ba
       0.0009774746 -0.00037596803 -0.00043635472 -0.0005004957
000220 29 90 14 3a 68 9c 7c 39 c6 1a 31 b9 ef a8 33 ba
       0.00056672335 0.00024090859 -0.0001689001 -0.0006853481
000230 43 f8 af 3a 3e ce 95 3a ad 70 0d ba d3 ef 3d ba
       0.0013425428 0.0011429263 -0.0005395513 -0.00072455144
000240 4d e9 ce b9 38 16 78 38 da 2c 1f ba bb 1e 73 3a
       -0.00039465204 5.91485e-05 -0.0006072052 0.00092742936
000250 76 b8 14 ba 6e 47 7e b9 31 45 5a 3a 6b b9 5b 3a
       -0.0005673239 -0.00024249937 0.00083263504 0.00083818164
000260 7c ae 8b 39 1e 2e 3b 3a 42 69 cd 39 2d 0a 26 3a
       0.00026642147 0.0007140356 0.0003917907 0.0006333914
000270 b4 a8 ea 39 04 02 1a 3a 63 70 93 ba d0 e5 06 39
       0.00044757652 0.0005874934 -0.0011248704 0.00012864848
000280 7b 85 6b b9 19 27 92 b8 16 42 16 b7 bb 58 d3 39
       -0.00022461072 -6.969105e-05 -8.956084e-06 0.00040311166
000290 1b 67 99 3a 95 20 52 ba 6f a4 37 ba cb 3e 89 ba
       0.0011703701 -0.00080157194 -0.00070053985 -0.0010470984
0002a0 82 5b 43 ba 39 53 90 3a 79 bc d3 b9 af 0a 27 ba
       -0.00074522954 0.001101113 -0.0004038548 -0.00063721364
0002b0 6b df e7 b9 3d 3e b8 39 db 95 1f 3a 3e 0e 4c 3a
       -0.00044226213 0.00035141586 0.0006087699 0.00077841047
0002c0 aa 3a 0c 3a f8 e2 3f 39 6b c9 ef b9 1f a7 ba 38
       0.0005349318 0.00018299732 -0.000457357 8.9003e-05
0002d0 3c b6 8a 39 a4 58 79 3a 61 d0 d3 39 46 b0 4d ba
       0.00026457186 0.00095118047 0.0004040031 -0.0007846396
0002e0 1f 7e 8a ba 91 4b 5f 3a 3f 31 6d ba f7 eb a8 b9
       -0.0010566151 0.0008518035 -0.0009048171 -0.00032219265
0002f0 7d 73 af 39 3d ec 87 b9 03 56 c5 b9 83 39 2b 39
       0.00033464647 -0.00025925218 -0.00037638852 0.00016329256

sequential_2/conv2d/BiasAdd/ReadVariableOp f4 [64]
000000 35 99 9a bb 1d ed c2 bc b7 bd b4 bb 0e 9b 9a 3c
       -0.0047179707 -0.023794705 -0.00551578 0.018872764
000010 3b bd 33 bc 4b 34 8b 3c 55 1b b5 bb ce 3f 21 bc
       -0.010970409 0.016992709 -0.00552694 -0.009841872
000020 41 ec b5 bc 4b e8 c0 bc 74 dd a3 3d e2 85 f3 3c
       -0.022207381 -0.023548266 0.08001223 0.029726926
000030 98 db f7 3c f5 1d 6f 3d 99 c7 cc bb 55 02 bb bb
       0.030256078 0.05837818 -0.00624938 -0.005707065
000040 d5 cb 7b 3d 32 ea 5c bb 84 cf 05 bc 97 a2 85 3d
       0.061473686 -0.0033708927 -0.008167151 0.06525152
000050 80 94 cb 3c 7b d1 4d bd 6e fc b5 bc 33 36 66 bd
       0.024851084 -0.050248604 -0.022215094 -0.056204032
000060 e9 0d 55 bd 87 e0 6c 3d ac d2 9b bc 3c 46 53 3d
       -0.05201522 0.057831313 -0.019021355 0.051580653
000070 a3 28 a6 3b 07 96 17 bc 8c 04 d5 bc 14 45 93 3d
       0.0050707622 -0.009252078 -0.026003145 0.0719091
000080 9f f2 a3 bb 0a 9e f1 3b 1d a6 cd bb 4c 03 d6 bc
       -0.005003288 0.007373576 -0.0062759058 -0.026124619
000090 6c e9 10 3d 0f dd 80 bc 67 be 0a bd 27 ee 57 bc
       0.03537886 -0.015730409 -0.033872988 -0.013179339
0000a0 fd 6d 7f 3c 19 f9 9e bc 0f 35 a1 bb 1c 7d 83 bc
       0.015590188 -0.019405888 -0.004919655 -0.016050868
0000b0 b2 78 21 bb 66 89 aa bc f5 5d 80 bb 28 c9 a4 3c
       -0.002463859 -0.02081747 -0.0039174506 0.02011545
0000c0 8f 09 eb bb a0 7a 44 3c 83 b0 41 bc 88 74 ab bc
       -0.0071727703 0.011992127 -0.011821869 -0.02092959
0000d0 3a 5f 32 3b ae 23 61 3c 3f fb d5 bc f2 35 ab bb
       0.0027217404 0.013741417 -0.02612078 -0.0052249366
0000e0 85 6b 88 3c b6 a4 a6 bc d8 a7 88 bc 9d 0e 30 3d
       0.016652832 -0.020342212 -0.016681597 0.042982686
0000f0 26 f1 b1 bc 1e 86 41 bc 94 a7 42 bc db 15 73 3d
       -0.021721434 -0.011811761 -0.011880774 0.059347015

sequential_2/conv2d_1/BiasAdd/ReadVariableOp f4 [64]
000000 50 20 b4 bb ba 99 9e bc 05 7a 77 bb c1 e9 63 bc
       -0.005497016 -0.019360412 -0.0037761938 -0.013910712
000010 9f d4 5e bc f8 c5 f3 bb 56 7c 3e bc e9 24 bf bb
       -0.0136004975 -0.007439371 -0.011626324 -0.0058332575
000020 8a de 39 bc 14 2f 45 3c 17 e5 83 ba 44 ff d9 bc
       -0.011344561 0.01203515 -0.0010062781 -0.026610978
000030 29 b0 af bc 44 2d ae 3c 6b f2 e1 3a d0 73 72 3d
       -0.021446304 0.021261819 0.0017238384 0.05919248
000040 05 05 c7 ba 02 4a d7 3b 87 1f db 3b 75 90 11 3d
       -0.0015183991 0.0065701017 0.006687108 0.035538156
000050 c5 34 a4 bb a8 1b 61 3c 91 6d 43 3b 2a 33 50 b9
       -0.0050111734 0.013739504 0.0029819945 -0.00019855486
000060 aa c6 bf ba 08 b2 55 bb 44 b4 27 3c 6d 3c 95 bc
       -0.001463135 -0.0032607336 0.01023585 -0.01821729
000070 3f 86 03 bc 0f b6 97 3a d8 f8 ab 3c dd b1 37 3c
       -0.008027612 0.0011574643 0.020992681 0.0112118395
000080 03 d9 40 bb d3 1d a3 3b 54 bb d8 3b dd 65 b8 39
       -0.0029426224 0.0049779206 0.006614128 0.0003517111
000090 c4 1f 71 3b db 00 9e 3c 05 4b a5 bc 76 9d e6 3c
       0.0036792615 0.019287517 -0.020177374 0.028151255
0000a0 fc f7 90 3a dd 05 00 bc 1b 0f 87 bc b1 12 e2 3b
       0.0011060233 -0.007813898 -0.016486695 0.006899201
0000b0 04 f9 45 3c c7 2e 14 3d f8 e9 a8 bc 83 f6 b4 3b
       0.012083296 0.036177423 -0.020619377 0.0055225505
0000c0 7d 7b 62 bc 81 ef 29 3b cd be 25 3a 23 55 5e bc
       -0.013823387 0.002593011 0.0006322682 -0.013570103
0000d0 d8 ac 61 bc 8c f1 a7 3b 95 4e d7 3c 90 97 d4 bb
       -0.013774119 0.00512523 0.026282588 -0.006487794
0000e0 a1 60 1c ba d2 a1 12 ba 9d ac a0 bb 4d fe 0b 39
       -0.00059653266 -0.0005593571 -0.0049033896 0.00013350807
0000f0 27 c5 f3 3b 87 ea 86 3c db 08 e7 bc db b1 82 3b
       0.007439274 0.016469253 -0.028202465 0.003988487

sequential_2/conv2d_2/BiasAdd/ReadVariableOp f4 [64]
000000 79 38 62 bc e6 9e d4 ba 68 5c ab bb 96 7e 5e bb
       -0.013807409 -0.0016221672 -0.0052295215 -0.0033949963
000010 d8 35 d9 bb 11 6d 3e bc 6f de 48 bc d4 1b 93 bc
       -0.006628733 -0.011622683 -0.012260064 -0.017957605
000020 48 0a dc 38 2d 1d 64 bc 4c 44 01 bc d0 2f d8 bb
       0.000104923325 -0.013922972 -0.007889818 -0.0065974966
000030 2b 56 05 bb e1 f6 78 bd ec 70 50 bc 70 31 9a bc
       -0.002034555 -0.060782317 -0.012722235 -0.018822402
000040 1f d6 9a bc 9a e8 bb bc 40 10 10 bc a3 96 b1 3c
       -0.018900929 -0.022938062 -0.008792937 0.021678274
000050 7a ea 99 bc 90 69 83 bc b2 6f 94 ba 05 b2 71 ba
       -0.018788565 -0.016041547 -0.0011324792 -0.00092199474
000060 bb 34 13 bd 68 0f 39 bb 73 53 e1 bb de 50 fc 3b
       -0.03593896 -0.0028237943 -0.006876403 0.00770007
000070 3d 88 7b bb 56 66 05 b9 ca a2 31 ba f5 d2 bd bc
       -0.0038380765 -0.00012721992 -0.00067762716 -0.023171881
000080 75 22 1c bc 36 38 07 bc 4e 4e 61 bc 5b 0f 5f 3a
       -0.0095297 -0.008253148 -0.013751579 0.0008509063
000090 8b 3c 27 bc d7 f0 6d 3b 39 a1 8c ba e9 86 8f 39
       -0.010207306 0.0036306882 -0.00107292 0.000273756
0000a0 41 fa a0 bc 61 27 fd b7 81 8a 7d bb 71 ad a3 bc
       -0.01965058 -3.0178287e-05 -0.003868729 -0.019980164
0000b0 06 48 f6 bb 58 b1 93 bc a8 3a 86 bc 10 59 de bc
       -0.00751591 -0.0180289 -0.016385391 -0.027142078
0000c0 ec e6 83 bc 79 00 ba bc e5 86 cd bc 67 74 d6 ba
       -0.016101323 -0.022705304 -0.025088737 -0.0016361595
0000d0 b9 18 16 3b 47 ce 6c bc 18 7b 62 bc 3c dc d2 3a
       0.002290292 -0.014453477 -0.013823293 0.0016087363
0000e0 19 fa 9a bc 3a 39 bd bb 29 e2 53 ba d5 94 5a bc
       -0.018918084 -0.005774644 -0.0008082712 -0.013341148
0000f0 46 cd f4 bb e5 b8 18 bd 51 00 e5 bb 80 14 4a bc
       -0.0074707596 -0.037285704 -0.006988563 -0.012333989

sequential_2/conv2d_3/BiasAdd/ReadVariableOp f4 [64]
000000 eb 03 2e bb 95 74 2a 3b 8a 43 a4 39 76 9b e0 bc
       -0.0026552628 0.002600943 0.00031330838 -0.02741788
000010 fe 2f 06 bc b9 1b 59 bc 89 91 37 bc 3f 27 21 bc
       -0.008190153 -0.0132512385 -0.011204132 -0.009836017
000020 f9 1a e4 bc 17 e0 ab bc c3 70 cf 3a ec c3 1e 3d
       -0.027844893 -0.020980878 0.0015826452 0.038761064
000030 f6 47 06 3b c9 14 9c 3b f6 b2 bf bb df 49 77 bc
       0.002048967 0.00476322 -0.005850191 -0.015093296
000040 87 76 4a 3c f0 34 8c bc 25 a3 8f bb 47 f7 78 3b
       0.012357361 -0.017115086 -0.004383462 0.0037989186
000050 3a 65 10 bc c0 71 d3 bb 02 22 bd bb 4d fd 0e 3d
       -0.008813197 -0.006452769 -0.0057718763 0.034909535
000060 91 d8 a5 bc 1d d8 d2 3b 45 98 82 bb 4b 55 13 ba
       -0.020244868 0.006434454 -0.003985437 -0.00056203146
000070 b8 65 4e bb 2f 32 67 3b ee 30 81 bb a5 b6 ad 3c
       -0.0031493735 0.0035277714 -0.0039426005 0.021205256
000080 dd 76 0f 3b a6 2f 9e bc 07 27 43 bb 5e 3a 17 3b
       0.0021890916 -0.01930983 -0.00297779 0.002307556
000090 45 b6 5d bc a3 ad 12 bc 38 d3 e8 bb 15 82 02 3b
       -0.013532226 -0.008952531 -0.0071052574 0.001991396
0000a0 ea 81 9c 3c 9c 63 8f bc 3d 13 b7 bc fe a3 51 bb
       0.019104917 -0.017503552 -0.02234804 -0.0031988616
0000b0 3a 8f 1d 3a 4c bf af bb 0a 74 d7 ba dd f8 5f bb
       0.0006010417 -0.0053633805 -0.001643778 -0.0034175434
0000c0 20 57 85 bb ba 1f 22 bc f8 14 19 bc 09 33 96 bc
       -0.004069224 -0.0098952595 -0.009343378 -0.018334882
0000d0 0f b1 2c bd e5 15 c8 3b c8 95 12 bc 83 14 66 bb
       -0.042161044 0.0061061257 -0.008946843 -0.003510744
0000e0 35 5c 91 ba 3f 6d bb 3a 12 ce 9f ba c0 33 4e 3d
       -0.0011090102 0.0014299526 -0.0012192151 0.05034232
0000f0 51 3f 74 3d 3c 4d 64 bc 36 b2 a0 3a 84 8b 1e bc
       0.059630696 -0.01393443 0.0012260142 -0.009676818

sequential_2/conv2d_4/BiasAdd/ReadVariableOp f4 [64]
000000 e1 01 f7 3b 78 25 72 3d 6d ee cc bb cb fc 07 bd
       0.007538066 0.059117764 -0.0062540085 -0.033200067
000010 29 88 02 3c 57 20 37 bc a2 91 60 3c dd ee 28 3c
       0.007967033 -0.011177144 0.013706597 0.010310856
000020 f6 87 9c bc 1f 19 2f 3c 81 27 c3 3b 18 a1 45 3c
       -0.0191078 0.010687142 0.005955637 0.0120623335
000030 7c 40 94 3b 15 70 0b 3c 69 d0 26 3b f1 a1 c2 ba
       0.0045242887 0.008510609 0.0025453812 -0.0014849288
000040 95 d8 28 3b ee ec 3d 3b fa 2e 1a bc dc bb 9c 3c
       0.0025763859 0.0028980332 -0.009410614 0.019132547
000050 db 27 0e 3d 5b 68 8b 3a 40 e6 2c bd 93 36 44 3c
       0.034705978 0.0010635959 -0.04221177 0.011975902
000060 2a cc 58 3c dd be 15 bc 25 83 24 bb 41 f6 13 ba
       0.01323227 -0.009139744 -0.0025102582 -0.00056442997
000070 93 4e b8 bb 77 db 9a bc af 04 26 3c 68 d5 0d 3c
       -0.005624601 -0.018903477 0.010132953 0.008656837
000080 c9 14 65 3b c5 06 0b 3c d1 ee dd bc fd 91 f5 bb
       0.0034955016 0.008485501 -0.027091416 -0.00749421
000090 d9 13 0e 3a 94 48 88 bc 7c d3 1d 3c e8 51 9c 3b
       0.00054198276 -0.01663617 0.009632941 0.004770506
0000a0 98 46 ee 3b 77 92 79 bc c2 53 69 3c 00 9b f7 3b
       0.007271599 -0.015232674 0.014241161 0.0075563192
0000b0 78 a9 62 3c 20 96 03 bd 93 2b 2c bc d9 ee 6f bc
       0.01383435 -0.032125592 -0.010508436 -0.014644348
0000c0 a4 85 24 bc 30 e9 75 bc a8 79 f9 3b d1 ae c8 bb
       -0.010041628 -0.0150092095 0.0076133795 -0.0061243554
0000d0 9f e9 39 3b ca 3f 4c 3c d7 73 0f bc 3a 36 e3 bb
       0.0028368009 0.01246638 -0.008755646 -0.0069339545
0000e0 d4 43 42 39 50 80 b6 3a 93 26 19 3c 0c bd 08 3b
       0.0001852655 0.0013923738 0.009347576 0.0020864634
0000f0 26 61 44 bc 62 5e 62 3b 31 f7 29 bd 6d 2b 1c 3b
       -0.011986053 0.003454112 -0.041495506 0.0023829595

sequential_2/conv2d_5/BiasAdd/ReadVariableOp f4 [64]
000000 33 1c 46 bc d4 d5 a8 bc e6 9a c4 3b 0b a4 b7 3c
       -0.012091684 -0.020609774 0.0059999106 0.022417089
000010 55 ac 39 3d 36 64 d1 3b 25 a4 11 3c 00 7f c3 bc
       0.045330364 0.00639012 0.008889233 -0.02386427
000020 2d 23 da bb b6 da fc 3a fb ad 67 3a 79 19 d2 ba
       -0.0066570253 0.0019291255 0.0008837876 -0.001602932
000030 f3 d6 57 bc b7 de 87 bc 68 84 53 3d 11 00 11 bc
       -0.0131738065 -0.01658569 0.051639944 -0.0088501135
000040 07 05 a8 bc d8 06 79 3c b8 ee a9 bc a5 09 ae 3b
       -0.02051021 0.015199386 -0.020743713 0.0053112083
000050 fa 56 fa bc 88 d3 85 bc dd bd 43 3c 41 69 da bc
       -0.030559052 -0.016336218 0.011947122 -0.026661517
000060 45 ad ab 3c d9 c1 b2 bb b1 3d 82 ba 1a 69 86 bb
       0.020956645 -0.0054552373 -0.0009936598 -0.0041018846
000070 7d c2 d6 b9 37 c9 a5 bb bf 74 f0 3a 5d b5 86 3b
       -0.00040962166 -0.005059387 0.001834534 0.0041109757
000080 65 f2 04 bc 20 dd 8d 3c 8c ae 5b bc 17 9d 37 bc
       -0.008114432 0.017317355 -0.013408314 -0.011206887
000090 e6 0a 98 3c d1 f2 6c bc 9d 3f 48 bb 48 ec 96 bc
       0.018559884 -0.014462189 -0.0030555495 -0.018423215
0000a0 ea 2d 3a 3c b9 fe 92 bb 6d 64 c2 b9 41 6e bb 3b
       0.011363486 -0.0044859317 -0.00037077387 0.0057199304
0000b0 da 59 c8 bc 15 3a c0 3b f6 46 71 bc bb 37 aa bc
       -0.024456907 0.005866299 -0.014726391 -0.020778527
0000c0 06 5c 8e bc f5 1a 2b bc df 36 1d bc 52 b0 da bb
       -0.017377865 -0.010443439 -0.009595602 -0.006673851
0000d0 f2 35 18 3c cf ba 0c 3c 4d fa 04 bc 4c 45 3e ba
       0.009290205 0.0085894605 -0.008116317 -0.0007258251
0000e0 00 04 0d bc ab f2 bf bc c7 d4 39 bc 8b 32 96 3b
       -0.008606911 -0.023431143 -0.011342234 0.004583662
0000f0 bd b2 ab 3b 6d 52 62 3c c0 79 8d 3b 14 f5 b7 bb
       0.005239813 0.013813597 0.0043174922 -0.0056139324

sequential_2/conv2d_1/Conv2D f4 [64, 2, 2, 64]
000000 e5 7e 6e bd 0b 37 b9 bd 80 34 d3 ba f4 c0 9a bd
       -0.058226485 -0.09043702 -0.0016113669 -0.07556334
000010 f4 94 d0 3c d3 eb 8a bd 1c de 8e bd c2 39 15 bd
       0.025461651 -0.06783261 -0.06975958 -0.036432035
000020 df 15 45 bd d7 ac 9e bc 46 c1 3b bd 35 93 1d bd
       -0.04811656 -0.019369526 -0.045838617 -0.038470466
000030 bf 22 47 3d e7 9d 47 bd 97 00 a2 3d e0 26 fd 3b
       0.04861712 -0.04873457 0.07910269 0.0077255815
000040 2b eb 4e bd 52 d9 d9 bd 42 19 99 3d f4 5b 8f bd
       -0.050517242 -0.10637154 0.07475521 -0.069999605
000050 89 0b 41 3d 3e 29 94 3c b5 53 22 3d e4 2a 2d 3d
       0.04713014 0.018086072 0.03963061 0.04227723
000060 19 48 03 3d 64 86 d0 bd 56 32 83 bd 39 0f b0 3d
       0.03205118 -0.10181883 -0.06406085 0.085966535
000070 ba 34 cc 3d b1 e1 87 3d 34 f0 ac 3d 7d dc e1 bd
       0.09970994 0.06634844 0.084442526 -0.11028383
000080 d8 37 41 bd d2 e0 90 bd 49 6e 96 3d c0 84 9d 3b
       -0.047172397 -0.07074131 0.07345254 0.004807085
000090 0f dc 97 bc 98 13 99 3d f8 f0 c2 3d 6b 64 1e 3d
       -0.01853755 0.0747444 0.095186174 0.038669985
0000a0 fc 29 43 3d ca 13 5f 3d fd 32 d0 3d c6 a2 8b bd
       0.04764746 0.05446223 0.10165975 -0.06818156
0000b0 10 69 c6 3d b2 3b b0 3d 89 3a 0b bd d0 6b 4e bd
       0.09688008 0.08605136 -0.03399137 -0.050395787
0000c0 03 cb 8a 3d 9d 95 77 bd 40 d3 8f bc c3 5a d8 bd
       0.06777003 -0.060445417 -0.017556787 -0.105641864
0000d0 87 af ff bc ee 39 2e 3d 99 f3 64 bd 00 71 e5 b9
       -0.031211628 0.042535715 -0.055896375 -0.00043762475
0000e0 fd 3d 9b 3d 30 33 fd bc e6 a1 ca 3d 40 6b 9e bd
       0.07580183 -0.030908197 0.09894161 -0.077353
0000f0 f3 a6 00 3d 6a 96 4b 3d 7b 0d 9c 3d b5 2e 61 bd
       0.031409215 0.049703993 0.07619759 -0.054976184
000100 5d 3b df 3c a6 a1 01 3d 49 ef 3e bd 82 0b 3e bd
       0.027249986 0.0316483 -0.04661492 -0.046397693
000110 83 21 25 3d 0a 69 23 bd e1 b8 ce 3d aa 06 36 3d
       0.040315162 -0.039895095 0.100938566 0.04443995
000120 ef ce 06 3d fa 77 0d 3d 2d 3f b9 3c eb 35 bf 3c
       0.03291219 0.034538247 0.022613132 0.02334114
000130 aa ee 13 3c 87 89 b1 bd b4 8c 27 3d d4 5f a9 3c
       0.00902907 -0.086688094 0.04090567 0.020675577
000140 9b da eb bc 43 6e 6f 3d af 28 29 3d 06 b2 c9 bd
       -0.028790763 0.058454763 0.041298565 -0.098484084
000150 b2 93 c8 bd 0a 9a d6 bd c6 02 b8 3d 5d ae 94 3d
       -0.09793796 -0.10478599 0.08984904 0.0725982
000160 0b c0 cc bb 05 b8 7f bd bf 2e b3 bd f8 25 7d 3c
       -0.0062484792 -0.062431354 -0.087491505 0.015450947
000170 6b 2e e7 bc 4d 90 a4 bb 98 f6 e2 bd 8e 36 13 3d
       -0.028220376 -0.005022085 -0.1108219 0.0359407
000180 98 7f 8d bd 0b 1d 51 3b e4 66 d8 3c 73 80 b6 bb
       -0.06909102 0.003190818 0.02641625 -0.0055695116
000190 34 f1 27 bb 5f 5a b2 3c bd bf 37 bd 58 e7 6f bc
       -0.0025625946 0.021771608 -0.04486059 -0.014642559
0001a0 5d 64 03 3d 17 d2 41 3a 31 57 b9 bd dd 14 df 3c
       0.032078136 0.00073936715 -0.090498336 0.027231628
0001b0 4b 53 89 bd 4c 7c c6 bd 5b 60 87 3d 70 e6 85 3d
       -0.0670534 -0.096916765 0.06610175 0.06538093
0001c0 ad 89 8a 3d 5e 5b 25 3d ef 2a a6 bd 74 7a b9 bd
       0.06764541 0.040370338 -0.08113658 -0.09056559
0001d0 c9 c4 9d bd ca 2e ce bd 5c 20 11 3d f8 a6 d8 bc
       -0.077035494 -0.10067518 0.03543125 -0.026446804
0001e0 8d 71 54 bd b0 b1 84 bc 5d fc e6 bc e9 f9 a2 bc
       -0.051866103 -0.01619801 -0.028196508 -0.019894557
0001f0 d4 49 a2 bd c0 c8 43 3d 00 d4 eb b8 db 12 1e bd
       -0.07924238 0.047798872 -0.00011245161 -0.0385922
000200 7d a3 03 bd cb 4c ed 3c b2 00 24 3d f7 79 d7 bd
       -0.032138336 0.028967282 0.040039726 -0.1052131
000210 78 a8 17 3c 89 c9 c4 bd 96 ba 8f bb 0d 52 d3 3d
       0.009256475 -0.09608752 -0.0043862564 0.10318384
000220 6f a0 11 3d 8d 19 5c ba ec 54 93 3b e1 f6 30 39
       0.035553392 -0.00083961413 0.0044962075 0.00016876638
000230 e8 46 5b bd c3 c4 74 3d 2a 2b d3 bd ac a7 e4 3c
       -0.05353442 0.05975796 -0.10310967 0.027911983
000240 1f 9c 0f 3d 5d f3 81 3d d7 44 ad 3d f6 26 b1 bd
       0.035060998 0.06345246 0.08460396 -0.08650009
000250 11 ed bc bd c4 38 33 3d ff 6e 5f 3c 5a 88 33 bd
       -0.09224904 0.043755308 0.013637303 -0.043831207
000260 bb ed 92 bd 71 be 8a bb 31 0a 12 bd a2 cd 43 3d
       -0.0717425 -0.004234128 -0.03565425 0.04780353
000270 eb 1d 05 bd 18 48 36 3c ff 1f 55 3c 14 b3 02 3d
       -0.032499235 0.011125587 0.013008117 0.031909063
000280 43 17 36 3c e8 63 9d 3d 7a 71 54 3d fd b3 c4 bd
       0.011113944 0.07685071 0.051866032 -0.096046425
000290 43 8f 1a bd 09 5f 1f 3d 90 87 8c 3b 11 77 86 bd
       -0.03773428 0.038908992 0.0042886212 -0.06565679
0002a0 25 c8 c8 3d 9d 6e 4f bd 1e 15 36 3d ec d1 39 3d
       0.098037995 -0.0506426 0.044453733 0.045366213
0002b0 34 67 c6 bd eb 9d bc 3d 5b b4 3e 3d b0 74 c1 bd
       -0.09687653 0.09209808 0.04655872 -0.094460845
0002c0 39 19 54 3c c2 bf 69 ba e9 74 4b bd 10 1e 82 bc
       0.012945467 -0.0008916819 -0.04967204 -0.015883476
0002d0 8b 88 b0 3b bd 87 ff bc 8b f0 a6 3c 14 64 54 bd
       0.005387371 -0.031192655 0.020378372 -0.051853254
0002e0 c0 b0 cd bd 87 27 b3 bd 15 2a d9 bd 11 7d bf 3d
       -0.10043478 -0.087477736 -0.1060373 0.093500264
0002f0 ca 6d 76 3d a6 7e b9 bd 00 b0 fc 3b 50 45 12 3d
       0.060163297 -0.090573594 0.0077114105 0.035710633
000300 44 23 ef bd f1 5d 6d 3d f3 e7 ac 3d ae da 70 bd
       -0.11676648 0.057950918 0.08442678 -0.0588023
000310 e4 ac 0c bd 07 2f 22 3b f7 da 81 3d 96 32 08 bd
       -0.03434457 0.0024747269 0.06340592 -0.033251368
000320 a4 b2 86 3d bf 29 56 bc f6 0a 9c 3c 9c 3a a9 bd
       0.06577042 -0.0130714765 0.019048195 -0.08263132
000330 f6 4c 45 3d 8e ee cc bd d7 4d ab b9 26 e0 31 3d
       0.0481691 -0.10006438 -0.00032673657 0.043426655
000340 6a 47 2e 3d 8f e5 03 3c 7d 44 e1 bc 02 90 e1 3c
       0.042548575 0.0080503365 -0.027498478 0.027534489
000350 96 b1 4c bb 7a 95 97 bb cd 31 aa 3d 43 5a d3 bd
       -0.003123378 -0.0046259733 0.0831028 -0.103199504
000360 3f 2e 9f bc 3b 0f 53 bd d1 d6 84 bd 78 d1 ea bc
       -0.019431232 -0.051528197 -0.064862855 -0.028664336
000370 ff 72 5c 3d 68 eb b1 bb 86 36 f5 3c cf e4 21 3d
       0.053820606 -0.005429674 0.029933225 0.03952485
000380 81 6b c4 bd 73 cb 6e bd 03 b2 55 bd 44 49 87 3b
       -0.09590817 -0.058299493 -0.05217172 0.004128607
000390 89 e0 9b bd 6d 9b 80 bc 9e ef df bd 11 07 bf bc
       -0.07611186 -0.015699113 -0.10934375 -0.0233188
0003a0 cb 36 74 bd b3 d9 c5 3d e4 8c ea 3c 9b 4e 09 3d
       -0.059622567 0.096606635 0.028631635 0.03352223
0003b0 81 0c 2a 3d c4 ff 1d 3d c4 cf 73 3d 33 74 96 bd
       0.04151583 0.038573995 0.059524313 -0.07346382
0003c0 b8 c9 25 3d 39 43 57 bd 8c c0 98 bd db 8f 89 bd
       0.040475577 -0.052554343 -0.074586004 -0.067168914
0003d0 a1 fb 64 bd 14 d5 35 bb 2b bc ae 3c 91 e3 4b bd
       -0.055904035 -0.0027745413 0.02132996 -0.04977757
0003e0 56 05 57 3d 54 11 9a 3c 37 03 a2 3c e9 a6 14 3d
       0.052495323 0.01880709 0.019776924 0.03629199
0003f0 9e d6 ae bd ed 1a 0a bd 90 3c fb bc 1e cd 28 bd
       -0.08537029 -0.033717085 -0.030668527 -0.04121124

sequential_2/conv2d_2/Conv2D f4 [64, 3, 3, 64]
000000 ad c9 e8 bb 8a 19 88 3d e8 a3 5a 3d 27 28 11 3d
       -0.0071041198 0.06645496 0.05337897 0.035438683
000010 99 d5 d2 3c a0 d0 13 bc b5 08 3a 3d b2 aa dd bc
       0.025736617 -0.009021908 0.04541846 -0.027058933
000020 2f fd 03 bd 07 2b 22 bd f6 59 15 bd be 00 b5 bc
       -0.032223877 -0.039591815 -0.036462747 -0.02209508
000030 26 ae 38 3d 05 62 bc 3d 77 81 3c bd 2e 98 2f 3e
       0.045087956 0.09198383 -0.046021905 0.17147896
000040 81 30 87 3d 2e 84 93 bd f8 fc 01 bd 2c 3d b8 3d
       0.06601048 -0.07202946 -0.03173539 0.089960426
000050 14 2d 2f 3d 3f af 8d bc f2 5d 25 3d d8 3a 41 3c
       0.0427676 -0.017295478 0.040372796 0.011793815
000060 64 70 75 3d 90 78 65 3d e1 f7 01 bc 2b 3b 9f ba
       0.059921637 0.05602318 -0.007932634 -0.0012148371
000070 90 45 1a 3c f1 a4 06 3e 94 0a db 3d 78 b1 02 3d
       0.009415999 0.13148858 0.10695377 0.03190753
000080 dc 25 6f 3d b0 0d f3 3b c6 57 e6 3c 7e e3 f6 3c
       0.058385715 0.007417403 0.028118026 0.030137774
000090 ad 88 26 bb 59 4b 68 3c 34 e0 76 3d 75 89 1b 3e
       -0.0025411055 0.0141781205 0.06027241 0.15189154
0000a0 63 bc 17 bd 45 01 df 3c e8 e5 7c bd bc f1 39 bd
       -0.037044894 0.027222285 -0.061742693 -0.04539655
0000b0 78 68 c8 bb e2 c3 b0 bb de a0 37 3a 9f 4a d7 bd
       -0.0061159693 -0.005394445 0.0007004867 -0.1051228
0000c0 9b 43 fc bc ed 50 a9 bd 0e cd 25 3d 53 8d 42 bc
       -0.030793956 -0.082673885 0.04047876 -0.011874515
0000d0 a1 6b f7 bc c3 b4 8a bc 79 71 07 3e c8 e8 a0 bd
       -0.030202689 -0.016931897 0.1322688 -0.078568995
0000e0 5f bf 91 bd 00 c7 a5 3d fd 89 2b 3c 03 14 f8 bc
       -0.07116579 0.08094597 0.010469911 -0.03028298
0000f0 c4 20 b2 3a 32 d5 82 3d 9f ea 3e bd 03 84 fa 3c
       0.0013590087 0.0638832 -0.04661047 0.030580526
000100 2c db 13 3d 8e 62 03 bd 90 0b 40 bd 00 c2 14 3d
       0.03609769 -0.03207641 -0.046886027 0.036317825
000110 ff 60 99 3d 02 fd 46 bd 4b f1 dd 3d e6 b5 3e bd
       0.07489204 -0.04858113 0.108370386 -0.04656019
000120 c5 3a ee bc d0 5c e3 bc 74 ef 4b bd eb cf 9d 3d
       -0.029080758 -0.027754217 -0.049788907 0.07705673
000130 cf 3b 45 3d ef 71 d1 ba 48 ec 1a 3d af 5d ef 3d
       0.04815274 -0.001597939 0.03782299 0.116877906
000140 f2 8e 23 3d 0c 6c 5c bd 87 d5 05 3d c1 3d ca 3c
       0.039931245 -0.05381398 0.03267434 0.02468765
000150 ae 62 e4 3b 83 36 0e bb 4b 11 84 bd 41 9c e9 ba
       0.0069697713 -0.0021699972 -0.06448611 -0.0017823057
000160 0c 4d 9b b9 93 9f 93 bd ba 5f ad 3d ba d0 a3 3d
       -0.00029621308 -0.07208171 0.08465524 0.07998796
000170 d1 b5 82 3c 25 72 f5 3d 37 91 bc 3c 1a e2 4b bd
       0.015955837 0.11984662 0.023018463 -0.049776174
000180 2e dd e4 bb 46 7c ac bd b0 ce 8a 3c af fa db 3c
       -0.0069843745 -0.08422141 0.01694426 0.026852934
000190 47 87 ea bc a3 b3 39 bd b7 11 2d 3d 3b 4f 15 3e
       -0.028628958 -0.04533733 0.042253222 0.14581005
0001a0 30 78 1b 3d 57 79 4e bd ba 78 82 3d 83 88 1a bd
       0.037956417 -0.050408687 0.06370683 -0.037727844
0001b0 3a 45 e2 3c 89 d3 79 3d 5e 33 91 3d e0 ad 91 bd
       0.0276209 0.06099275 0.07089876 -0.07113242
0001c0 09 5a 37 bd cb 8e 2c bd b5 39 01 3e e4 54 80 3d
       -0.0447636 -0.042128365 0.1261967 0.062661916
0001d0 84 4f 6e 3d 54 6f 8d 3b 01 62 2d 3d ab 95 4a 3c
       0.0581813 0.00431625 0.042329792 0.012364785
0001e0 b5 b3 8e bc 7c ab 4a bd 4f db a0 3d cf 7c 9e 3b
       -0.017419675 -0.049479946 0.0785433 0.0048366557
0001f0 22 91 2b bd 41 c4 ba bc eb 54 3b bc 25 1e b2 bd
       -0.041886456 -0.02279866 -0.01143382 -0.08697156
000200 ea 30 bd bb a3 35 92 3d 85 dc 95 3c 96 94 8c 3d
       -0.0057736533 0.07139137 0.018293628 0.06864278
000210 4e 14 05 3d d3 66 7c 3d 46 5c ca 3d 1f dc 6d 3d
       0.032490067 0.0616215 0.09880881 0.058071252
000220 b2 b6 fd 3c 4c 43 42 bd 64 cb ba bc d3 61 98 3d
       0.030970905 -0.04742746 -0.022802062 0.074405335
000230 df 98 7c bd 50 1b 2b bd d5 8b eb 3c bd 23 87 3d
       -0.061669227 -0.041774094 0.0287532 0.065986134
000240 2c f9 6f bd 8e 5a a4 3c 5b 60 07 3d 61 ec 0a bd
       -0.05858724 0.020062711 0.033050876 -0.033916835
000250 b1 ac 6f 3d ee fc d5 3c 13 a5 13 3d 96 47 b8 bb
       0.0585143 0.026121583 0.0360461 -0.005623768
000260 ea aa 49 3d f9 ed 7b 3c 53 d1 2f bd 9e b5 12 3d
       0.049235262 0.015376561 -0.042924237 0.035817735
000270 30 16 d3 bc 2e 1e d0 3d a7 33 3d 3d ca 4c 81 bd
       -0.025767416 0.10162006 0.046191838 -0.063134745
000280 de 33 37 3d d1 a1 a4 bd 8b e1 3a 3d 4e 87 53 bc
       0.0447272 -0.080386765 0.04562525 -0.012910677
000290 57 5f 84 3d 3e c7 2c bd 08 63 06 bd 18 87 95 3c
       0.06463497 -0.0421822 -0.032809287 0.018252894
0002a0 0b 61 58 3d 98 91 7a bd ce a4 92 3d 3d 3a 8a bd
       0.052826922 -0.061174005 0.0716034 -0.06749389
0002b0 29 87 8e 3c f4 b5 03 bd bf ce 8b 3d fc c5 0a bd
       0.017398434 -0.032155946 0.06826543 -0.03388022
0002c0 0e e6 83 bb 2a 92 67 bd 22 23 1a 3c 52 06 87 3d
       -0.0040252274 -0.056535877 0.00940779 0.065930024
0002d0 bf ee 1f 3d 76 51 1e bc 7c 8a 8e 3d fe 71 99 bb
       0.039046045 -0.0096629765 0.069600075 -0.0046827784
0002e0 6b 55 5a 3b 83 7b ac 3d cf da 8e 3d 40 11 fc bc
       0.0033315073 0.084219955 0.06975328 -0.030769944
0002f0 76 21 8c bd 17 99 dd 3c 6f c9 19 3c 0d 23 99 bc
       -0.0684232 0.027050538 0.009386404 -0.018693471
000300 f3 38 e6 3c 3e 01 2b bd a6 46 86 3d 6a ef a2 3d
       0.028103327 -0.04174923 0.06556444 0.07955821
000310 fd a0 57 3d ec 7c 02 3d 41 f3 cf 3c 40 ac ba bc
       0.052643765 0.031857416 0.025384547 -0.022787213
000320 ad df f0 ba b0 92 bf 3c df c6 00 bd 57 98 3c 3d
       -0.0018377207 0.023385376 -0.03143966 0.04604372
000330 f0 eb eb 3b 3e ba 0a 3d ef 19 f7 bb 08 7f 2c 3e
       0.007199757 0.03386902 -0.0075409333 0.16845334
000340 4b 9e 8b bd 39 48 9c bd 20 ed 14 3b db 46 b6 3b
       -0.06817301 -0.07630963 0.0022724345 0.005562646
000350 24 3a 7f 3d a5 03 62 3c a1 7f 74 bc 7b 53 c5 bc
       0.062311307 0.013794814 -0.014923007 -0.024087658
000360 0f 0a b9 3d ea 1b 3f 3d b6 8d a4 3c 83 6d 6f 3c
       0.09035122 0.04665748 0.020087104 0.014613512
000370 04 07 9c bd c6 a9 d3 3d fa a0 cb 3d 85 74 a4 bd
       -0.076185256 0.10335116 0.09942813 -0.08030037
000380 24 e4 91 bc ea 49 dc bc 43 ce 56 bd dc 49 8f 3c
       -0.017808981 -0.026890714 -0.0524428 0.017491274
000390 ce f0 05 bd e0 41 02 bc 6d 92 92 3c 3e be 8f 3d
       -0.032700352 -0.007950276 0.017892087 0.07018708
0003a0 1b 1a 6f bc 87 12 69 bc 7d 3a 47 bd 79 51 28 bd
       -0.014593626 -0.014225609 -0.048639763 -0.041093323
0003b0 16 12 7b bd c9 9b 6d 3d 25 71 c6 3b b7 91 15 bd
       -0.061296545 0.058009896 0.0060559683 -0.036515918
0003c0 19 05 9e bc 8e 95 19 bd 39 60 f5 3d 7d a2 68 bb
       -0.01928954 -0.037496142 0.11981244 -0.0035497241
0003d0 d5 69 0e bd c7 e3 97 3c f4 c4 91 3d bf 69 67 3d
       -0.034768898 0.01854123 0.07117644 0.05649733
0003e0 3d ef a5 bd a0 4f 1e 3d 67 60 7c bd 33 3f d6 3c
       -0.08102272 0.038650155 -0.061615374 0.026153183
0003f0 92 77 e3 bd de 1f 28 3d 18 02 a2 3d 55 48 1d 3d
       -0.111067906 0.041046016 0.079105556 0.03839906

sequential_2/conv2d_3/Conv2D f4 [64, 2, 2, 64]
000000 af 6e b8 3d 80 de dd bd fe 97 3a bc e6 fe af 3d
       0.09005486 -0.10833454 -0.011388777 0.0859354
000010 7d 41 a8 3b fb 41 32 bd 78 98 98 3d 09 ee 97 3d
       0.00513476 -0.043519955 0.07450956 0.074184485
000020 a6 ed 84 bd 4b 60 92 3d fe bf 12 bd b0 59 bb 3c
       -0.0649064 0.07147273 -0.03582763 0.022869915
000030 e1 d8 02 3c 79 38 43 3b 90 5e b4 bd 4a 43 ac 3c
       0.007986278 0.00297883 -0.08807099 0.02102818
000040 e9 51 bc bd 06 b9 31 3d 3e f6 8c 3d 01 ac 65 3d
       -0.091953106 0.043389343 0.068829045 0.05607224
000050 7e 1e 89 3b 34 2d 86 3d bf 87 86 3d 5b 25 92 3a
       0.004184543 0.065515906 0.0656886 0.0011150049
000060 72 6d a6 bd 92 08 7e bc a2 69 48 3d 05 a5 75 3d
       -0.08126344 -0.015504973 0.048928864 0.059971828
000070 26 e6 a2 bc 24 ef 00 3d a2 c1 74 bd ed b7 f6 3c
       -0.019885134 0.031478062 -0.059754975 0.030117
000080 67 92 ba bc 91 9c 59 bd 17 fb 97 bd 49 cc e9 bb
       -0.022774888 -0.05312783 -0.074209385 -0.0071349484
000090 5e 59 8b bd 41 f3 d1 3d 40 73 e7 3d d1 a8 86 bd
       -0.06804155 0.10251475 0.11301279 -0.06575168
0000a0 cf 4d 94 3d 17 c2 98 3d ad 13 c8 3d 51 19 83 bd
       0.07241403 0.07458895 0.09769378 -0.06401313
0000b0 82 35 83 3c b0 62 cd bd 9b 6e 0f bc 64 9f 0c bd
       0.016016725 -0.10028589 -0.008754398 -0.034331694
0000c0 f2 48 1c 3d d7 1e d0 bd d8 9d c5 bd fe a1 3c bd
       0.038155504 -0.10162132 -0.09649247 -0.046052925
0000d0 56 06 89 3c 7c 7d c0 3b ff a5 c8 3d d1 de 93 3d
       0.016726654 0.005874334 0.09797286 0.07220233
0000e0 1d 71 08 bd ee 3d 7d bd 00 e7 b5 3d be 9a eb bc
       -0.033311 -0.06182664 0.088819504 -0.02876031
0000f0 64 c0 ed 3d a5 b6 79 bd 77 74 eb 3d b7 a0 72 bd
       0.11608961 -0.0609652 0.11496823 -0.0592353
000100 65 b1 57 bd f2 d0 c1 3d 37 df 31 bd af 2f 37 bd
       -0.05265941 0.09463681 -0.043425765 -0.04472321
000110 e1 de e5 3c 49 9c 91 3d 3f 75 59 3d cc 59 d9 3d
       0.028060379 0.07109887 0.05309033 0.106128305
000120 87 61 93 bd 64 88 46 3c f0 9b 9d 3c c7 2e 3e 3b
       -0.07196336 0.012117479 0.019239396 0.002901958
000130 33 22 fa 3c b6 e6 e6 bd fb 69 67 bd 26 27 07 bd
       0.030533886 -0.11274473 -0.056497555 -0.03299632
000140 02 1f a6 bd c7 90 fb bc 1e 42 27 bd 70 6d 85 bd
       -0.08111383 -0.030708684 -0.04083454 -0.06515014
000150 2d b6 94 3d 74 f4 0c 3d cc f3 f9 3d 07 f5 af bd
       0.0726131 0.034412816 0.12204704 -0.08591657
000160 42 2e 88 bd 1a 21 89 3d 41 3c 7d 3d 54 35 50 3e
       -0.06649448 0.06695767 0.06182504 0.20332843
000170 5f 95 87 3b 52 0c 85 bd 25 85 b3 bc 85 c7 e6 3a
       0.0041376795 -0.064964905 -0.021914074 0.0017607069
000180 6d 6a 85 3d a5 66 65 bd de 0f ab 3d 29 98 a7 bd
       0.0651444 -0.056006093 0.08352636 -0.08183319
000190 28 4f ae 3c c0 87 b6 bd 54 e1 95 3d 06 8b a0 3d
       0.021277979 -0.08912611 0.073183686 0.078390166
0001a0 ff da 6c bc 69 3b 94 3c 79 28 b0 3d b9 bd f0 3c
       -0.01445651 0.018094735 0.086014695 0.029387342
0001b0 a9 8a ab 3d 83 04 c4 3d a4 50 be 3d e1 77 0b 3c
       0.08376057 0.09571173 0.09292725 0.008512468
0001c0 4e cf 10 3e b3 ed 48 bc 89 6e 96 bd 17 34 3b 3c
       0.1414158 -0.012263703 -0.07345302 0.011425993
0001d0 98 4f 82 3d 15 2e a8 3c 1a d8 a8 3c 4e b1 ed 3c
       0.063628376 0.020529786 0.020610858 0.02901521
0001e0 b0 1e 2a bc ea 97 3f bd 99 14 be bc c5 d3 7e 3d
       -0.010383293 -0.046775736 -0.023203181 0.062213678
0001f0 56 f4 ac 3c 79 94 e7 3d cd 06 66 bd 70 63 f6 3c
       0.021112602 0.11307616 -0.05615883 0.030076712
000200 26 e7 db 3b 24 71 25 3c f9 c5 04 3e 36 fe a4 bd
       0.0067109047 0.010097776 0.12966146 -0.080562994
000210 65 96 c1 bc 4e 14 a8 3c cd f8 d7 bd 0b 05 c1 bd
       -0.023631284 0.020517495 -0.10545502 -0.0942479
000220 d6 9e db 3d b4 20 96 bd c8 7f f6 3c a7 94 1f bd
       0.10723655 -0.073304564 0.030090228 -0.038960125
000230 82 74 02 3e c7 ab 8b 3d 36 60 d7 b9 b5 81 ee 38
       0.12739757 0.06819873 -0.00041079678 0.00011372884
000240 08 7d 96 3d 8a 0e 02 bc 7d f0 bd bd 88 70 c7 3b
       0.073480666 -0.007938037 -0.09274385 0.006086413
000250 55 de 28 bd 92 19 29 3d b8 de de bb 8d 10 28 3d
       -0.041227657 0.04128415 -0.0068014525 0.04103141
000260 89 ce d3 3d 19 47 77 3c 71 3b 3e 3d e6 fa 18 3e
       0.10342128 0.015092635 0.046443406 0.1493946
000270 33 c2 e5 3d 92 e0 ab 3d 3a c9 16 bd 02 7e 22 bd
       0.11218681 0.08392443 -0.036813 -0.03967095
000280 ab 4a 16 bc 10 48 3d 3d 0d 6d ee 3c 07 aa c4 3c
       -0.009173076 0.046211302 0.029104734 0.024006857
000290 3f 06 dd bd 85 cd c3 3d 7e d4 a9 3d 0e 77 d7 3d
       -0.10792207 0.09560684 0.08292483 0.10520755
0002a0 5d 5f 5f 3c 8a cb 8c bd 25 b1 91 3d a2 46 ad 3c
       0.013633576 -0.068747595 0.07113866 0.021151844
0002b0 74 5e 8e 3d 0e 52 a4 3d 41 e9 05 3d 9d 02 64 3d
       0.06951609 0.08023463 0.03269315 0.055666555
0002c0 41 06 16 3d 71 c4 f7 bc 2e a6 ce bc 36 ef e9 3d
       0.036627058 -0.030245038 -0.025225725 0.11422579
0002d0 aa 02 cc bd 9d 97 ab 3d 31 04 1c bc ef 48 a5 bd
       -0.09961446 0.08378527 -0.009522484 -0.080705516
0002e0 59 96 99 3d 48 d7 09 3e 80 af bf 3d 42 23 5d bd
       0.0749938 0.1346103 0.09359646 -0.053988703
0002f0 1a 7c d9 3d 1f 02 32 3d f6 ab 8e 3d 7e 37 00 3d
       0.106193736 0.043459054 0.06966393 0.03130292
000300 3e f6 d2 3d 43 76 57 bd 56 6a 8c 3c 10 e9 b7 bd
       0.10300873 -0.052603018 0.017140549 -0.0898
000310 e2 96 3f bc 1a ef d1 bc 38 ef 53 bc ff 85 23 3d
       -0.011693688 -0.025626708 -0.012935452 0.03992271
000320 44 80 05 bd 8b 23 39 bd 88 80 f1 3d 8a c0 01 3e
       -0.032593027 -0.045199912 0.117920935 0.12671104
000330 08 2d 0b 3e 5f 5e 9d bd a7 15 c9 bd d7 68 e3 3b
       0.13591397 -0.076840155 -0.09818583 0.006939988
000340 ae 0c ab 3b d9 20 81 3d 21 99 08 3d 1e fa 05 be
       0.0052200174 0.06305093 0.03334916 -0.13083693
000350 29 53 24 3b 96 a7 ad 3d 6b 34 17 3e 4e 1a 0f 3d
       0.0025073981 0.0847923 0.1476609 0.034937195
000360 34 79 0d 3e ce bd ae 3d e9 bd d9 bc a9 91 09 3e
       0.13815767 0.08532296 -0.026579814 0.13434471
000370 7f 05 8e 3d 47 b2 c6 3d ea 7b 80 bd 52 cf bc bc
       0.06934642 0.097019725 -0.06273635 -0.023048077
000380 14 4b e7 3d c9 c7 69 bc 5d da fc bc 95 38 c3 bd
       0.11293617 -0.014268824 -0.030865842 -0.095322765
000390 bc 0e b3 bd 7e 21 c8 3d 70 17 89 bd 65 b7 39 bd
       -0.08743045 0.09772013 -0.066939235 -0.045340914
0003a0 98 eb cf bd 37 ab 76 3d 46 18 5c bd 37 78 a1 bd
       -0.10152358 0.060221877 -0.053734086 -0.07884257
0003b0 a5 80 1d 3d 00 db 13 3b 2d 80 2c 3d 81 a2 86 bd
       0.038452763 0.0022560954 0.042114425 -0.06573964
0003c0 0a ba f1 3d 03 13 e9 ba ba 42 a0 3d c5 e3 a1 bc
       0.11803062 -0.0017782155 0.07825227 -0.01976193
0003d0 ee 44 d6 3d 05 53 f1 bc 8c 02 a4 bd 0c b8 1a 3d
       0.10462366 -0.029458532 -0.08008298 0.037773177
0003e0 b7 cc 30 3d 26 d4 3f 3e 3b 10 bf bd e2 f8 4a bc
       0.04316398 0.18733272 -0.093292676 -0.01238844
0003f0 14 2d d7 bc e7 d2 96 3d 32 2e b0 3d d0 93 14 3d
       -0.026266612 0.07364445 0.08602561 0.036273777

sequential_2/conv2d_4/Conv2D f4 [64, 2, 2, 64]
000000 6c 9a 2f bd af f7 97 bd 8c eb 76 bd ad 22 2c 3d
       -0.042871878 -0.07420289 -0.06028323 0.042025257
000010 a1 d9 6e 3d 8b 66 df bd c2 65 8e bd 8d 2b 57 3d
       0.058313016 -0.109082304 -0.069530025 0.052531768
000020 31 b7 6c b9 5e 96 6a 3d 57 49 7a bd d8 7e 97 3d
       -0.00022574958 0.057272308 -0.0611051 0.073972404
000030 62 8c 35 ba 6b 0e be 3d a4 b9 7f 3d 24 0b 41 bd
       -0.0006925521 0.09280094 0.0624329 -0.047129765
000040 c6 ac ae 3d ec b5 88 3d cb 96 53 3c c1 4b 8e 3d
       0.08529048 0.06675324 0.01291437 0.06948043
000050 ec ec b7 3d 9d e4 97 3c b6 59 2a 3b 06 b7 23 3e
       0.08980736 0.018541628 0.0025993413 0.15987787
000060 6a d8 73 3d 77 53 cc bd a9 d7 15 bd 77 c3 35 bd
       0.05953256 -0.09976857 -0.036582623 -0.044375863
000070 f3 94 fd 3c a0 d0 39 3d 42 da 39 3d 9f cd 43 3e
       0.030954814 0.045364976 0.045374162 0.19121407
000080 cc e2 03 3e cb 1d a3 bd ca b1 02 3d e0 d2 9e 3c
       0.12879485 -0.07964667 0.031907834 0.019387662
000090 97 15 91 bd 1d c2 6d bc d8 ba a5 bd 5a 75 ac bd
       -0.07084196 -0.014511612 -0.08092278 -0.084208205
0000a0 45 68 ec 3a 03 ca 80 3d d2 ef da 3d 19 39 90 3d
       0.0018036446 0.06288531 0.10690273 0.070421405
0000b0 69 70 21 3b 76 28 63 bd bc 86 a2 3d 47 78 2e bd
       0.0024633652 -0.05545851 0.07935855 -0.042595174
0000c0 57 af c6 3d dd 06 b8 3d 70 59 da bd 9e 71 fe 3c
       0.09701412 0.08985684 -0.1066159 0.031060036
0000d0 9b 54 11 3d d6 d4 3a 3d 98 4c be 3d 0a 6f 2e 3d
       0.035481077 0.045613132 0.09291953 0.042586364
0000e0 85 6d 21 3c e8 19 a0 3d 66 0d 84 bc 3f d1 64 3d
       0.009852772 0.07817441 -0.01611967 0.055863615
0000f0 62 0c f3 3d ea ba d9 bd 1a 6e b3 3c 53 95 5f 3c
       0.11867596 -0.10631354 0.021903086 0.0136464415
000100 36 54 ea bc 97 cb 09 3d 42 ed 55 bd 2e 1c 45 3d
       -0.028604608 0.033641424 -0.05222822 0.048122577
000110 e9 15 b1 bd a2 0e 93 bd c9 73 d8 bc 2f 7b a1 3d
       -0.08646757 -0.07180525 -0.026422398 0.078848235
000120 05 36 e0 bd 47 f4 54 bd fe 51 b9 bd 49 22 b9 bb
       -0.109478034 -0.051990774 -0.09048842 -0.005649839
000130 06 4f 78 3d c1 7e 99 3b 87 2e f5 3d c0 c9 d3 bd
       0.060622238 0.0046842997 0.11971765 -0.10341215
000140 02 71 c3 3d 37 6f 1f bd 9c 61 e0 bd 7c 18 12 bd
       0.09543039 -0.038924422 -0.109561175 -0.03566788
000150 5a 1a af bd 90 f9 ab 3d e2 92 dc 3c 64 ed b2 3d
       -0.08549948 0.0839721 0.026925508 0.08736685
000160 3c 8b 89 3d e5 34 d9 3d 34 ff da 3d d2 41 02 3e
       0.0671601 0.10605792 0.106932074 0.12720421
000170 67 ff 86 3b d6 95 cf 3c c1 c3 06 bd 26 87 c7 3d
       0.004119802 0.025340002 -0.03290153 0.097425744
000180 27 d9 00 3e 64 22 58 bd eb af 17 3d 87 3b c9 bb
       0.12582837 -0.052767172 0.037033003 -0.0061411294
000190 d6 08 a5 bd 5c 12 80 3d 28 c6 da 3d a4 d3 97 bc
       -0.08058326 0.06253502 0.106823266 -0.018533535
0001a0 d9 94 f3 3d a7 e8 52 bd ef 71 b0 bd 29 07 9f bd
       0.11893625 -0.051491406 -0.08615481 -0.077650376
0001b0 59 da 8c bb 34 64 f3 3c bb 63 4b 3c 4e bc c4 3c
       -0.00429849 0.029710867 0.012413914 0.024015572
0001c0 53 41 97 3d 01 ec de bc 3e 2b 4d 3d fa 7f 04 bd
       0.073855065 -0.027212145 0.050090067 -0.03234861
0001d0 6b 71 a9 bc 97 0f 47 bd e3 df 6c 3d 47 95 72 3d
       -0.020683965 -0.048598852 0.057830703 0.059224393
0001e0 7d 5d b1 3a 95 39 9f 3d c4 89 cf 3d 23 a8 4f bd
       0.001353189 0.07774655 0.101336986 -0.050697457
0001f0 4a d1 84 3d a8 61 55 bc 4b 5d 56 bd b3 9b b1 bd
       0.06485231 -0.013023771 -0.052335065 -0.086722754
000200 69 40 ab 3d 4c d5 ec bd 9a 24 8e bc dc e3 5e 3b
       0.08361895 -0.11564121 -0.017351437 0.0034010326
000210 23 9f 49 3d 7c 20 aa 3c 82 fd fd bc 4f d7 30 bc
       0.04922403 0.020767443 -0.031004671 -0.010793521
000220 e0 fc 42 3d bc c9 ae 3d f4 83 c2 3c ba ac 05 bd
       0.04760444 0.085345715 0.02374456 -0.032635428
000230 e5 05 56 bc 39 30 3b 3d ed 07 68 3d de 92 31 3e
       -0.013062929 0.045700286 0.056648184 0.17341182
000240 2a 1e 8d bd 43 c6 70 3d 7e 10 1a bc 0b 8c 0a 3d
       -0.06890519 0.058782827 -0.009403346 0.03382496
000250 93 75 aa 3b 22 fd 4c 3d 73 57 93 3d cb e6 ec 3c
       0.005202004 0.050046094 0.07194414 0.028918644
000260 12 b7 89 3b 28 94 85 bd e9 57 5f bd d2 0d e0 bc
       0.004202732 -0.06522399 -0.054527197 -0.02735034
000270 45 e1 b4 bc 88 79 1c bd e8 e4 d0 3c a8 41 10 3d
       -0.022080073 -0.03820184 0.025499776 0.035218865
000280 7f d7 88 bd ae b5 a4 3c cf 93 4d 3d 18 d2 21 bd
       -0.066817276 0.020106163 0.05018979 -0.039507
000290 4c 19 3f ba 39 8f 96 3d 99 84 21 bc 44 ae 22 bc
       -0.00072898413 0.07351536 -0.009858274 -0.0099292435
0002a0 9a 1e 04 3d 36 b4 9d 3d 9b d8 29 bc 43 75 97 bd
       0.032255746 0.07700388 -0.010366584 -0.07395413
0002b0 ac 65 dc ba e2 25 db bd 01 12 f1 bd ed 58 30 be
       -0.0016814969 -0.10700585 -0.11771012 -0.17221422
0002c0 b2 7a 7e bc b0 bb 10 bd 47 8e 7a bd a8 42 53 3c
       -0.0155321825 -0.035335243 -0.061170842 0.01289431
0002d0 a9 9d 8a 3c 64 c0 14 bb e2 46 20 bc 61 23 68 3d
       0.016920881 -0.0022697682 -0.009782525 0.056674365
0002e0 8d 2c 75 3c 96 79 d2 bd 62 b9 aa bd 3b 3e a2 3d
       0.014964235 -0.10277097 -0.0833614 0.07922026
0002f0 48 dc fb 3d 79 13 5f 3d d9 d9 e3 3c 5e ea 3a bc
       0.12297875 0.05446193 0.027813839 -0.011408417
000300 c7 0d 22 3d f6 d3 4a 3d 53 fb ec bc 2a c1 d0 3d
       0.03956392 0.049518548 -0.028928434 0.10193093
000310 c7 23 42 bd 03 1a a7 bd 0d b9 e5 bd f4 47 72 bd
       -0.0473974 -0.08159258 -0.11216936 -0.05915065
000320 6b b1 da 3d a8 52 49 bd d5 20 3d bc 60 57 10 3d
       0.10678371 -0.049151093 -0.011543472 0.035239577
000330 fd d6 44 3d e2 0d cf 3d ca d4 d1 3c c6 4a 75 3d
       0.04805659 0.1011007 0.025614161 0.059885763
000340 08 be 47 3d 83 61 75 bd 0b f7 da 3d 05 37 db bc
       0.048765212 -0.059907448 0.10691651 -0.026759634
000350 40 20 ec bd 59 f1 d5 3b ef 73 80 bd 86 aa 81 3c
       -0.11529589 0.006529015 -0.062721126 0.015828382
000360 c4 a2 df bb b0 dc 1d bd ae 9c ca ba e4 1f 8f 3d
       -0.006824823 -0.038540542 -0.0015458071 0.069885045
000370 b3 a3 ff bd 62 01 46 bc 94 27 b7 bc 8a c1 fb 3d
       -0.12482395 -0.012085291 -0.02235774 0.12292774
000380 9b c9 6a 3d e5 45 96 3d c0 5c bc bd 87 ff 5e bc
       0.057321172 0.0733755 -0.09197378 -0.013610727
000390 d5 96 50 3b f0 f1 b3 bd b6 ab 33 bd 9d 8d 2c 3d
       0.0031828184 -0.0878638 -0.04386493 0.04212724
0003a0 3c fb 52 bd 9d dd cf bb 6c 00 cf 3b bf 43 d7 ba
       -0.051509127 -0.006343557 0.006317189 -0.0016423388
0003b0 9c 0a bb 3c b3 41 f6 bc 36 0b d8 3c fc b3 fc bd
       0.022832207 -0.030060625 0.026372533 -0.12339017
0003c0 79 49 84 bd 4c a7 a8 3c 46 f7 57 3b 6e 7c ac 3d
       -0.06459326 0.020587586 0.0032953783 0.084221706
0003d0 a5 23 77 bd 7c 36 f9 3d b4 df 1c b9 df be 31 bd
       -0.060336728 0.12168595 -0.00014960655 -0.04339492
0003e0 ed ab a3 3d e5 73 96 bd 84 9c fb bc 9a 8c 88 3d
       0.079917766 -0.07346324 -0.03071428 0.066674426
0003f0 81 83 1f 3e a7 f9 ce 3d 88 fa 68 bd 6a 50 05 3d
       0.15577509 0.10106211 -0.05687955 0.032547392
