exports/peach.tflite (tflite, 485128 bytes, 16 tensors)

sequential_2/conv2d/Relu;sequential_2/conv2d/BiasAdd;sequential_2/conv2d_5/Conv2D;sequential_2/conv2d/Conv2D;sequential_2/conv2d/BiasAdd/ReadVariableOp f4 [64, 1, 1, 3]
-0.00088559795 0.00031611318 0.0008387338 0.00075167086 0.00041948864 -0.00045503036 0.0008451126 0.00070223014
-0.0011363369 -0.00027471533 -0.0005630605 0.00018578609 0.0007507788 0.00019366771 -0.00023733883 -0.00020465032
0.0009099329 0.00021172078 -0.0008895311 0.0005524116 0.0009542461 0.00010887287 0.00075586326 -0.0007638188
0.0011560788 -0.0009912391 0.00059736357 0.00028131492 2.2227123e-05 0.00013239513 -0.00082784623 0.000308969
0.00038467435 9.499056e-05 0.0006497019 0.00013512536 -0.0006628039 -0.0003011605 -0.00020994464 -0.0005940597
0.00086667883 -0.00015106796 -0.0010514504 0.000322583 -0.00051405886 -0.00039136803 -4.2004398e-05 -0.00037057136
-0.00010925461 -2.7339896e-05 -4.3564755e-06 -0.0011425858 4.910313e-05 -0.0004934457 5.907353e-06 0.00048534316
-0.00021864816 -0.0002070778 0.001074586 -0.00066495314 -0.00015375469 -0.000998694 0.0005373133 0.0005890153
-0.0007220624 -0.0002930155 0.0008020019 -0.00072537473 -3.0589563e-05 7.577404e-05 0.00074356084 0.0010797539
0.00027912 0.0010494434 -0.0007467016 -0.0011864634 0.00017134847 0.0008066391 -0.0007314672 0.00028058968
0.0010269225 0.00041883183 0.0003957834 0.00044298643 -0.0009080638 -0.0004046945 0.0006937559 0.0013496202
-0.0009849825 -0.0006456548 0.00065665826 2.8757586e-05 -0.00035648752 -0.00027108347 0.0007496274 -0.000691511
-0.00032877334 -0.0010710144 0.0008336768 -0.00036038665 -0.00039553124 0.000567251 -0.0008421526 -0.00090150634
-0.00027420511 0.0006135648 0.000779422 -0.0008255462 0.00015217128 -0.0003535864 0.00093569665 -0.00046829277
0.0007835939 -0.0007520452 0.0003437813 -0.00093268586 0.0012410426 0.00019862418 0.0008591486 0.0007390013
-0.0009596742 0.0005267638 0.0002781854 -0.0013467883 0.00024346368 0.00089996966 0.0003196209 -0.0009770573
0.0011068856 -0.00054330006 -0.0006113488 -0.00047249798 -0.0006069308 -0.001096644 -0.0002447925 -0.00020265619
0.00092792045 -0.0003885424 0.00021206687 0.0006775421 -0.00018648112 0.00023371352 -0.00022224351 -0.0010372894
-0.0007889876 -0.0008228844 -0.00075495633 8.290187e-06 -0.000498334 1.947563e-05 0.00010028732 0.00022907305
0.00091673364 0.00017238154 -2.1728989e-05 0.00040716107 -0.0011488295 0.0006150203 0.00034358716 0.00096722366
-0.0008362682 -0.00065862644 0.00033092685 -0.00054794137 0.0008455539 0.00079113967 -0.00070496084 -5.1943745e-05
-0.0008821195 0.00026850877 -1.3012094e-05 -0.00020276404 2.3110999e-05 5.4187793e-05 0.00026161422 -0.0009922459
0.0004797345 0.00010814162 0.00031073138 -0.0014984625 0.00039583718 -0.00049582525 0.00024520612 0.0008667082
-0.0004811002 -0.0002998823 0.00087215676 -0.00091724127 0.00027622783 0.00027301122 -0.00042882675 0.00096434454
00000000: 7927 68ba febb a539 79de 5b3a c70b 453a
00000010: d0ee db39 2491 eeb9 8c8a 5d3a de15 383a
00000020: 24f1 94ba ab07 90b9 5a9a 13ba 93cf 4239
00000030: eacf 443a 4813 4b39 28de 78b9 6797 56b9
00000040: 9088 6e3a 5d01 5e39 6c2f 69ba b7cf 103a
00000050: 5f26 7a3a ad52 e438 2025 463a 033b 48ba
00000060: 9187 973a 77ec 81ba 6498 1c3a 737d 9339
00000070: 6274 ba37 8cd3 0a39 d203 59ba 1efd a139
00000080: 1eae c939 ab35 c738 c250 2a3a 70b0 0d39
00000090: 04c0 2dba 14e5 9db9 9624 5cb9 acba 1bba
000000a0: d531 633a ff67 1eb9 d2d0 89ba 5b20 a939
000000b0: e8c1 06ba 8730 cdb9 e12d 30b8 3f49 c2b9
000000c0: 9f1f e5b8 fb57 e5b7 d72d 92b6 d1c2 95ba
000000d0: 16f4 4d38 955a 01ba c737 c636 a875 fe39
000000e0: eb44 65b9 0623 59b9 1fd9 8c3a 4050 2eba
000000f0: 3639 21b9 9ce6 82ba 7cda 0c3a 2668 1a3a
00000100: ca48 3dba e09f 99b9 703d 523a 1327 3eba
00000110: 4b4d 00b8 e1e8 9e38 86eb 423a 8786 8d3a
00000120: da56 9239 7a8d 893a 4cbe 43ba 1b83 9bba
00000130: 01ac 3339 a274 533a efbf 3fba 1c1c 9339
00000140: cd99 863a a896 db39 2681 cf39 a240 e839
00000150: 210b 6eba 2d2d d4b9 2cdd 353a bde5 b03a
00000160: 871a 81ba 2941 29ba 9723 2c3a 723c f137
00000170: f2e6 bab9 3520 8eb9 a582 443a 8546 35ba
00000180: 365f acb9 4861 8cba 1a8b 5a3a 47f2 bcb9
00000190: 4e5f cfb9 92b3 143a e8c3 5cba 1153 6cba
000001a0: 30c3 8fb9 a3d7 203a 2052 4c3a 7869 58ba
000001b0: 2b90 1f39 9061 b9b9 8a49 753a 3185 f5b9
000001c0: 196a 4d3a e624 45ba 8c3d b439 7d7f 74ba
000001d0: 7baa a23a c645 5039 7d38 613a 8ab9 413a
000001e0: a592 7bba 8516 0a3a 6ad9 9139 b786 b0ba
000001f0: 494a 7f39 f1eb 6b3a cb92 a739 9a10 80ba
00000200: eb14 913a 406c 0eba ec42 20ba 9bb9 f7b9
00000210: 701a 1fba 44bd 8fba 7e57 80b9 1b80 54b9
00000220: b03f 733a 47b5 cbb9 445e 5e39 159d 313a
00000230: 258a 43b9 ff10 7539 0a0a 69b9 a8f5 87ba
00000240: 10d4 4eba d6b6 57ba 43e8 45ba 1516 0b37
00000250: a1a2 02ba 995f a337 5851 d238 5433 7039
00000260: f450 703a 51c1 3439 a646 b6b7 3c78 d539
00000270: 5294 96ba 5039 213a 7d23 b439 488d 7d3a
00000280: 0239 5bba aca7 2cba 4080 ad39 b9a3 0fba
00000290: 29a8 5d3a 7c64 4f3a 1fcd 38ba 2cde 59b8
000002a0: 0a3e 67ba a3c6 8c39 854e 5ab7 0f9d 54b9
000002b0: 7ede c137 b347 6338 4429 8939 3f0e 82ba
000002c0: e084 fb39 17ca e238 a9e9 a239 0f68 c4ba
000002d0: 5e88 cf39 45fa 01ba 028f 8039 cd33 633a
000002e0: 2d3c fcb9 8539 9db9 73a1 643a 0573 70ba
000002f0: acd2 9039 f222 8f39 27d4 e0b9 11cc 7c3a

sequential_2/conv2d/BiasAdd/ReadVariableOp f4 [64]
0.0013100662 -0.0746154 0.0032029003 -0.020656386 -0.03879648 -0.018548809 -0.04920354 -0.050551865
-0.04744163 -0.042779334 0.0019097199 -0.02776418 -0.0023532188 -0.016019883 0.04812637 -0.0025526925
-0.00013877884 -0.0063098837 -0.0026245269 -0.06993829 -0.013978365 -0.023131732 -0.03745383 -0.069770604
-0.0074611707 0.0014846261 -0.020615842 -0.07292342 -0.038822018 -0.000788096 -0.030338682 0.022567507
-0.033249695 0.04848534 -0.004515988 -0.00034415684 -0.055769794 0.05104522 0.0097740125 -0.026402153
-0.0037498537 0.003957541 0.021841587 -0.0028092472 -0.003930062 -0.00492176 -0.0044430764 -0.041785188
-0.0018870104 -0.002701424 -0.058987778 -0.061324168 -0.0029380855 -0.039881986 -0.030931637 -0.034687083
0.02553113 0.02717062 0.064401105 0.01655527 -0.021166226 -0.046284392 0.007009489 -0.029299956
00000000: 87b6 ab3a f5cf 98bd c0e7 513b 9537 a9bc
00000010: 0fe9 1ebd acf3 97bc a789 49bd 790f 4fbd
00000020: 2852 42bd 6239 2fbd 914f fa3a b571 e3bc
00000030: 7638 1abb 213c 83bc 2820 453d 134b 27bb
00000040: 2985 11b9 24c3 cebb 4100 2cbb ce3b 8fbd
00000050: 8305 65bc c27e bdbc 3069 19bd e4e3 8ebd
00000060: d67c f4bb c997 c23a 8ee2 a8bc e058 95bd
00000070: d603 1fbd 3a98 4eba d488 f8bc 7edf b83c
00000080: d530 08bd 9098 463d dafa 93bb f36f b4b9
00000090: de6e 64bd cb14 513d 2e23 203c 5449 d8bc
000000a0: 1bc0 75bb 43ae 813b 21ed b23c 591b 38bb
000000b0: c0c7 80bb b746 a1bb 3a97 91bb f226 2bbd
000000c0: 9055 f7ba 600a 31bb 2b9d 71bd 0d2f 7bbd
000000d0: e58c 40bb 4b5b 23bd 5864 fdbc 0b14 0ebd
000000e0: a926 d13c ec94 de3c bae4 833d eb9e 873c
000000f0: cb64 adbc b494 3dbd dbaf e53b 7606 f0bc

sequential_2/conv2d_1/BiasAdd/ReadVariableOp f4 [64]
0.021858826 -0.017633734 -0.027999364 0.015842246 -0.018482495 -0.0026352233 -0.037584923 -0.03625915
0.016922688 0.0 0.012498572 -0.028477449 -0.01560045 -0.023386862 -0.028418431 0.020078119
-0.03885291 -0.019368192 0.004030115 -0.01002672 -0.03546998 -0.0054639713 -0.017520161 -0.019407561
0.0029286714 -0.0042358204 0.026545689 -0.004663759 -0.022739293 -0.02733279 0.0064321505 -0.042298675
-0.016256658 -0.017120581 0.0054896786 -0.034115754 0.009317114 -0.018940784 0.003401009 0.00043849493
-0.00690642 0.020908486 0.03721033 -0.021571 -0.033310473 0.022702552 0.02253397 0.0
-0.023643704 -0.037664745 -0.01995308 0.019363943 0.015224334 -0.027034989 0.01956726 0.016644131
-0.10253495 -0.011596923 -0.004901262 0.01588469 -0.011754664 0.019761385 0.011265597 0.0016250435
00000000: 4811 b33c 9f74 90bc ec5e e5bc 99c7 813c
00000010: 9a68 97bc b6b3 2cbb a6f2 19bd 7984 14bd
00000020: 73a1 8a3c 0000 0000 cfc6 4c3c 8a49 e9bc
00000030: 0899 7fbc ce95 bfbc c5cd e8bc de7a a43c
00000040: 3b24 1fbd 0baa 9ebc 0e0f 843b 1d47 24bc
00000050: f848 11bd 1d0b b3bb 7186 8fbc 9bfc 9ebc
00000060: f4ee 3f3b a3cc 8abb 5876 d93c 72d2 98bb
00000070: c147 babc 04e9 dfbc cac4 d23b 6041 2dbd
00000080: af2c 85bc 7640 8cbc c3e2 b33b f6bc 0bbd
00000090: cfa6 183c b429 9bbc 76e3 5e3b cbe5 e539
000000a0: 404f e2bb 4648 ab3c dc69 183d aab5 b0bc
000000b0: 9070 08bd b4fa b93c 2999 b83c 0000 0000
000000c0: 71b0 c1bc 5946 1abd a474 a3bc 22a1 9e3c
000000d0: 7c6f 793c 7b78 ddbc 854b a03c 4659 883c
000000e0: d8fd d1bd 0501 3ebc c49a a0bb 9c20 823c
000000f0: a296 40bc a1e2 a13c 5793 383c 69ff d43a

sequential_2/conv2d_2/BiasAdd/ReadVariableOp f4 [64]
0.021157136 0.011190278 -0.010288858 0.016251363 -0.0383543 -0.006472691 0.017730946 -0.014017468
-0.022603573 -0.037101906 -0.019292017 -0.0105429925 0.015565912 -0.011140446 0.012061852 0.027544104
-0.014924554 -0.01193309 -0.021094652 -0.024464473 -0.011131169 -0.00035645286 0.021825062 -0.02693195
0.025522923 -0.03369545 -0.010631781 -0.019035388 -0.010493352 -0.0016031633 0.016345352 0.02481948
0.0064449175 0.017836915 0.024375124 0.013813044 -0.036196772 -0.025518363 0.013492825 -0.0025192962
-0.015618772 0.015100745 -0.005763454 -0.009306354 -0.010047706 0.015541701 0.0094287535 0.024486596
-0.014533158 -0.004922422 -0.0038731531 0.017813435 -0.025881981 -0.023424357 -0.014226177 -0.0072963503
0.020312684 -0.012467402 -0.031037152 -0.01944963 0.01678601 -0.021341762 -0.017240511 -0.012715228
00000000: bb51 ad3c 6e57 373c 9992 28bc 9421 853c
00000010: 6619 1dbd de18 d4bb 7d40 913c 86a9 65bc
00000020: 212b b9bc 2bf8 17bd 4b0a 9ebc 84bc 2cbc
00000030: 2b08 7f3c 6b86 36bc 139f 453c 2ca4 e13c
00000040: 1e86 74bc 0283 43bc b1ce acbc b869 c8bc
00000050: 825f 36bc 4be2 bab9 79ca b23c 65a0 dcbc
00000060: 7315 d13c 3d04 0abd ec30 2ebc 1af0 9bbc
00000070: 4fec 2bbc 3c21 d2ba b0e6 853c 3952 cb3c
00000080: e32f d33b b91e 923c 57ae c73c 1b50 623c
00000090: 1143 14bd e30b d1bc 0311 5d3c c71a 25bb
000000a0: e1e5 7fbc 1d69 773c 5bdb bcbb ae79 18bc
000000b0: 229f 24bc 9ea2 7e3c 0f7b 1a3c 1d98 c83c
000000c0: 7c1c 6ebc 454c a1bb bad4 7dbb 7bed 913c
000000d0: 7306 d4bc 70e4 bfbc e914 69bc 3916 efbb
000000e0: c966 a63c 1344 4cbc a041 febc d554 9fbc
000000f0: d082 893c ebd4 aebc f93b 8dbc 8853 50bc

sequential_2/conv2d_3/BiasAdd/ReadVariableOp f4 [64]
-0.00061561394 -0.024813445 -0.051311128 0.0068528512 -0.015546615 -0.0416504 0.012299139 0.0012813591
-0.0029751433 -0.034455355 0.014567929 -0.014024732 0.0007619715 -0.041795105 -0.014047605 -0.0077836784
-0.008622087 -0.01120535 -0.042706463 -0.011999429 -0.013349687 0.021074593 0.003979897 0.033504553
0.04588993 0.027469771 -0.028917255 0.016883781 -0.012229202 -0.0015181084 -0.021076534 -0.02840322
-0.014681407 -0.034609053 0.0033810083 -0.0018229524 0.010157388 0.016860032 0.038404558 -0.034438085
0.022418933 -0.020509755 -0.0025003625 -0.022042822 0.013661343 -0.019379767 0.013583917 -0.0011422889
0.0051830937 -0.020708587 -0.037926912 -0.0017349303 0.010072904 0.019919131 0.028676411 -0.031259358
0.033046924 -0.012643854 -0.007544558 -0.022035457 -0.018018525 0.013480743 -0.025611414 -0.026799215
00000000: 2761 21ba 9145 cbbc 9e2b 52bd e28d e03b
00000010: 3bb7 7ebc 9c99 2abd 5482 493c 47f3 a73a
00000020: 9ffa 42bb 0f21 0dbd 53ae 6e3c fdc7 65bc
00000030: 0bbf 473a 5831 2bbd ed27 66bc 3a0e ffbb
00000040: a743 0dbc a596 37bc f9ec 2ebd 4199 44bc
00000050: a5b8 5abc a0a4 ac3c cc69 823b 123c 093d
00000060: 14f7 3b3d 4908 e13c e1e3 ecbc db4f 8a3c
00000070: fe5c 48bc 44fb c6ba b2a8 acbc dfad e8bc
00000080: 498a 70bc 39c2 0dbd e893 5d3b 22f0 eeba
00000090: 2c6b 263c 0d1e 8a3c 194e 1d3d f30e 0dbd
000000a0: e9a7 b73c 1304 a8bc 1fdd 23bb 2693 b4bc
000000b0: d3d3 5f3c 51c2 9ebc 148f 5e3c dbb8 95ba
000000c0: f1d6 a93b 0ea5 a9bc 4059 1bbd 9a66 e3ba
000000d0: d208 253c 722d a33c cbea ea3c d009 00bd
000000e0: 365c 073d 2b28 4fbc 5738 f7bb b483 b4bc
000000f0: 969b 93bc 56de 5c3c 07cf d1bc 078a dbbc

sequential_2/conv2d_4/BiasAdd/ReadVariableOp f4 [64]
0.0009050408 0.05241042 0.044817023 0.028541898 0.02760537 -0.013012722 -0.012291058 0.035822075
0.051685266 0.008669716 -0.012041262 0.021036236 0.013416719 -0.002573362 0.057746083 -0.022897836
-0.024328627 -0.041996475 -0.012883683 -0.0058553475 -0.014522168 -0.02425806 0.026497243 0.010369708
-0.03798743 0.00996466 0.056733344 -0.050009392 0.047549326 0.03678918 -0.0056935875 -0.030782903
0.030560847 0.0279125 0.0031313503 0.039505973 -0.023689259 -0.007007184 -0.06210293 -0.01792709
-0.018605486 -0.012174181 -0.024920847 -0.0067388513 -0.023324374 -0.018674951 -0.025834072 -0.00013591725
0.01807356 0.009955864 -0.017001918 0.028160384 -0.017888185 -0.025651658 0.0060418025 -0.02331614
-0.020890506 -0.033652347 -0.0008495741 -0.04725018 0.026741255 0.035398707 -0.0044213412 -0.009505619
00000000: 4340 6d3a 4fac 563d 0e92 373d b3d0 e93c
00000010: a824 e23c 5033 55bc 6f60 49bc 2bba 123d
00000020: eeb3 533d 6d0b 0e3c b748 45bc 2f54 ac3c
00000030: ccd1 5b3c daa5 28bb 2887 6c3d 3e94 bbbc
00000040: d44c c7bc 7f04 2cbd 1516 53bc 37de bfbb
00000050: 63ee 6dbc d7b8 c6bc bf10 d93c b5e5 293c
00000060: b598 1bbd d042 233c 3961 683d a6d6 4cbd
00000070: 15c3 423d 40b0 163d 4691 babb 6d2c fcbc
00000080: be5a fa3c c1a8 e43c 5737 4d3b 04d1 213d
00000090: fa0f c2bc 859c e5bb a45f 7ebd d5db 92bc
000000a0: 886a 98bc 3776 47bc ce26 ccbc 95d1 dcbb
000000b0: c212 bfbc 36fc 98bc faa1 d3bc 0285 0eb9
000000c0: 010f 943c ec1d 233c 9b47 8bbc 9bb0 e63c
000000d0: 3e8a 92bc 6d23 d2bc 50fa c53b 7d01 bfbc
000000e0: 9122 abbc 0bd7 09bd f4b5 5eba 6889 41bd
000000f0: 7a10 db3c 3cfe 103d e6e0 90bb 75bd 1bbc

sequential_2/conv2d_5/BiasAdd/ReadVariableOp f4 [64]
0.051639818 0.07965039 0.04902911 0.037539553 -0.035738703 -0.035374623 0.049879253 -0.030631896
-0.010033368 -0.024704734 -0.027131904 -0.021195581 0.039495688 -0.0072563174 0.03627593 0.021449957
-0.012498054 0.03461684 -0.009828847 0.095531486 0.03301409 0.067833856 0.032987986 0.029411647
0.022563314 -0.0071975533 0.039126836 -0.009300114 0.03646744 0.004682053 0.042900063 -0.011530075
-0.017676003 0.06302388 0.052041803 0.027801469 -0.024020523 -0.008781926 0.052774582 -0.009752653
0.01575734 0.014207755 0.0014706617 -0.04470635 -0.011673646 -0.036053877 0.035601594 -0.024057481
-0.006615265 0.09023521 0.08125194 -0.022072034 0.048960395 0.018755611 0.022286084 -0.033188187
-0.009993335 -0.020797875 -0.00982064 -0.036380958 0.0051680803 -0.018483577 -0.013761018 -0.013289035
00000000: 4684 533d be1f a33d c0d2 483d 13c3 193d
00000010: bf62 12bd fbe4 10bd 304e 4c3d beef fabc
00000020: ff62 24bc 9561 cabc ba43 debc 5ba2 adbc
00000030: 3bc6 213d 67c6 edbb 1296 143d d2b7 af3c
00000040: a3c4 4cbc 63ca 0d3d 2c09 21bc 03a6 c33d
00000050: c839 073d 7aec 8a3d 691e 073d b2f0 f03c
00000060: b3d6 b83c 74d9 ebbb 7643 203d 815f 18bc
00000070: e25e 153d e86b 993b fab7 2f3d a4e8 3cbc
00000080: 44cd 90bc aa12 813d c929 553d e8bf e33c
00000090: b0c6 c4bc 11e2 0fbc 292a 583d 97c9 1fbc
000000a0: 8915 813c a5c7 683c 38c3 c03a 011e 37bd
000000b0: d242 3fbc 3bad 13bd fad2 113d 3214 c5bc
000000c0: ddc4 d8bb 3dcd b83d 6b67 a63d 69d0 b4bc
000000d0: b28a 483d 5ea5 993c 4e91 b63c 56f0 07bd
000000e0: 16bb 23bc 4e60 aabc c0e6 20bc 3304 15bd
000000f0: 0059 a93b df6a 97bc e575 61bc 41ba 59bc

sequential_2/conv2d_1/Conv2D f4 [64, 2, 2, 64]
-0.055578556 -0.01021116 0.0124890935 0.075473145 0.10709865 -0.01743379 0.011278968 -0.11705008
0.06702562 -0.07079085 0.14311984 -0.025959749 0.026396211 0.069735505 0.04262828 -0.014976309
-0.035312656 -0.05864239 0.0563832 -0.16008447 0.064558774 0.04142359 0.03664251 -0.034756187
0.061307937 -0.0035779173 0.020209348 0.052778743 -0.053559396 0.011408998 0.093286 0.10612704
0.11914369 -0.08758672 0.05482304 -0.064447805 -0.01657722 -0.054143358 -0.043993983 0.0021013906
0.019017931 -0.015429932 -0.11469032 -0.08413581 0.04359757 -0.0913447 0.03868957 -0.03771298
-0.098545656 -0.04359657 -0.027038727 0.038951024 0.12253123 -0.11969177 -0.07545717 -0.055895228
-0.07866418 -0.01932992 -0.13206631 -0.01471446 0.021296201 0.08521911 -0.010057288 -0.022901915
-0.027166855 0.05523301 0.08856244 0.060254384 -0.048448917 0.07888172 -0.045895938 -0.16343027
0.019478016 0.091118015 0.10867882 -0.089506276 -0.08609144 -0.0038897323 -0.11743248 0.010884371
-0.050281383 -0.025541924 -0.048272014 -0.23272635 0.010567635 -0.11258907 -0.08040519 -0.0790013
-0.006880502 0.035179067 -0.045022685 0.06077405 -0.06942239 0.023478415 0.050431665 0.068646945
0.08520383 -0.0030227615 0.029181007 0.10523754 0.0056073056 0.0015503624 -0.061460823 0.08016787
-0.036470998 0.09004694 -0.027637573 0.05067133 -0.10098765 0.018515741 -0.07726315 -0.06511952
0.10715931 0.009446334 -0.0009943044 -0.08948988 0.012899304 0.016938163 -0.07974457 -0.15597226
0.02490374 -0.07259777 -0.0575451 -0.020632682 -0.12549122 -0.081676394 -0.100523636 0.08059896
-0.007423452 0.041893784 0.12334546 0.03190765 -0.04824883 0.09337 0.05689921 -0.09287706
-0.08488846 -0.058283184 -0.015366794 0.01635185 -0.06769974 -0.059843436 -0.031907875 -0.044106092
0.037509836 0.012583261 -0.059467293 -0.27034143 0.0682027 -0.04950537 -0.10486851 -0.035532027
0.0017730993 -0.027986832 -0.08515465 0.05227892 0.011426539 0.0036978773 -0.04147964 0.13284986
0.053074826 -0.035659328 -0.08713529 0.029841041 0.01683774 0.07583798 -0.1381813 -0.044005614
0.12720433 0.012657345 0.015340403 0.036858432 0.07594701 0.032681827 0.058836844 -0.058539685
0.045916595 0.03297287 0.016203016 0.063918926 0.14428355 0.034664046 0.0053041317 -0.10537889
-0.0137004815 0.0037015155 -0.102902964 0.05764112 0.020565225 0.019860188 -0.10894559 -0.09561967
0.07300353 0.06074444 0.043353863 -0.0323364 -0.06580083 0.08913498 -0.00019751159 -0.0896974
-0.02184271 0.019025762 0.14093158 -0.024705082 -0.010333248 -0.046753053 -0.020445662 -0.00362388
0.024655165 0.03817582 -0.01602334 -0.3208647 0.04968309 0.015853882 -0.093467236 -0.059890635
-0.08863508 -0.044869564 -0.046355058 0.024884822 -0.07161306 0.022669502 -0.05272659 0.09002859
-0.06922089 -0.16147313 -0.052480016 0.10705326 0.061107855 0.08820497 -0.080997534 -0.08072661
0.15621528 0.063884765 -0.08280929 0.056385674 -0.10197203 0.05003127 0.098474264 0.093836494
0.04832875 6.91168e-05 0.08472162 -0.02337836 -0.046649236 0.07580627 -0.023828235 -0.040726215
0.037594475 0.019916067 -0.089097716 0.03261166 0.0045707314 -0.016835546 0.016372103 0.054291643
00000000: 57a6 63bd b64c 27bc 0e9f 4c3c aa91 9a3d
00000010: 8956 db3d 4fd1 8ebc 6ccb 383c f4b7 efbd
00000020: ba44 893d cbfa 90bd 028e 123e 8aa9 d4bc
00000030: de3c d83c 7dd1 8e3d fe9a 2e3d 315f 75bc
00000040: 01a4 10bd 0133 70bd 12f2 663d 2fed 23be
00000050: 6437 843d c8ab 293d 7516 163d 815c 0ebd
00000060: 081e 7b3d 7e7b 6abb 138e a53c 862e 583d
00000070: 1961 5bbd ceec 3a3c bb0c bf3d 2259 d93d
00000080: 9b01 f43d ab60 b3bd 208e 603d 36fd 83bd
00000090: f3cc 87bc 6dc5 5dbd 0933 34bd 7cb7 093b
000000a0: 7ecb 9b3c d3cd 7cbc c2e2 eabd 654f acbd
000000b0: 5e93 323d ee12 bbbd f478 1e3d ed78 1abd
000000c0: 4ed2 c9bd 5192 32bd 5280 ddbc 1c8b 1f3d
000000d0: a7f1 fa3d f520 f5bd 4a89 9abd 65f2 64bd
000000e0: b01a a1bd c859 9ebc 643c 07be eb14 71bc
000000f0: 5f75 ae3c 5b87 ae3d 53c7 24bc cc9c bbbc
00000100: 068d debc 023c 623d 3960 b53d 4dcd 763d
00000110: 5f72 46bd bd8c a13d 61fd 3bbd 445a 27be
00000120: 5c90 9f3c 159c ba3d 0093 de3d 114f b7bd
00000130: b550 b0bd e1ea 7ebb 7180 f0bd 5c54 323c
00000140: daf3 4dbd 4c3d d1bc e0b8 45bd d14f 6ebe
00000150: e023 2d3c 1995 e6bd 7aab a4bd 6fcb a1bd
00000160: d675 e1bb ed17 103d b569 38bd 36ee 783d
00000170: 532d 8ebd ce55 c03c 6f91 4e3d c596 8c3d
00000180: 587f ae3d 8619 46bb 020d ef3c c886 d73d
00000190: 7dbd b73b 8835 cb3a 58be 7bbd 0d2f a43d
000001a0: 9d62 15bd 886a b83d 3168 e2bc be8c 4f3d
000001b0: 9dd2 cebd 53ae 973c 243c 9ebd 625d 85bd
000001c0: 5776 db3d ccc4 1a3c 5253 82ba 7846 b7bd
000001d0: 9a57 533c e7c1 8a3c 1f51 a3bd 31b7 1fbe
000001e0: ee02 cc3c 24ae 94bd 69b4 6bbd df05 a9bc
000001f0: c580 00be f445 a7bd 56df cdbd 1111 a53d
00000200: 6e40 f3bb d198 2b3d 8b9c fc3d 99b1 023d
00000210: 91a0 45bd c538 bf3d 250f 693d 5436 bebd
00000220: 00da adbd 59ba 6ebd 01c5 7bbc 51f4 853c
00000230: 29a6 8abd 641e 75bd d5b1 02bd 97a8 34bd
00000240: eaa3 193d 062a 4e3c fa93 73bd 316a 8abe
00000250: dbad 8b3d 25c6 4abd 4dc5 d6bd 088a 11bd
00000260: 5767 e83a a444 e5bc 9065 aebd 6c22 563d
00000270: 6136 3b3c 1658 723b 8ee6 29bd cb09 083e
00000280: fd64 593d 840f 12bd fd73 b2bd 3375 f43c
00000290: 4def 893c f150 9b3d 667f 0dbe 3b3f 34bd
000002a0: da41 023e c160 4f3c 5056 7b3c def8 163d
000002b0: 1b8a 9b3d 61dd 053d e7fe 703d 4fc7 6fbd
000002c0: 0a13 3c3d 8f0e 073d 30bc 843c ede7 823d
000002d0: 11bf 133e e3fb 0d3d 48ce ad3b e3d0 d7bd
000002e0: fc77 60bc 2095 723b cabe d2bd 1819 6c3d
000002f0: 6778 a83c d5b1 a23c de1e dfbd 3fd4 c3bd
00000300: e082 953d 29cf 783d d293 313d 2c73 04bd
00000310: 96c2 86bd 678c b63d 1d1b 4fb9 45b3 b7bd
00000320: 7cef b2bc eadb 9b3c 5e50 103e 5062 cabc
00000330: c94c 29bc 2180 3fbd a97d a7bc 9e7e 6dbb
00000340: a1f9 c93c 405e 1c3d 6143 83bc 6148 a4be
00000350: 7f80 4b3d 00e0 813c c06b bfbd e24f 75bd
00000360: 4f86 b5bd 26c9 37bd cdde 3dbd 41db cb3c
00000370: dea9 92bd 64b5 b93c d6f7 57bd e960 b83d
00000380: afc3 8dbd 3659 25be 49f5 56bd bd3e db3d
00000390: 3b4c 7a3d cfa4 b43d 09e2 a5bd fe53 a5bd
000003a0: e6f6 1f3e 04d6 823d eb97 a9bd aaf4 663d
000003b0: b6d6 d0bd 97ed 4c3d e0ac c93d 592d c03d
000003c0: 5ef4 453d cdf2 9038 8782 ad3d f983 bfbc
000003d0: 4513 3fbd 5140 9b3d 6e33 c3bc 88d0 26bd
000003e0: aafc 193d 0527 a33c dd78 b6bd ce93 053d
000003f0: 13c6 953b b3ea 89bc ca1e 863c ea60 5e3d

sequential_2/conv2d_2/Conv2D f4 [64, 3, 3, 64]
-0.055573467 0.05223673 0.016189056 0.08564435 -0.021168085 0.0034422737 -0.04569308 -0.048225425
0.025816845 -0.050143793 -0.0034759184 -0.06411082 0.022289973 -0.08694793 -0.015625779 0.064851895
-0.021855121 -0.066479884 -0.008352357 0.023901528 -0.028382447 0.030214818 -0.002359226 0.053507224
0.07579211 0.007643816 -0.043853395 0.06823272 0.001898401 -0.064232506 0.042703737 -0.06530475
-0.03306138 0.05333183 0.033765532 -0.02834166 0.048149128 0.06374774 -0.0007373447 0.07899453
0.046993133 0.092480876 -0.037505228 0.042325508 0.046309013 -0.12791608 0.062396433 -0.005171515
-0.044498406 -0.059064984 -0.026844468 0.014420563 -0.058111623 -0.07406135 0.02684882 -0.01187089
-0.09287099 0.0028329177 -0.04026689 0.070362665 -0.06295752 -0.056583565 -0.004606876 -0.009472127
-0.017832253 0.06426917 -0.0023303549 -0.009065858 0.00070448837 -0.0005274527 -0.087508895 0.064039715
-0.0072433916 -0.01631096 -0.034112927 -0.000901775 -0.036515683 -0.007523901 0.019296141 0.024937242
0.040085647 0.046605024 0.08168064 0.012679648 0.05564878 -0.054264814 -0.02849818 -0.06746938
0.022864724 -0.0035734442 -0.07476711 0.07665444 -0.093294226 -0.016345056 -0.06231942 -0.02198451
-0.039569497 0.043822303 -0.018916756 -0.057270087 -0.005117338 0.07016511 0.05637969 0.027225683
-0.026169086 0.013714009 -0.1135674 -0.029189283 -0.034701973 -0.1074978 -0.016023144 0.0031387731
0.049458474 0.0018350331 0.015169418 -0.008581336 0.01929004 -0.1274058 -0.028680379 0.0581903
-0.11192903 -0.067799054 0.07239276 0.036201533 0.03617227 -0.004705161 0.052671462 0.058868013
0.0029132215 0.0064083156 0.03265193 0.07997287 -0.03617341 -0.07796803 0.011192913 -0.005428663
-0.0129236085 -0.017159715 -0.03813417 -0.054929383 0.018190175 0.0022386648 -0.00030520774 0.07141728
0.0036619408 0.008349962 0.044625454 -0.0090246005 0.06813292 0.015732883 -0.016564421 -0.045752242
0.024323514 0.014756836 -0.11774484 0.052685224 -0.10104783 -0.09675946 0.026084617 -0.01677867
-0.005196891 0.033992533 -0.021028904 0.00920521 0.01859329 0.014322786 -0.05300999 0.02131704
-0.055598475 0.02509711 -0.022963004 0.0259958 -0.05247428 -0.12881176 0.054760665 0.050763704
-0.06558223 -0.09097312 0.007810767 -0.009655058 0.049697347 -0.09190257 0.042274024 0.055661727
-0.058587063 -0.021912294 -0.051940694 0.0267508 -0.013020764 0.028735058 0.013532234 0.07082346
0.026107613 -0.0015681986 -0.10167983 -0.038348254 -0.0769754 0.018799141 -0.06831812 0.04466438
-0.04209837 0.05684577 -0.038561348 -0.021112353 -0.058138404 -0.009485592 -0.04478732 0.078544974
-0.043013077 -0.016766405 0.10520851 0.020517351 0.033048514 -0.072789885 0.002312719 -0.06761703
0.032729976 0.00635106 -0.0675479 -0.020801662 -0.03846143 -0.08630196 -0.020296913 -0.05653991
0.086816914 0.03048279 -0.027626727 -0.027749196 0.066073164 0.021441145 -0.010458975 -0.011871722
-0.031669516 0.013080476 -0.09479673 -0.02251398 -0.05544486 0.012914516 -0.0034357912 -0.05539487
-0.011270608 -0.055691566 -0.056999743 0.028247444 -0.03850744 -0.037152883 0.009091092 0.08412766
-0.15658046 -0.017476398 -0.018719641 -0.0014080993 0.031133318 0.014406645 -0.03001374 0.030288197
00000000: 01a1 63bd 2ef6 553d e99e 843c 4e66 af3d
00000010: b168 adbc c597 613b ab28 3bbd 0688 45bd
00000020: d97d d33c 9463 4dbd 3ccc 63bb 894c 83bd
00000030: 7699 b63c c211 b2bd a201 80bc 12d1 843d
00000040: 8309 b3bc 9b26 88bd 53d8 08bc 23cd c33c
00000050: 4e82 e8bc 1185 f73c 3f9d 1abb 642a 5b3d
00000060: e538 9b3d fa78 fa3b 9e9f 33bd 99bd 8b3d
00000070: c4d3 f83a 558c 83bd 1dea 2e3d 7fbe 85bd
00000080: 5f6b 07bd 7a72 5a3d ba4d 0a3d c52c e8bc
00000090: 0538 453d 2d8e 823d 5d4a 41ba e2c7 a13d
000000a0: df7b 403d 9d66 bd3d 159f 19bd 835d 2d3d
000000b0: 85ae 3d3d 6ffc 02be 6793 7f3d d075 a9bb
000000c0: f643 36bd 20ee 71bd eee8 dbbc 3a44 6c3c
000000d0: 7406 6ebd 7aad 97bd 0ef2 db3c 1f7e 42bc
000000e0: 2533 bebd 79a8 393b e5ee 24bd 4d1a 903d
000000f0: dfef 80bd 2bc4 67bd 47f5 96bb fb30 1bbc
00000100: f214 92bc 8e9f 833d deb8 18bb f788 14bc
00000110: 6aad 383a c044 0aba dd37 b3bd 4127 833d
00000120: f959 edbb 909e 85bc ffb9 0bbd 1965 6cba
00000130: 7891 15bd 0e8b f6bb f112 9e3c 3049 cc3c
00000140: d930 243d e9e4 3e3d 2e48 a73d 4cbe 4f3c
00000150: faef 633d c844 5ebd 0475 e9bc 632d 8abd
00000160: cd4e bb3c 7230 6abb 801f 99bd 01fd 9c3d
00000170: 0b11 bfbd 11e6 85bc a642 7fbd dc18 b4bc
00000180: a013 22bd 047f 333d 50f7 9abc 0a94 6abd
00000190: 58af a7bb bab2 8f3d 64ee 663d 6508 df3c
000001a0: 8d60 d6bc b9b0 603c 0696 e8bd 5d1e efbc
000001b0: a823 0ebd ce27 dcbd f842 83bc e0b3 4d3b
000001c0: f894 4a3d 7e85 f03a 2789 783c bb98 0cbc
000001d0: 2506 9e3c ab76 02be 1df3 eabc f458 6e3d
000001e0: 0c3b e5bd 3bda 8abd a842 943d 0f48 143d
000001f0: 6029 143d c02d 9abb 08be 573d 961f 713d
00000200: bfeb 3e3b d9fc d13b 08be 053d d1c8 a33d
00000210: 922a 14bd b4ad 9fbd 7b62 373c ede2 b1bb
00000220: 8bbd 53bc 8892 8cbc 9332 1cbd a2fd 60bd
00000230: 9003 953c 90b6 123b 4a04 a0b9 3943 923d
00000240: 2cfd 6f3b 47ce 083c 2ec9 363d ebdb 13bc
00000250: 4689 8b3d 3fe2 803c 1cb2 87bc b466 3bbd
00000260: 1b42 c73c a8c6 713c 3524 f1bd 76cc 573d
00000270: 2af2 cebd d329 c6bd 68af d53c 6c73 89bc
00000280: ae4a aabb c13b 0b3d cf44 acbc 73d1 163c
00000290: f550 983c 1eaa 6a3c 0121 59bd 13a1 ae3c
000002a0: 3abb 63bd 7498 cd3c e91c bcbc 25f5 d43c
000002b0: 45ef 56bd 3be7 03be b84c 603d 9aed 4f3d
000002c0: fa4f 86bd 1d50 babd 76f1 ff3b 4030 1ebc
000002d0: 728f 4b3d 6a37 bcbd 8727 2d3d 8dfd 633d
000002e0: fdf8 6fbd 6981 b3bc c4bf 54bd 7e24 db3c
000002f0: 0b55 55bc c965 eb3c 4eb6 5d3c e40b 913d
00000300: a2df d53c 038c cdba 843d d0bd 0f13 1dbd
00000310: 47a5 9dbd a800 9a3c 5fea 8bbd fff1 363d
00000320: 576f 2cbd 1cd7 683d 81f2 1dbd d0f3 acbc
00000330: 8922 6ebd 7569 1bbc e972 37bd 30dc a03d
00000340: 7b2e 30bd b359 89bc 8f77 d73d 0114 a83c
00000350: e15d 073d dd12 95bd fc90 173b cc7a 8abd
00000360: de0f 063d 8d1c d03b 8e56 8abd 3f68 aabc
00000370: bc89 1dbd 15bf b0bd b645 a6bc 6596 67bd
00000380: 11cd b13d 0bb7 f93c 7251 e2bc 4852 e3bc
00000390: 5e51 873d 57a5 af3c 1f5c 2bbc 9c81 42bc
000003a0: e5b7 01bd 7e4f 563c ca24 c2bd 3d6f b8bc
000003b0: 261a 63bd 6897 533c 032b 61bb bbe5 62bd
000003c0: 5ba8 38bc d71c 64bd 9078 69bd 2f67 e73c
000003d0: fab9 1dbd 9f2d 18bd cef2 143c 1f4b ac3d
000003e0: a156 20be aa2a 8fbc ef59 99bc f98f b8ba
000003f0: 4d0b ff3c d909 6c3c 60df f5bc f41e f83c

sequential_2/conv2d_3/Conv2D f4 [64, 2, 2, 64]
0.011234795 -0.07225102 -0.076078765 -0.07430345 -0.112128906 0.004775049 -0.1068775 0.014527298
0.09736409 -0.042152543 0.001176553 0.078129016 0.06714752 0.016007002 -0.14287373 -0.07718834
0.076390155 -0.040063113 -0.041865773 0.01663487 0.027794622 0.05451474 -0.04750748 -0.08944549
0.092380516 -0.06283332 0.041952036 0.043000676 -0.08312763 -0.04854824 0.035519853 0.07306141
-0.01950423 0.08306646 -0.09395475 -0.022117943 -0.054553166 -0.030818842 -0.0021343213 0.0026996338
-0.011587631 0.027278876 -0.07818054 -0.024174681 0.0980867 -0.01947278 0.09503431 0.033032488
0.066636406 0.05241501 0.11056283 0.046554774 -0.11692051 -0.11415567 -0.044299997 -0.105000086
0.028226318 0.056367084 -0.11636169 0.019937128 0.009040286 0.08457585 0.05849825 -0.08118587
-0.11976531 -0.07138734 0.020512853 -0.012704488 -0.08061908 -0.04621843 -0.12632205 0.13451886
0.059503276 -0.086412966 0.11342078 0.059103392 -0.018364605 0.05352045 -0.046406735 -0.09434472
-0.01776353 -0.09912565 0.007363726 -0.08117471 -0.10633361 -0.09388393 0.07946198 0.088953316
-0.039276842 -0.116906 0.0108349165 0.10216085 -0.023148434 -0.045605924 0.08871254 0.0639636
0.021656854 0.07648823 -0.037146796 -0.02482817 -0.027769934 -0.103295654 0.08345652 -0.09522459
0.0038551665 0.075448096 0.01878837 -0.023353305 -0.028591165 0.02349117 -0.07226725 0.073365465
-0.016409574 0.0898903 -0.047218915 -0.07030925 -0.055832446 -0.083588496 0.08269642 -0.048316646
0.08829815 -0.075890414 0.025326073 0.0790602 -0.060268275 -0.030049033 0.062537774 -0.045989234
0.009484962 0.00037672237 -0.09417488 0.02244814 0.073690064 0.04310571 0.02840657 -0.0023734584
0.055513505 -0.11708991 0.105680525 -0.04311498 -0.06836652 0.049362853 -0.12733756 -0.12228963
-0.07483693 0.03639077 0.06199826 -0.05466759 -0.031512342 -0.096088625 0.0525827 -0.05675039
-0.017183237 0.07355601 0.03700706 -0.022039143 0.008842312 0.07124578 0.03421524 -0.029425204
-0.06583137 -0.115919665 -0.13837937 -0.09822033 0.024831297 -0.024581352 0.021547541 -0.07217548
0.061937556 -0.013824106 0.09632754 -0.07600222 0.033786 -0.12719017 0.07336105 -0.026421906
-0.07035634 -0.0565871 -0.01161165 -0.10807522 -0.019921001 -0.016863193 0.051443383 -0.102139525
0.01822821 -0.10166004 -0.056969065 0.09542485 -0.0721965 0.073689826 0.06706552 -0.010432451
-0.10864425 0.027855009 -0.09393097 -0.011387319 0.082839616 0.085991375 0.018641654 0.06260381
0.03470095 -0.1374231 0.05927151 0.04065484 0.09416901 -0.06992875 0.0132442815 0.0065860543
0.113889664 -0.061607394 -0.04052964 0.011894073 -0.034659818 -0.07331833 0.048253957 0.0027348013
0.07090265 0.066238865 0.014073807 0.02899614 0.08006633 -0.16285709 0.053778775 -0.07545848
0.018046563 -0.069289684 -0.016983872 -0.06391127 0.030182738 0.042101294 -0.07170049 -0.013259994
0.021624135 -0.015706742 -0.006780908 -0.10590604 -0.0011792254 -0.029631352 -0.055993136 0.0039443006
0.065939724 0.10120132 0.11531524 -0.05904617 0.051688127 -0.027739484 0.10299665 0.065018415
-0.055640884 0.0675801 -0.09766411 -0.037703514 0.05257615 -0.0024738286 0.03206689 0.0441865
00000000: 2512 383c 58f8 93bd 2fcf 9bbd 682c 98bd
00000010: d7a3 e5bd 0478 9c3b 97e2 dabd e703 6e3c
00000020: d366 c73d 25a8 2cbd 9136 9a3a 1b02 a03d
00000030: a484 893d 1e21 833c 7e4d 12be ec14 9ebd
00000040: 7172 9c3d 3819 24bd 727b 2bbd da45 883c
00000050: 8cb1 e33c d94a 5f3d 3497 42bd 322f b7bd
00000060: ff31 bd3d c1ae 80bd e6d5 2b3d 7a21 303d
00000070: d23e aabd 85da 46bd 447d 113d 38a1 953d
00000080: 56c7 9fbc c01e aa3d 596b c0bd b030 b5bc
00000090: 2473 5fbd cc77 fcbc f8df 0bbb 57ec 303b
000000a0: 0cda 3dbc f377 df3c 1e1d a0bd fb09 c6bc
000000b0: aee1 c83d 6185 9fbc 59a1 c23d 134d 073d
000000c0: ab78 883d 1fb1 563d c46e e23d 38b0 3e3d
000000d0: 0574 efbd 73ca e9bd ea73 35bd 490a d7bd
000000e0: e13a e73c 2ce1 663d 0a4f eebd 3053 a33c
000000f0: b51d 143c 1a36 ad3d dc9b 6f3d c744 a6bd
00000100: 8447 f5bd 8733 92bd 920a a83c 7c26 50bc
00000110: 9e1b a5bd 894f 3dbd 915a 01be 50bf 093e
00000120: b5b9 733d 48f9 b0bd 2749 e83d 6616 723d
00000130: 5e71 96bc 4238 5b3d fd14 3ebd ce37 c1bd
00000140: d384 91bc 6402 cbbd 694b f13b ed3e a6bd
00000150: 70c5 d9bd 3846 c0bd f6bc a23d 282d b63d
00000160: c1e0 20bd 6a6c efbd ef84 313c b539 d13d
00000170: c9a1 bdbc 47cd 3abd ecae b53d 59ff 823d
00000180: b769 b13c dca5 9c3d 3d27 18bd 7264 cbbc
00000190: c67d e3bc ac8c d3bd 41eb aa3d 1c05 c3bd
000001a0: f6a6 7c3b 8884 9a3d 11ea 993c 6e4f bfbc
000001b0: 0538 eabc 8e70 c03c da00 94bd a240 963d
000001c0: 5f6d 86bc 6818 b83d 9f68 41bd 4cfe 8fbd
000001d0: 90b0 64bd 7230 abbd be5c a93d ade7 45bd
000001e0: a9d5 b43d 6f6c 9bbd a078 cf3c 50ea a13d
000001f0: dedb 76bd 6429 f6bc ce13 803d 355f 3cbd
00000200: d066 1b3c d282 c539 c2de c0bd 29e5 b73c
00000210: d1ea 963d 9d8f 303d e5b4 e83c 068c 1bbb
00000220: 2162 633d d6cc efbd 086f d83d 5599 30bd
00000230: bf03 8cbd b430 4a3d c764 02be fc72 fabd
00000240: 1b44 99bd 7d0e 153d e3f1 7d3d 1feb 5fbd
00000250: 1613 01bd 1dca c4bd f560 573d 1973 68bd
00000260: dcc3 8cbc 89a4 963d b794 173d 6f8b b4bc
00000270: 58df 103c 4fe9 913d 4825 0c3d 200d f1bc
00000280: 99d2 86bd 4a67 edbd 52b3 0dbe be27 c9bd
00000290: 016b cb3c d55e c9bc 7884 b03c bdd0 93bd
000002a0: 3cb2 7d3d 817e 62bc 6047 c53d 0da7 9bbd
000002b0: 3063 0a3d 243e 02be 513e 963d c172 d8bc
000002c0: fc16 90bd e0c7 67bd ca3e 3ebc 8a56 ddbd
000002d0: 5e31 a3bc ae24 8abc 4cb6 523d 872e d1bd
000002e0: 5453 953c 2433 d0bd 6558 69bd 1b6e c33d
000002f0: c2db 93bd b1ea 963d a659 893d dfec 2abc
00000300: e080 debd 3030 e43c e15e c0bd e191 3abc
00000310: d1a7 a93d 3f1c b03d 62b6 983c 6d36 803d
00000320: 9522 0e3d a4b8 0cbe afc6 723d b185 263d
00000330: afdb c03d ce36 8fbd 8bfe 583c d4cf d73b
00000340: fc3e e93d 0958 7cbd 6802 26bd 5cdf 423c
00000350: 74f7 0dbd ec27 96bd f1a5 453d 5a3a 333b
00000360: 6935 913d 3ea8 873d d395 663c 5089 ed3c
00000370: d1f9 a33d 02c4 26be 2247 5c3d fa89 9abd
00000380: 63d6 933c c0e7 8dbd c321 8bbc e9e3 82bd
00000390: ca41 f73c 6872 2c3d b5d7 92bd 7240 59bc
000003a0: 1925 b13c 6dab 80bc 6132 debb 44e5 d8bd
000003b0: 3d90 9aba 73bd f2bc 0f59 65bd 313f 813b
000003c0: 680b 873d a342 cf3d 662a ec3d 66da 71bd
000003d0: eeb6 533d ea3d e3bc e8ef d23d 6028 853d
000003e0: b2e7 63bd 6f67 8a3d 1f04 c8bd 006f 1abd
000003f0: 175a 573d f51f 22bb 9258 033d e7fc 343d

sequential_2/conv2d_4/Conv2D f4 [64, 2, 2, 64]
-0.038150556 -0.061459374 0.12816629 -0.08010546 -0.021874085 -0.003908424 -0.086100265 0.012115179
0.015023099 0.025090251 0.015368906 0.055664487 -0.11201437 -0.015826635 -0.125881 -0.08677534
-0.09356473 0.028136535 0.12124719 0.012840436 -0.027436702 0.022883175 0.08721035 -0.077235326
-0.01724984 0.06815047 -0.04242564 0.07285229 -0.05860923 -0.06602713 0.068589106 0.069073744
0.07215215 -0.0053105345 -0.049941476 0.09463162 -0.09527671 0.10758771 0.07238367 0.04060283
-0.12141372 0.020004438 -0.07216357 -0.08434578 -0.06454438 0.053729378 -0.041336715 0.062276267
0.09246658 0.013423417 0.017387368 -0.036615856 0.061228756 0.023636293 -0.06536455 -0.1005253
0.0009335192 -0.06923765 -0.1294328 -0.09074051 0.01148593 0.09737233 -0.09333009 -0.060152374
0.05737233 -0.10472278 0.015419769 0.04107528 0.0429055 0.03900968 0.021786138 0.097877696
-0.028731907 0.008489167 -0.0851997 -0.098831005 -0.06212944 0.048285104 -0.15333723 -0.09809895
-0.08185088 -0.15658782 0.0945718 -0.07396663 -0.07298053 0.115298524 -0.110378206 0.015974829
0.09190171 -0.01099671 -0.08186372 -0.10335733 -0.14398818 0.025615 0.021772398 -0.14124382
-0.055222172 -0.036027424 -0.05453146 -0.10008772 -0.057631027 -0.039117444 -0.07979064 -0.10514811
0.06776221 0.0030038245 -0.0837088 -0.08309766 0.05565466 -0.014214596 -0.006535159 0.028559618
-0.047238667 0.05773409 -0.07415851 -0.0005336972 -0.049317356 0.08481908 -0.07389379 0.07607311
0.018095572 0.0681341 0.008967345 -0.10289424 0.064040124 -0.07814066 0.03248569 -0.00012067842
-0.10923713 0.06132127 0.07898588 -0.095786415 -0.073187105 0.10234039 -0.094532385 0.114881374
-0.12335829 0.013127911 0.02356129 -0.008996743 -0.022106988 0.029907906 0.07255352 -0.074310035
-0.10681604 0.044383485 -0.061201476 -0.032338176 0.06285327 0.06105606 -0.039973546 0.029572297
-0.058443855 -0.08467595 -0.03437887 0.055869374 -0.02618357 -0.098280445 0.07296822 0.057160504
0.0372404 0.0890383 -0.06486967 -0.104182646 -0.06693979 -0.013900857 -0.045644097 0.06849035
-0.053409394 -0.058531765 -0.08227369 -0.09452628 -0.05166856 -0.040227592 -0.023397641 0.055169556
-0.081928924 0.06055785 -0.0572936 -0.07158852 0.051871423 0.1397399 0.03181519 0.0830903
-0.026802756 -0.06052222 0.06753276 -0.058080614 0.040432718 -0.07687649 0.017860068 0.046700515
-0.11704146 -0.104502246 0.12228639 0.034840178 0.062411137 -0.031392146 0.071275495 0.03439863
-0.022783212 -0.10225506 0.015247927 0.0014458067 -0.043880887 0.033900227 -0.014523027 0.008003897
-0.045325767 0.02573756 0.08653487 -0.017125396 0.06002298 0.06743135 -0.07521974 -0.023406792
0.07871851 0.00080948044 0.08467284 -0.07575508 -0.12297072 -0.08791406 0.004138544 0.08940888
0.0286266 0.075827844 0.06890257 -0.06620175 -0.067028396 0.07942897 0.029982334 -0.08602272
-0.026254356 0.029788822 -0.006834293 -0.1031288 -0.0325619 0.021141365 0.010313109 -0.11943884
0.029942622 -0.00495695 -0.011094938 -0.075109676 -0.05473412 -0.056848034 -0.09104785 -0.03190823
0.072293706 -0.055284087 -0.016678194 -0.10436105 -0.005789093 0.041980322 0.03936783 -0.12110112
00000000: c243 1cbd d3bc 7bbd 063e 033e 550e a4bd
00000010: 4831 b3bc 3d12 80bb 5655 b0bd be7e 463c
00000020: 7223 763c 128a cd3c ddcd 7b3c 7200 643d
00000030: ca67 e5bd dca6 81bc f3e6 00be 45b7 b1bd
00000040: dd9e bfbd 977e e63c 7250 f83d b160 523c
00000050: efc2 e0bc 7f75 bb3c 579b b23d 8e2d 9ebd
00000060: 894f 8dbc 7992 8b3d 82c6 2dbd 9533 953d
00000070: 3b10 70bd 3b39 87bd 7278 8c3d 8976 8d3d
00000080: 82c4 933d fe03 aebb 6f8f 4cbd 39ce c13d
00000090: 7020 c3bd f256 dc3d e43d 943d 274f 263d
000000a0: c2a7 f8bd 59e0 a33c 7eca 93bd 7bbd acbd
000000b0: d82f 84bd 5613 5c3d b050 29bd 6615 7f3d
000000c0: 1e5f bd3d e4ed 5b3c f46f 8e3c 82fa 15bd
000000d0: 01cb 7a3d e6a0 c13c d9dd 85bd 35e0 cdbd
000000e0: 6ab7 743a 78cc 8dbd 088a 04be 29d6 b9bd
000000f0: 7b2f 3c3c 256b c73d d923 bfbd 5662 76bd
00000100: 40ff 6a3d e678 d6bd 33a3 7c3c 8e3e 283d
00000110: adbd 2f3d 9dc8 1f3d d878 b23c 1a74 c83d
00000120: 2d5f ebbc 2616 0b3c 2e7d aebd e967 cabd
00000130: 717b 7ebd 9ac6 453d 6f04 1dbe 1ae8 c8bd
00000140: 6fa1 a7bd 8f58 20be dcae c13d d17b 97bd
00000150: d176 95bd a221 ec3d f80d e2bd a5dd 823c
00000160: f736 bc3d 8b2b 34bc 2ba8 a7bd 02ad d3bd
00000170: a371 13be 8cd6 d13c 075c b23c 38a2 10be
00000180: a530 62bd 7e91 13bd 615c 5fbd cafa ccbd
00000190: 830e 6cbd 9d39 20bd 4669 a3bd e457 d7bd
000001a0: eac6 8a3d d0db 443b 856f abbd 1b2f aabd
000001b0: 24f6 633d 56e4 68bc e324 d6bb dcf5 e93c
000001c0: 557d 41bd 957a 6c3d 6be0 97bd d0e7 0bba
000001d0: ff00 4abd a0b5 ad3d a155 97bd 38cc 9b3d
000001e0: 2a3d 943c e489 8b3d c5eb 123c 37ba d2bd
000001f0: 7827 833d 3608 a0bd b70f 053d bc14 fdb8
00000200: b7b7 dfbd 032c 7b3d 59c3 a13d ab2b c4bd
00000210: 1fe3 95bd d797 d13d 329a c1bd ed46 eb3d
00000220: 45a3 fcbd 7316 573c 9b03 c13c 1367 13bc
00000230: b719 b5bc 6d01 f53c f196 943d dc2f 98bd
00000240: 5ec2 dabd 75cb 353d 66ae 7abd 0975 04bd
00000250: 37b9 803d eb15 7a3d 4dbb 23bd 9a41 f23c
00000260: d362 6fbd 966a adbd dcd0 0cbd 49d7 643d
00000270: ed7e d6bc 4247 c9bd 5d70 953d 2221 6a3d
00000280: 6489 183d b659 b63d 64da 84bd b65d d5bd
00000290: bb17 89bd 6cc0 63bc 4ef5 3abd ab44 8c3d
000002a0: cfc3 5abd 01bf 6fbd 1c7f a8bd ff96 c1bd
000002b0: 69a2 53bd b0c5 24bd 69ac bfbc 79f9 613d
000002c0: 5aca a7bd 820b 783d b2ac 6abd 019d 92bd
000002d0: 2177 543d fa17 0f3e a550 023d 3f2b aa3d
000002e0: 7491 dbbc 26e6 77bd 9e4e 8a3d f0e5 6dbd
000002f0: c79c 253d 6c71 9dbd 474f 923c 0a49 3f3d
00000300: 6fb3 efbd 4605 d6bd 4971 fa3d 93b4 0e3d
00000310: d2a2 7f3d 0d95 00bd e3f8 913d 94e5 0c3d
00000320: dca3 babc 1a6b d1bd 71d2 793c 3981 bd3a
00000330: 72bc 33bd f7da 0a3d fef1 6dbc c722 033c
00000340: 83a7 39bd 93d7 d23c 3239 b13d 8f4a 8cbc
00000350: a8da 753d 7319 8a3d cf0c 9abd 9abf bfbc
00000360: 2c37 a13d 5033 543a f468 ad3d 7b25 9bbd
00000370: 13d8 fbbd 490c b4bd a09c 873b 011c b73d
00000380: 5582 ea3c a14b 9b3d ca1c 8d3d c894 87bd
00000390: 2f46 89bd a8ab a23d 839d f53c ae2c b0bd
000003a0: 6013 d7bc b007 f43c 34f2 dfbb 3135 d3bd
000003b0: a05f 05bd a830 ad3c 50f8 283c 5a9c f4bd
000003c0: 3b4a f53c e96d a2bb 8bc7 35bc 1ad3 99bd
000003d0: e230 60bd 7cd9 68bd 4c77 babd 34b2 02bd
000003e0: b90e 943d 9171 62bd b5a0 88bc 3fbb d5bd
000003f0: 6fb2 bdbb 8ff3 2b3d 2940 213d dd03 f8bd

sequential_2/conv2d_5/Conv2D f4 [64, 2, 2, 64]
-0.058429893 0.0040011923 -0.008054625 -0.03448552 0.033864446 0.0042754933 0.019341212 0.13849545
-0.012900707 0.01863323 0.079617515 -0.05109735 0.06461852 -0.07601013 -0.060307458 0.09405383
0.025351098 -0.004223195 -0.08287109 0.08915051 0.114168935 -0.07526326 -0.04265206 -0.0750146
-0.0608849 -0.060272694 -0.076661885 -0.064163916 0.06922688 0.06419896 0.017759094 -0.032290716
0.096782126 0.07101413 -0.25431326 -0.015454521 -0.08388361 -0.043739878 -0.0877818 0.022057839
-0.084343635 -0.011937509 -0.02421293 0.032862745 -0.12254127 -0.177683 -0.09033167 -0.17094277
0.011686726 0.045945164 0.084643 0.10002615 0.09039561 -0.032089073 -0.1852737 0.079672754
0.04129818 0.08948324 0.09686401 -0.06836636 -0.08140816 0.006561187 0.08779757 0.10309394
0.090036385 -0.085713536 -0.06885782 0.03104799 0.042110562 0.040883917 -0.07549415 0.08788242
-0.03746567 -0.08188621 -0.052911535 -0.08270703 0.040512495 -0.037745208 0.040850196 -0.048569474
-0.043177366 -0.10077158 -0.09824937 0.06003326 0.01563279 0.045493826 0.010272676 0.11926186
0.054513134 -0.11390461 0.11764652 0.053579383 0.071068555 0.05452224 -0.104808286 0.048995536
0.14018488 -0.0070213573 -0.10560085 0.14525539 -0.086642265 -0.17023337 0.15029603 -0.03158523
0.011819834 -0.011531138 0.046763536 0.0883064 -0.0068542142 -0.07854518 -0.06483136 -0.16105191
-0.20511061 -0.118877895 0.021738961 0.053228434 -0.019385308 0.0686602 -0.24413273 -0.12165541
-0.001275443 0.09135849 -0.1484119 -0.037593305 0.14357366 0.012979396 -0.04515757 -0.004485314
0.038546503 0.07394371 0.090557784 -0.0724303 -0.11615332 0.033111755 0.07542851 0.1530761
0.123641945 0.18908283 0.028650574 -0.19958948 -0.10731321 0.084467314 0.056257837 0.03454741
0.020291494 -0.119537 -0.13937333 0.015295602 0.06060862 0.039957482 -0.054471746 -0.1854176
0.05048418 -0.0071445834 -0.17094551 -0.13641734 -0.14105956 0.16721258 -0.089248754 0.029999975
0.030718196 -0.1335934 -0.13068056 -0.10918569 -0.050320763 -0.03754392 -0.13079356 0.04109531
-0.13360803 -0.051083386 0.11638046 0.057493858 0.019206746 -0.1567514 0.012051867 0.020169616
0.061042592 -0.01607771 0.018197916 -0.07540467 0.08157254 0.06305737 0.0036766701 0.119055845
0.011374387 0.017605327 0.12399993 0.0018193336 -0.004456095 0.03636752 -0.14850876 0.054105584
-0.0066767917 0.03697549 0.04744909 -0.059432443 0.06567245 0.09030486 0.07870056 0.013783087
-0.06156789 0.018776111 0.060665295 0.0003805786 -0.021291709 0.00519438 0.037266243 -0.010826564
-0.103940144 0.047494587 0.06262042 0.008429543 -0.015466774 -0.022073887 -0.042272393 -0.05491618
-0.07752797 -0.034043927 0.03684778 0.06467255 0.05061056 0.027674325 -0.08119473 -0.058598306
-0.03302673 -0.025911817 -0.004816852 0.019853532 0.01842175 0.052957032 0.047665216 0.0878449
-0.006955892 0.13624643 0.078226 0.007845875 0.0039575323 -0.05291969 -0.06122071 0.022350345
0.02549659 -0.113048874 0.05130478 -0.02408199 0.08345317 -0.025875485 0.025757812 0.13586941
0.029966004 -0.089692585 0.09367184 -0.029549204 -0.0867119 0.07692438 0.03613394 -0.052156206
00000000: 2f54 6fbd 6f1c 833b 8cf7 03bc b040 0dbd
00000010: 72b5 0a3d 7019 8c3b 7671 9e3c c0d1 0d3e
00000020: 7d5d 53bc b7a4 983c 820e a33d 744b 51bd
00000030: b756 843d 33ab 9bbd f404 77bd 4b9f c03d
00000040: 1bad cf3c ba62 8abb 51b8 a9bd 8b94 b63d
00000050: 67d1 e93d a023 9abd edb3 2ebd 41a1 99bd
00000060: 7262 79bd 80e0 76bd e800 9dbd 5f68 83bd
00000070: d3c6 8d3d bf7a 833d 857b 913c 4543 04bd
00000080: b535 c63d db6f 913d 5935 82be f634 7dbc
00000090: 2ccb abbd 9628 33bd f2c6 b3bd a4b2 b43c
000000a0: 5bbc acbd 8b95 43bc 325a c6bc 169b 063d
000000b0: ebf6 fabd 88f2 35be d0ff b8bd 9f0b 2fbe
000000c0: ae79 3f3c ff30 3c3d 4f59 ad3d 83da cc3d
000000d0: 5521 b93d d56f 03bd 64b8 3dbe 782b a33d
000000e0: 4828 293d fd42 b73d a360 c63d aa03 8cbd
000000f0: 52b9 a6bd 3aff d63b 36cf b33d ea22 d33d
00000100: ff64 b83d 948a afbd 5405 8dbd 5b58 fe3c
00000110: 207c 2c3d e575 273d ad9c 9abd b3fb b33d
00000120: 9a75 19bd f5b3 a7bd c4b9 58bd 4e62 a9bd
00000130: 6ef0 253d b89a 1abd 8952 273d c9f0 46bd
00000140: c0da 30bd 5561 cebd f736 c9bd 70e5 753d
00000150: 5610 803c bc57 3a3d ba4e 283c 903f f43d
00000160: 2a49 5f3d d246 e9bd a9f0 f03d 0e76 5b3d
00000170: 648c 913d b652 5f3d baa5 d6bd 8baf 483d
00000180: a08c 0f3e 6a13 e6bb 4245 d8bd d4bd 143e
00000190: 8071 b1bd a851 2ebe 34e7 193e 845f 01bd
000001a0: faa7 413c 19ed 3cbc 1f8b 3f3d fcd9 b43d
000001b0: 5199 e0bb 4cdc a0bd 4ec6 84bd cbea 24be
000001c0: 8408 52be 4176 f3bd e815 b23c 0f06 5a3d
000001d0: f0cd 9ebc b89d 8c3d eefd 79be 7926 f9bd
000001e0: c42c a7ba 291a bb3d 4af9 17be 70fb 19bd
000001f0: f904 133e 88a7 543c 25f7 38bd 8af9 92bb
00000200: f0e2 1d3d cd6f 973d 5c76 b93d 5656 94bd
00000210: cbe1 edbd 31a0 073d 437a 9a3d fbbf 1c3e
00000220: fd37 fd3d ee9e 413e 9cb4 ea3c 2f61 4cbe
00000230: 07c7 dbbd 33fd ac3d 9e6e 663d 9681 0d3d
00000240: 593a a63c d1cf f4bd e2b7 0ebe 689a 7a3c
00000250: bf40 783d 75aa 233d c41d 5fbd 1dde 3dbe
00000260: 80c8 4e3d 1c1d eabb 570c 2fbe fdb0 0bbe
00000270: eb71 10be c639 2b3e 0dc8 b6bd 82c2 f53c
00000280: baa4 fb3c b5cc 08be 20d1 05be bf9c dfbd
00000290: 251d 4ebd a7c7 19bd bfee 05be 8e53 283d
000002a0: 8bd0 08be d03c 51bd e158 ee3d ae7e 6b3d
000002b0: 7757 9d3c 7083 20be 3275 453c c03a a53c
000002c0: cc07 7a3d 67b5 83bc cc13 953c c36d 9abd
000002d0: 810f a73d 3924 813d 4af4 703b 8dd3 f33d
000002e0: a35b 3a3c 0c39 903c adf3 fd3d b576 ee3a
000002f0: 6f04 92bb 1cf6 143d ae12 18be d19d 5d3d
00000300: fdc8 dabb 9d73 173d fa59 423d 6f6f 73bd
00000310: 477f 863d c1f1 b83d c22d a13d 75d2 613c
00000320: 9d2e 7cbd 5cd0 993c 2c7c 783d 6588 c739
00000330: f36b aebc 9e35 aa3b 7da4 183d e761 31bc
00000340: 92de d4bd af89 423d 223f 803d 111c 0a3c
00000350: 5a68 7dbc 4cd4 b4bc d125 2dbd caef 60bd
00000360: fcc6 9ebd a571 0bbd b3ed 163d 0b73 843d
00000370: 054d 4f3d 44b5 e23c 6c49 a6bd c704 70bd
00000380: 0947 07bd 0545 d4bc afd6 9dbb e0a3 a23c
00000390: 36e9 963c 79e9 583d 9a3c 433d 07e8 b33d
000003a0: 40ee e3bb 2f84 0b3e f434 a03d fc8b 003c
000003b0: 30ae 813b 51c2 58bd 91c2 7abd 1218 b73c
000003c0: 3ade d03c 2b86 e7bd f624 523d 9847 c5bc
000003d0: 7fe9 aa3d d3f8 d3bc 0c02 d33c 5a21 0b3e
000003e0: 447b f53c bfb0 b7bd 06d7 bf3d 2c11 f2bc
000003f0: 0296 b1bd 888a 9d3d 2f01 143d bfa1 55bd

sequential_2/dense/BiasAdd/ReadVariableOp f4 [64]
0.02730154 0.00089297874 0.01882723 -0.0036391267 -3.8225437e-05 0.015748229 0.03463391 -0.014601545
0.015766667 -0.010704794 -0.0057553193 -0.00782977 -0.022710577 0.00040630822 -0.0148823345 0.037673865
0.038424477 0.022063168 0.011636861 0.013245321 0.02989677 0.013037946 -0.0042940243 0.027835773
-0.012989811 0.044369087 0.029377654 -0.015562282 0.008242058 -0.027014388 -0.0082749985 0.042763233
0.042356312 -0.015046227 -0.022371927 0.016571915 0.005220126 -0.026010975 -0.078851424 0.024580915
0.024784993 -0.044561032 -0.018574784 -0.021459809 -0.016922003 0.022366619 0.03282822 0.05145091
0.039217923 0.026680173 0.02247891 0.0072326222 0.041453227 0.024240566 0.0036634638 0.042345006
0.012286811 -0.034866136 0.02797086 0.039498817 -0.010673287 -0.016886065 -0.008488066 0.023858635
00000000: 7ba7 df3c ca16 6a3a 903b 9a3c 6a7e 6ebb
00000010: 4054 20b8 6e02 813c 49dc 0d3d 523b 6fbc
00000020: 1929 813c 2963 2fbc 1e97 bcbb 7048 00bc
00000030: 880b babc c405 d539 09d5 73bc e94f 1a3d
00000040: fc62 1d3d d1bd b43c 88a8 3e3c e702 593c
00000050: 12ea f43c 1c9d 553c e3b4 8cbb d907 e43c
00000060: 37d3 54bc 5cbc 353d 68a9 f03c f1f8 7ebc
00000070: b209 073c 474d ddbc dc93 07bc 8028 2f3d
00000080: d07d 2d3d 7384 76bc 5545 b7bc d3c1 873c
00000090: 970d ab3b f814 d5bc db7c a1bd ea5d c93c
000000a0: e609 cb3c a185 36bd 252a 98bc 7bcc afbc
000000b0: 03a0 8abc 333a b73c e276 063d 30be 523d
000000c0: f9a2 203d 6190 da3c b125 b83c a2ff ec3b
000000d0: dcca 293d 2794 c63c b916 703b f571 2d3d
000000e0: 9f4e 493c cbcf 0ebd 2523 e53c 83c9 213d
000000f0: 03df 2ebc a554 8abc 8711 0bbc 2f73 c33c

sequential_2/dense_1/BiasAdd/ReadVariableOp f4 [2]
-0.024461484 0.024461487
00000000: 7363 c8bc 7563 c83c
