exports/strawberry.tflite (tflite, 485128 bytes, 16 tensors)

sequential_2/conv2d/Relu;sequential_2/conv2d/BiasAdd;sequential_2/conv2d_5/Conv2D;sequential_2/conv2d/Conv2D;sequential_2/conv2d/BiasAdd/ReadVariableOp f4 [64, 1, 1, 3]
0	0x3a6243e1	0.00086313306
1	0x3a7834d8	0.00094683236
2	0x3a734d73	0.0009281255
3	0xb9b06e50	-0.00033651525
4	0x39f90eea	0.00047504093
5	0x3998b60c	0.00029127335
6	0x3a244ef4	0.00062678684
7	0x399b9ca5	0.00029680613
8	0x3935b1b9	0.00017327712
9	0xbaab0a9d	-0.0013049428
10	0xb9dac35a	-0.00041725748
11	0xba8dba1a	-0.0010812909
12	0xba937be4	-0.0011252132
13	0x380ce36e	3.359041e-05
14	0x3a330e24	0.0006830415
15	0xba0922fa	-0.0005231347
16	0x3a45f689	0.000755169
17	0x3a36b53c	0.0006969755
18	0x393e94bc	0.0001817522
19	0x3a05f729	0.0005110377
20	0xb9da2c85	-0.0004161337
21	0x3a81785b	0.0009877788
22	0x3a2fc355	0.0006704827
23	0xb9b4ffff	-0.00034523007
24	0x3a18be30	0.000582668
25	0x3a25c2be	0.00063232693
26	0xb987fd44	-0.00025937904
27	0x38bff472	9.153121e-05
28	0x3a0e8fa6	0.00054382754
29	0x3a98a8ea	0.001164702
30	0xb7bba42c	-2.2368586e-05
31	0xba803f23	-0.0009784441
32	0x3a5fe8b6	0.00085414515
33	0x3a6cf128	0.00090386206
34	0xb9c4a689	-0.00037508112
35	0x390b4cd3	0.00013284692
36	0x3a6d8400	0.0009060502
37	0xb837f2a1	-4.3856566e-05
38	0xb9dbc18d	-0.00041915142
39	0xba9763a4	-0.0011550081
40	0xb8f4c4d9	-0.000116714924
41	0x3a05ea13	0.0005108427
42	0x3a925b9c	0.0011166218
43	0xba6e62ac	-0.0009093683
44	0x3a4c34cb	0.0007789849
45	0x3924fc80	0.00015734322
46	0x3a481236	0.0007632108
47	0xba778747	-0.000944246
48	0x3a0e84e4	0.00054366724
49	0x3a7b455e	0.00095852267
50	0x397936df	0.00023766932
51	0xb8b22dc9	-8.4962296e-05
52	0xb9a33151	-0.00031126526
53	0x3a485cea	0.000764324
54	0xba88945f	-0.0010420195
55	0x3a084d5f	0.00051995175
56	0x3a30aada	0.0006739326
57	0x3a821214	0.0009923601
58	0xba08c214	-0.0005216908
59	0xba08d17d	-0.00052192045
60	0x3a2b24c1	0.0006528609
61	0xba8bc81c	-0.0010664496
62	0x3a0a9c16	0.0005287541
63	0xb8ce3fcb	-9.834728e-05
64	0xb930efd7	-0.00016874015
65	0x3a2351c5	0.0006230141
66	0xb95ca679	-0.00021042851
67	0x396252db	0.00021583906
68	0xb997c142	-0.00028944953
69	0x3a8e90f1	0.0010876936
70	0xba8f1b28	-0.0010918127
71	0x3a24c660	0.00062856637
72	0x3a7fa9f7	0.0009752805
73	0xba08e6fc	-0.00052224076
74	0x39e7331b	0.0004409783
75	0x38e84bee	0.00011076765
76	0xba5ebeff	-0.00084970886
77	0xb95ee103	-0.00021255393
78	0x3a370f93	0.0006983217
79	0xba5d59cb	-0.0008443861
80	0x38f9a41f	0.00011903815
81	0xb9e7a0dd	-0.00044179606
82	0x3a3f203f	0.0007290877
83	0xba38f273	-0.0007055171
84	0x3a975433	0.0011545479
85	0xba8483ce	-0.0010110082
86	0x38d9416d	0.00010359553
87	0xba2b0681	-0.00065241015
88	0xba238b75	-0.0006238737
89	0x392abfa7	0.0001628386
90	0xba37fa60	-0.0007018205
91	0x3a811a88	0.0009849826
92	0xba961ec6	-0.0011453263
93	0xb7ae569d	-2.0782749e-05
94	0xba1fe878	-0.0006100009
95	0xb7c599f8	-2.3555927e-05
96	0xba51afd9	-0.00079989206
97	0xba098504	-0.0005245956
98	0xba05b3ea	-0.00051003566
99	0x375d8333	1.3203174e-05
100	0xba8287ce	-0.0009958686
101	0xb8d4ab86	-0.000101408965
102	0xb7df2fd2	-2.660594e-05
103	0x3a7ea1db	0.00097134494
104	0xba60ef5d	-0.000858059
105	0xba93293b	-0.0011227498
106	0xb93f9648	-0.00018271164
107	0x399588b0	0.00028521335
108	0x39a57f33	0.00031566023
109	0xb9f8cbb2	-0.0004745401
110	0x38d6b699	0.00010238327
111	0x3a137db0	0.0005626334
112	0x398501fe	0.0002536922
113	0x3a8893d4	0.0010420033
114	0x3a0a598e	0.0005277627
115	0x38fc958b	0.00012044151
116	0x3a7ac0ca	0.0009565471
117	0xb9ad0755	-0.00033002594
118	0x3a98ca1a	0.0011656911
119	0x395ba3e7	0.00020946526
120	0x3a4feea9	0.00079319865
121	0x388cdcc2	6.7168396e-05
122	0x39e5cc25	0.00043830383
123	0xba94fae3	-0.0011366274
124	0xba9fab09	-0.001218171
125	0x39d8c9d8	0.00041349116
126	0xb95eae90	-0.000212366
127	0xb8b8b8fb	-8.808259e-05
128	0x3a498c8f	0.00076884864
129	0xba209a75	-0.00061265315
130	0x3a6500e5	0.000873579
131	0x3a8f9721	0.0010955074
132	0xba30b3f3	-0.0006740682
133	0xba3c32f2	-0.00071792223
134	0xba7dc3eb	-0.0009680378
135	0x3a5e4f5c	0.00084804534
136	0xb6addcf5	-5.1815246e-06
137	0x39d6c6e8	0.00040965457
138	0xba62d270	-0.00086525735
139	0xba05f199	-0.0005109548
140	0x3982bbc1	0.0002493542
141	0xba5e7ff7	-0.0008487696
142	0x3a0420ec	0.0005040306
143	0x3a4a75c8	0.0007723239
144	0x39cc7bac	0.00039002055
145	0xba068274	-0.00051311334
146	0x3a19f087	0.0005872328
147	0x3a0d5362	0.0005391148
148	0x3a3e4b65	0.00072591595
149	0xba46fffb	-0.00075912446
150	0xba1f6e35	-0.0006081791
151	0xba6c7020	-0.00090193935
152	0xba10659e	-0.0005508306
153	0xba96abf8	-0.0011495342
154	0xba88bdf4	-0.0010432587
155	0x3a446986	0.0007492531
156	0xb7c80146	-2.384245e-05
157	0xb9dfd263	-0.00042690625
158	0xba3e1883	-0.00072515773
159	0x3a888f9c	0.0010418775
160	0x3a8ce49d	0.0010749284
161	0x3a0f7734	0.000547278
162	0x3a073d66	0.00051589904
163	0xb921ad49	-0.0001541871
164	0x3a88460d	0.0010396853
165	0xb9be18b8	-0.0003625804
166	0xb806fe3c	-3.2184864e-05
167	0x395e457b	0.00021197453
168	0x3a98905e	0.0011639704
169	0x39f9192c	0.00047511735
170	0xb9b99733	-0.00035398602
171	0x3a81aef6	0.0009894061
172	0xb9b5cd46	-0.0003467595
173	0xb99d4058	-0.00029993313
174	0x39d213da	0.00040069112
175	0xba06a7eb	-0.0005136716
176	0x3a2a25ae	0.00064906
177	0x3a8e40d6	0.0010853063
178	0x3947bd17	0.0001904856
179	0x39f70f10	0.00047122734
180	0xba8c643f	-0.0010711028
181	0xb908f0ef	-0.00013059725
182	0x3a29e8eb	0.0006481546
183	0xba8a4f09	-0.0010552119
184	0xb9ad5467	-0.00033060016
185	0xba8d1904	-0.0010764902
186	0xba735259	-0.0009281985
187	0x3a6be317	0.00089983776
188	0x3a6a97c7	0.0008949008
189	0x3a827c48	0.0009955252
190	0x3a827ab8	0.0009954786
191	0xba41602c	-0.00073766964

sequential_2/conv2d/BiasAdd/ReadVariableOp f4 [64]
0	0xbc12776b	-0.008939604
1	0x3a52beb8	0.00080392836
2	0xb9acb942	-0.00032944424
3	0x3cd82cab	0.026388487
4	0xbc6f513f	-0.014606773
5	0xbc760282	-0.015015246
6	0xbc18be1d	-0.00932267
7	0xbc00fb24	-0.007872377
8	0xbc288070	-0.010284528
9	0xbb53e1a3	-0.0032330535
10	0x3d8157ef	0.063156
11	0xba60486f	-0.00085557153
12	0x3b358de6	0.0027702986
13	0xbbcb919c	-0.0062124263
14	0x3c071aef	0.008246168
15	0xbc7b552f	-0.015340134
16	0xbcd0c1f5	-0.02548311
17	0xbc53dfe1	-0.012931795
18	0x3be4813f	0.006973415
19	0xbce386e7	-0.027774287
20	0x3d09cddc	0.03364359
21	0xbca91a7a	-0.020642508
22	0x3c1ab71e	0.009443073
23	0x3cc6fb12	0.024289642
24	0xbaa4de14	-0.0012578391
25	0x3c9109d4	0.017704882
26	0x3d425a7a	0.047449566
27	0x3bb0aa8b	0.005391424
28	0x3ce7e58f	0.028307704
29	0xbba77505	-0.0051103854
30	0x3c956280	0.018235445
31	0xbbd32a39	-0.0064442423
32	0xbbb9a9d7	-0.0056659984
33	0xbba3e2c4	-0.005001398
34	0x3b005244	0.0019580284
35	0xbc5168cd	-0.012781334
36	0x3d1d4a50	0.038400948
37	0xbccbe66f	-0.024890153
38	0xbc981413	-0.01856426
39	0xbc006d1c	-0.007838514
40	0xbb026840	-0.0019898564
41	0x3cfa156a	0.03052779
42	0xbce2538a	-0.027627725
43	0xbc14057f	-0.0090345135
44	0xbbb2193a	-0.005435136
45	0x393479ec	0.00017211557
46	0x3c40bdb1	0.011763976
47	0xbbb763fe	-0.005596637
48	0x3be77da9	0.0070645404
49	0x3b07d8aa	0.0020728507
50	0xbbb71c66	-0.005588102
51	0x3cb5e053	0.022201693
52	0x3d6e03f3	0.058109235
53	0xbbff6501	-0.007794023
54	0x3947bc8c	0.00019048358
55	0xbc434f0c	-0.011920702
56	0xbb356082	-0.0027675931
57	0x3bb05d7c	0.005382238
58	0x3bea9265	0.007158565
59	0x391c23e0	0.00014890684
60	0xbc2695d8	-0.0101675615
61	0x3d08ec68	0.03342858
62	0xbc4382cc	-0.01193304
63	0xbb80af46	-0.003927144

sequential_2/conv2d_1/BiasAdd/ReadVariableOp f4 [64]
0	0xbbd7c845	-0.0065851533
1	0xbbc043f2	-0.0058674747
2	0xbc0a5102	-0.008442165
3	0xbc99b35e	-0.018762287
4	0xbb16c0f4	-0.0023003193
5	0x3c18820c	0.009308349
6	0x3cb2a378	0.021806464
7	0x39eb9784	0.0004493558
8	0xbbba47ef	-0.0056848447
9	0x3be43f52	0.006965556
10	0x3a276ba1	0.00063865824
11	0xbbbb12f1	-0.005709045
12	0x38177143	3.610669e-05
13	0x3ce90d9f	0.028448878
14	0xbc4ca627	-0.012490786
15	0xbb0c18dc	-0.0021377122
16	0x3b9d45ac	0.0047995653
17	0x3ae896c2	0.0017745125
18	0xba82b010	-0.0009970684
19	0xbc06c555	-0.008225759
20	0x3c299010	0.010349289
21	0x3a47fff4	0.00076293875
22	0xbc4da635	-0.012551834
23	0xbac2a0f1	-0.001484899
24	0xbbf9fd9f	-0.007629111
25	0x3d0e3b00	0.034724236
26	0x3bafdcb4	0.005366886
27	0x39d00548	0.00039676786
28	0xbc92d9fa	-0.017926205
29	0x00000000	0.0
30	0xbbd65805	-0.0065412545
31	0xbbab9590	-0.005236335
32	0xbac093b9	-0.0014692462
33	0x3c78bb13	0.015181321
34	0x3b94c29f	0.004539802
35	0x3c70e960	0.014704078
36	0x3b0a7994	0.0021129595
37	0xbbbe2fe3	-0.0058040484
38	0xbb729aa1	-0.0037018436
39	0xbbe3a3ed	-0.0069470317
40	0xbad55c3f	-0.0016278102
41	0xbc09d678	-0.00841295
42	0xbc689698	-0.014196061
43	0xb9f54f50	-0.00046789134
44	0x3bd927e5	0.0066270703
45	0x3c6cfc45	0.014464443
46	0x3b2b1bf7	0.0026109198
47	0x3c88294a	0.01662125
48	0xbc4986b9	-0.012300187
49	0x3c2b859b	0.010468866
50	0xbd00b112	-0.031418867
51	0x3bcb9fc4	0.006214114
52	0x3b451dbc	0.0030077538
53	0xbcd6e383	-0.026231533
54	0xbbc0c463	-0.005882786
55	0xbc4c426a	-0.012467006
56	0xba7a4cbd	-0.0009548178
57	0xbc4d7d3e	-0.012542067
58	0x3ba7ddd4	0.0051228795
59	0x3b202447	0.0024435685
60	0x3a904350	0.0011006389
61	0x3bb24e09	0.0054414314
62	0x3a8e2b98	0.0010846732
63	0x3c88d33f	0.016702292

sequential_2/conv2d_2/BiasAdd/ReadVariableOp f4 [64]
0	0xbc0e59c2	-0.008688392
1	0xbc80b902	-0.015713219
2	0x3c2c091a	0.010500217
3	0xb9e921e2	-0.00044466468
4	0xbbf0a80e	-0.0073442524
5	0xbc086a83	-0.008326176
6	0xbc16e142	-0.009208979
7	0xb851e8a1	-5.0046136e-05
8	0x39217dc4	0.00015401008
9	0x3b542927	0.0032373162
10	0xbbd299fb	-0.0064270473
11	0xbbe8fc53	-0.0071101575
12	0xbc55ee6d	-0.013057333
13	0xbb1c00c2	-0.0023804163
14	0xbb1425c8	-0.0022605527
15	0xbc496c33	-0.012293863
16	0xbc98ab63	-0.018636411
17	0xbbf69428	-0.007524986
18	0x3c3ae241	0.011406482
19	0xbc40e2c9	-0.01177282
20	0xba315aad	-0.0006765526
21	0xbc7ecfc5	-0.015552466
22	0x3b5038ba	0.0031772093
23	0x3c0c8b8c	0.008578192
24	0xbc87454b	-0.016512534
25	0xbaff65e5	-0.0019485323
26	0xbb9c0b01	-0.004762054
27	0x3b9c00c6	0.0047608344
28	0x3abb5ecd	0.0014295221
29	0xba919e1f	-0.0011109746
30	0x3b339997	0.002740478
31	0xbb9b55f8	-0.004740473
32	0xbc1b9965	-0.009497021
33	0xbbf529eb	-0.0074818037
34	0xbc42cc79	-0.01188957
35	0x3b18fd65	0.0023344394
36	0x3bef8cf4	0.007310504
37	0xbc1cc5e9	-0.00956867
38	0xbc48752b	-0.012234966
39	0x3bba2d1b	0.0056816465
40	0xbc8efa6f	-0.0174534
41	0xbad14875	-0.0015967028
42	0x3a1a9147	0.0005896282
43	0xbaa51417	-0.0012594488
44	0xbc1846e9	-0.00929425
45	0x3a8e1d31	0.001084244
46	0x3886abc7	6.421614e-05
47	0x3a37e25b	0.00070146256
48	0xbbf99363	-0.007616447
49	0xbc3a7305	-0.011379962
50	0x3baed037	0.0053348797
51	0xbbf45987	-0.0074569616
52	0x39eb40a5	0.00044870857
53	0xbb9f476c	-0.004860809
54	0xbbb3e881	-0.005490363
55	0x3ba4c96e	0.005028895
56	0x3b077b52	0.002067287
57	0x3b8fbaf8	0.004386302
58	0x3b2e70cd	0.0026617527
59	0xbbeec456	-0.0072865887
60	0xbbed4e3c	-0.0072419923
61	0x3bf54073	0.0074844896
62	0xbc74c373	-0.014939177
63	0xbc5e6111	-0.013572947

sequential_2/conv2d_3/BiasAdd/ReadVariableOp f4 [64]
0	0xbc163184	-0.009167079
1	0x3ac170df	0.001475837
2	0x3be29dc9	0.006915782
3	0xba260cc8	-0.0006334302
4	0xb9b89011	-0.00035202553
5	0x3b359eb6	0.0027713007
6	0x3b01e2ab	0.0019818943
7	0xbc82b1ca	-0.015953917
8	0xbb25f5f2	-0.0025323597
9	0x3bb2e334	0.0054592136
10	0xbb9ef72c	-0.0048512425
11	0x3be1be4e	0.006889141
12	0xbb8b4f88	-0.004251424
13	0x3ab544ff	0.0013829767
14	0xbb395ac4	-0.002828286
15	0xbc752ea4	-0.014964733
16	0x3b80cf73	0.00393098
17	0x391e3f16	0.00015091556
18	0x3b40ee1b	0.0029438797
19	0xb996cfc9	-0.00028765041
20	0x3c141eda	0.009040559
21	0xbc8afad4	-0.016965307
22	0xbb9d5abf	-0.0048020775
23	0x3a524410	0.00080210064
24	0xbc37424e	-0.011185242
25	0x3c1aef2f	0.00945644
26	0xb939351a	-0.00017662757
27	0xbbcf18b8	-0.0063200854
28	0xba19ebae	-0.0005871606
29	0xbb9fa7b4	-0.0048722867
30	0xbbc9ae24	-0.0061547924
31	0xbabfd71b	-0.001463625
32	0x3b2e2a77	0.0026575604
33	0x3b4437f2	0.0029940573
34	0xbc2142ab	-0.009842555
35	0xbc53da29	-0.012930431
36	0xbc703127	-0.014660156
37	0xbb980689	-0.004639451
38	0x3bc305cf	0.00595162
39	0xba38f006	-0.0007054809
40	0xbce18fec	-0.027534448
41	0x3bb0f0e5	0.0053998106
42	0xbb1786f3	-0.0023121207
43	0x3af4fae3	0.0018690493
44	0x3bc349c2	0.0059597204
45	0x3c81aede	0.015830453
46	0x3b22fd90	0.0024870373
47	0x3a54575f	0.00081001775
48	0x3bf64a17	0.0075161564
49	0xbba43c1e	-0.0050120493
50	0x3d023669	0.03179017
51	0xbba1fc9c	-0.0049434435
52	0xbb2b2c5e	-0.0026118974
53	0x3d034555	0.032048542
54	0x3be6812d	0.007034442
55	0x3b86dcb0	0.0041156635
56	0x3c51f493	0.012814659
57	0xbc581960	-0.013189644
58	0xbc76b5af	-0.015057965
59	0xbcd699f0	-0.02619645
60	0x3ba31f8e	0.004978127
61	0xbc847aaa	-0.016171772
62	0x3ab3f88f	0.0013730692
63	0x3bd8a5b6	0.006611551

sequential_2/conv2d_4/BiasAdd/ReadVariableOp f4 [64]
0	0x3c0d64ce	0.008629991
1	0xbc9e0534	-0.01928959
2	0xbc050f6b	-0.008121352
3	0xbc830c59	-0.015997099
4	0xbc627a5b	-0.013823117
5	0x3a182015	0.00058031204
6	0xbc0adfb8	-0.00847619
7	0xbba56cd1	-0.0050483723
8	0x3a9c927c	0.0011945511
9	0xb9b03b50	-0.00033613527
10	0x3b7eb673	0.0038866072
11	0xbc9450be	-0.018104907
12	0x3c0a701e	0.008449582
13	0x3b23a47a	0.0024969862
14	0xbc9d5be1	-0.01920885
15	0xbb2fbe19	-0.0026816188
16	0xbbef20ef	-0.007297627
17	0xbc48e328	-0.0122611895
18	0x3ac9e108	0.0015402148
19	0xbc8e2ad6	-0.01735441
20	0xbb488a23	-0.0030599914
21	0x385421e5	5.0576306e-05
22	0x3c6e1dd6	0.014533481
23	0x3abf9dac	0.0014619133
24	0xbc3dbe24	-0.011580978
25	0x3ad78409	0.0016442548
26	0x3ab8d4e3	0.0014101531
27	0x3b92a6b2	0.004475438
28	0xbc3a1324	-0.011357103
29	0xbcc44db5	-0.023962835
30	0x3b96a93b	0.0045978106
31	0x3c18a2a7	0.009316123
32	0xb9c19a74	-0.00036926905
33	0xbb3c26e9	-0.0028709716
34	0x3ca6f142	0.020378713
35	0xbbe9a848	-0.0071306564
36	0xbc1ed9b9	-0.009695464
37	0x3b7dc4af	0.003872197
38	0xbb1666e1	-0.0022949504
39	0xbc8cd4a1	-0.017191233
40	0xbbcddbea	-0.0062823193
41	0xbc9b1afd	-0.018933767
42	0x3a45cad4	0.00075451774
43	0x3c1c43d8	0.00953766
44	0x3acafb4d	0.001548627
45	0x3a2326f2	0.000622376
46	0x3ba4be31	0.0050275554
47	0x39c95185	0.00038398444
48	0x3b848761	0.0040444587
49	0x3b943ce8	0.004523862
50	0xbb112eef	-0.0022153219
51	0x3b9990a1	0.0046864306
52	0x3c323a30	0.010878131
53	0x3b84f548	0.00405756
54	0xbc802795	-0.015643874
55	0xbc6fb12e	-0.014629645
56	0x3bcc7698	0.0062397234
57	0xbbd61015	-0.006532679
58	0x3ba546c9	0.0050438386
59	0x3cf60aec	0.030034505
60	0xbbd35635	-0.0064494857
61	0x3b8b3121	0.0042478
62	0x3ab97195	0.001414823
63	0xbaffdc8f	-0.0019520688

sequential_2/conv2d_5/BiasAdd/ReadVariableOp f4 [64]
0	0xbba8af7f	-0.005147874
1	0x3c632c4e	0.0138655435
2	0xbb8594ed	-0.004076591
3	0x3991bf8d	0.00027799272
4	0xbc229c06	-0.009924894
5	0xbba50871	-0.0050364067
6	0x3c34cd99	0.011035346
7	0x3c5a2381	0.013314129
8	0xbc98a5da	-0.018633772
9	0x3addbaf3	0.0016916677
10	0x3c30eeb8	0.0107991025
11	0x3bf36d90	0.0074288324
12	0x3bcca7f7	0.006245609
13	0xbb4d79fc	-0.0031353226
14	0xbc3d5c3b	-0.011557634
15	0x3b3e0bd3	0.0028998747
16	0x3bb5fbc5	0.005553695
17	0xbbc506dd	-0.006012781
18	0x3d265181	0.040605072
19	0xba0c3026	-0.0005347751
20	0xbbbd5396	-0.0057777865
21	0xbc140da5	-0.009036456
22	0xba350c9e	-0.0006906482
23	0x391027c8	0.0001374773
24	0x3b4512f0	0.0030071102
25	0xbb3fd0e4	-0.0029268796
26	0x3c60215a	0.013679827
27	0x3c31dc91	0.01085581
28	0x3ccd93d5	0.025094906
29	0xbc255f67	-0.0100935465
30	0x3c0e1adc	0.008673396
31	0x3b5a585c	0.0033316826
32	0xbc03f176	-0.008053174
33	0x3acab96f	0.001546664
34	0xbc96f79b	-0.018428614
35	0x3bae6b85	0.005322876
36	0x3c858bdf	0.016302047
37	0x3bb16a16	0.0054142578
38	0xbc07b71b	-0.008283402
39	0x3c3f7a91	0.011686937
40	0x3c421c3a	0.01184755
41	0x3ac9e7c2	0.0015404152
42	0x3d1c6af1	0.038187925
43	0xbbe57e4f	-0.0070035825
44	0x3a476e06	0.00076076423
45	0x3c24b723	0.010053429
46	0x3c408f4f	0.011752917
47	0xbc7610f6	-0.015018692
48	0xbb185e73	-0.0023249655
49	0xbcb64370	-0.022248954
50	0xbc4274e8	-0.011868693
51	0x3cb16a6d	0.021657193
52	0xbacebabd	-0.0015772205
53	0x39c8a176	0.0003826727
54	0x3c58f6ff	0.013242482
55	0xbbdc06af	-0.006714664
56	0x3bb23308	0.0054382123
57	0x3bfa885c	0.00764565
58	0xbab6e318	-0.0013953177
59	0x3bcbcb1b	0.0062192804
60	0xbbd20081	-0.0064087515
61	0xbc234be7	-0.009966827
62	0x3bd5034b	0.0065006367
63	0xbb0a4f17	-0.002110427

sequential_2/conv2d_1/Conv2D f4 [64, 2, 2, 64]
0	0x3c0bdcbb	0.008536513
1	0x3dd80d0b	0.10549363
2	0x3d077b0e	0.03307634
3	0x3d3d9cf6	0.046292268
4	0xbcb97488	-0.022638574
5	0xbc5ff7e2	-0.01366994
6	0x3dd67ad5	0.10472647
7	0x3da21e3a	0.079159215
8	0x3d908652	0.070568696
9	0xbccab5a7	-0.024744822
10	0xbd9da034	-0.07696572
11	0xbdafd8be	-0.08586262
12	0xbdf6c4b8	-0.1204924
13	0x3d0e9840	0.034813166
14	0xbdf02e20	-0.11727548
15	0xbd7695e1	-0.06020153
16	0xbd98b36d	-0.07456098
17	0xbdb17c9f	-0.08666348
18	0xbd4bc725	-0.049750466
19	0xbd603763	-0.05474032
20	0xbdbc0bfb	-0.091819726
21	0xbd5dddb3	-0.054166507
22	0x3d9446d0	0.07240069
23	0x3d876f02	0.0661297
24	0xbb27d1a7	-0.002560714
25	0x3d9d17d4	0.076705605
26	0xbdc132b6	-0.094335005
27	0x3de74504	0.112924606
28	0xbcbc7f33	-0.023009872
29	0x3dabef91	0.08395303
30	0x3dabb9cf	0.083850496
31	0xbd93d51a	-0.0721838
32	0x3ddd6b4b	0.1081148
33	0xbd1ed5d9	-0.03877816
34	0x3cd66a01	0.026173593
35	0xbdb0bd96	-0.08629911
36	0xbdbcebef	-0.09224688
37	0x3cf4ca5a	0.029881645
38	0xbdaca36e	-0.08429609
39	0xbdbe2816	-0.092849895
40	0x3dabdb68	0.08391458
41	0xba969174	-0.001148744
42	0x3e070112	0.13184002
43	0xbdc43cbb	-0.09581896
44	0xbdbf1b32	-0.09331359
45	0x3cbd7897	0.02312879
46	0x3be10b1a	0.0068677785
47	0x3d62563a	0.055258013
48	0xbdad47fb	-0.08460995
49	0x3d6e8857	0.058235493
50	0x3ce986bd	0.028506631
51	0xbde4f560	-0.11179614
52	0x3c0b21c4	0.008491937
53	0x3d251d66	0.04031124
54	0x3d4543ae	0.048160248
55	0xbd30aec3	-0.043135416
56	0x3d38265c	0.044958457
57	0x3d7f0d76	0.062268697
58	0x3d4fe702	0.050757416
59	0x3d5dde8c	0.054167315
60	0x3afcb3f3	0.0019279703
61	0xbc4d0c68	-0.012515165
62	0xbd2e0f37	-0.04249498
63	0xbd1d1ce3	-0.038357627
64	0x3bf01408	0.0073266067
65	0x3d344cd9	0.0440186
66	0xbddeebc7	-0.10884815
67	0xbd9fca6c	-0.07802281
68	0x3dd97808	0.10618597
69	0x3c28f24e	0.010311676
70	0x3d822817	0.06355303
71	0x3d39d300	0.04536724
72	0x3dd1299f	0.10213017
73	0x3dc887c9	0.09791524
74	0xbd23a84f	-0.039955433
75	0x3d879ec5	0.0662208
76	0xbd72e039	-0.059295867
77	0x3dceb5b3	0.1009325
78	0x3dc650e4	0.096833974
79	0x3dbbf3b6	0.091773435
80	0xbd256e35	-0.040388305
81	0xbd32f68d	-0.04369216
82	0x3c2b53fc	0.010457035
83	0xbd327b93	-0.04357488
84	0xbdb39f40	-0.08770609
85	0x3db93770	0.09043777
86	0xbd4a99b4	-0.04946299
87	0xbd3c4d8f	-0.045972403
88	0xbdcbbe13	-0.09948363
89	0x3d290172	0.041261144
90	0xbe027397	-0.12739407
91	0x3c8d4e4c	0.017249249
92	0x3d502b87	0.05082276
93	0xbc72aaf8	-0.01481127
94	0x3d64a634	0.055822566
95	0xbd83f515	-0.0644323
96	0xbda8f855	-0.082504906
97	0xbdc6d47e	-0.097084984
98	0xbcf97037	-0.030449016
99	0x3a0a7a70	0.0005282527
100	0xbe2c7142	-0.1684008
101	0x3c512e01	0.012767316
102	0x3cb1b851	0.021694334
103	0x3ddc3c66	0.107537076
104	0xbd9124f1	-0.07087124
105	0xbe376402	-0.17909244
106	0x3dfd7c75	0.12377254
107	0x3d0ab670	0.033865392
108	0x3d2dcdae	0.04243248
109	0x3d8ede0c	0.06975946
110	0xbce05bd5	-0.027387539
111	0xbc74cad8	-0.01494094
112	0x3d6cabd8	0.05778107
113	0xbd91fe11	-0.071285374
114	0x3ca6d1cb	0.020363709
115	0xba39491c	-0.0007068084
116	0x3da86708	0.08222777
117	0x3d5afb40	0.053462267
118	0xbd6e0fca	-0.058120526
119	0x3bbdf872	0.0057974393
120	0xbd63de6d	-0.055632044
121	0x3da071ad	0.07834182
122	0x3dc2b86a	0.095078304
123	0xbd0f3cfb	-0.034970265
124	0x3dd433c4	0.10361436
125	0xbac7055e	-0.0015184095
126	0x3c362663	0.011117551
127	0x3dbe499c	0.092913836
128	0x3d93d692	0.072186604
129	0xbc970881	-0.018436672
130	0xbd5fd6d0	-0.05464822
131	0x3d3b2967	0.04569378
132	0x3ccc477d	0.024936432
133	0xbd3da256	-0.046297394
134	0xbdc782fa	-0.09741779
135	0x3dab1fac	0.0835565
136	0x3cd56757	0.026050253
137	0x3da5794a	0.08079775
138	0xbd8c52a4	-0.068517
139	0x3c614b2a	0.013750831
140	0xbdb83975	-0.08995334
141	0x3dc6ed14	0.09713188
142	0xbda7857c	-0.08179757
143	0x3d0bb787	0.034110572
144	0xbdc4679b	-0.09590074
145	0x3df092f0	0.11746776
146	0x3dfb4e83	0.12270834
147	0xbe219fd4	-0.15783626
148	0xbcc05538	-0.023478135
149	0xbd17b4ab	-0.037037533
150	0xbd8dc19e	-0.06921695
151	0xbe078aaf	-0.13236497
152	0x3cfe684f	0.031055598
153	0x3dcd84b5	0.100350775
154	0xbd350847	-0.044197347
155	0xbce9384d	-0.02846923
156	0xbdcf2364	-0.10114172
157	0xbd3ad9a2	-0.045617707
158	0x3d82104a	0.06350763
159	0x3d21259b	0.039342504
160	0xbdbcbe6d	-0.09216008
161	0xbd467094	-0.048447207
162	0x3d378906	0.04480841
163	0xbd353790	-0.04424244
164	0xbda4548b	-0.08023938
165	0xbd86fd85	-0.06591324
166	0xbddf2652	-0.10895981
167	0x3cc830ea	0.024437387
168	0xbd4db054	-0.050216988
169	0xbde6f0cd	-0.11276398
170	0x3d1f6764	0.03891696
171	0x3d913c62	0.07091595
172	0xbdd62118	-0.10455531
173	0xbddbdc98	-0.10735434
174	0x3cf2638d	0.029588485
175	0x3ca7498a	0.020420808
176	0xbd85be6d	-0.065304615
177	0xbd98c96b	-0.074602924
178	0xbccc914b	-0.024971625
179	0x3cbbb1a3	0.022911852
180	0xbd8e52b4	-0.06949368
181	0xbc1f47f5	-0.009721746
182	0xbd98a6b7	-0.07453673
183	0x3dc959c1	0.09831572
184	0xbdb3a50b	-0.08771714
185	0xbd09514b	-0.033524793
186	0x3d9c7acc	0.07640609
187	0x3c42df05	0.011893992
188	0xbd694dd3	-0.056958985
189	0xbbf08fd3	-0.007341364
190	0x3db7251c	0.08942625
191	0xbddf2f0a	-0.10897644
192	0x3d92c37d	0.07166193
193	0xbc78a43c	-0.015175875
194	0xbcc508fd	-0.024052138
195	0x3d4c9c56	0.04995378
196	0xbdb23552	-0.08701576
197	0x3c9d7097	0.019218726
198	0xbd0f939d	-0.035052884
199	0xbd8b52d5	-0.06802908
200	0x3d3d7f57	0.04626402
201	0x3d5fcaab	0.05463664
202	0x3c5085a1	0.012727172
203	0xbd04ab40	-0.03238988
204	0x3d2bda3e	0.04195618
205	0xbd252832	-0.040321536
206	0xbd20c71a	-0.039252378
207	0x3da83d54	0.082148224
208	0x3cd4b9b0	0.025967449
209	0x3ddc0ea3	0.10744979
210	0x3d63fdde	0.05566203
211	0x3c18b97a	0.009321565
212	0xbd32a260	-0.043611884
213	0x3d73e0e1	0.059540633
214	0x3dca57c2	0.0988002
215	0x3d65d58c	0.056111857
216	0xbdd04936	-0.10170214
217	0x3d719119	0.058976267
218	0xbe2133a4	-0.15742356
219	0x3d975a48	0.07390267
220	0xbd97569f	-0.073895685
221	0x3dbbdc89	0.09172923
222	0x3d7ec533	0.062199783
223	0x3da25115	0.079256214
224	0xbdb6b85c	-0.089218825
225	0xbd9cb8ee	-0.0765246
226	0xbd64ca61	-0.055857066
227	0x3dcdbc6e	0.10045706
228	0xbcf7a987	-0.030232204
229	0x3ba7899c	0.00511284
230	0xbd757fb8	-0.059936255
231	0x3ccb3772	0.024806712
232	0xbbe4b1e1	-0.0069792126
233	0xbd25f4e6	-0.040516756
234	0x3bff771a	0.0077961804
235	0x3de284c5	0.1106048
236	0x3da0de7b	0.07854935
237	0xbcf86d22	-0.030325476
238	0xbdb278b9	-0.08714432
239	0x3d9a13ec	0.07523331
240	0x3d92d84b	0.07170161
241	0xbdb7510b	-0.089510046
242	0x3b4239f9	0.0029636605
243	0x3d337d23	0.04382051
244	0x3dcf1cd0	0.101129174
245	0xbd978e1d	-0.07400153
246	0x3dde8f05	0.108671226
247	0x3de7793e	0.11302422
248	0xbc7bf59d	-0.015378383
249	0xbd8d9b05	-0.06914333
250	0x3d355187	0.044267204
251	0x3cf35b2b	0.029706558
252	0xbbeb117d	-0.0071737156
253	0x3d628c78	0.055309743
254	0x3dc93891	0.09825242
255	0x3d64d399	0.055865858

sequential_2/conv2d_2/Conv2D f4 [64, 3, 3, 64]
0	0xbd97bc9a	-0.0740902
1	0xbd163e60	-0.03668058
2	0x3d358250	0.04431373
3	0xbc2cc5b4	-0.010545183
4	0x3c961605	0.018321047
5	0x3d6f28e0	0.05838859
6	0x3d52cd7c	0.051465496
7	0xbd5c1b8e	-0.053737216
8	0x3c8d3690	0.017237931
9	0xbc958852	-0.01825348
10	0xbd985d93	-0.07439723
11	0xbd83ea2f	-0.06441151
12	0x3ca1418f	0.019684581
13	0xbcdf8e93	-0.027289664
14	0xbcf47d61	-0.029844942
15	0x3d47e500	0.048802376
16	0xbcf9c5f8	-0.030489907
17	0x3d143f03	0.036192905
18	0xbccebd9a	-0.025236893
19	0x3d14f63c	0.03636764
20	0x3c9990c3	0.018745786
21	0xbc8bdae4	-0.017072149
22	0xbd89e5ac	-0.067332596
23	0x3ccbe76e	0.024890628
24	0x3d8fbd44	0.070185214
25	0xbd78af1e	-0.06071388
26	0xbbdf7980	-0.006819904
27	0xbc477668	-0.012174226
28	0x3d5bdcfe	0.05367755
29	0x3c8a2d3c	0.016867273
30	0xbd961665	-0.0732849
31	0xbda044db	-0.07825633
32	0x3cc8100b	0.024421712
33	0x3d6e42b4	0.05816908
34	0xbd80818d	-0.0627471
35	0xbd44aa1e	-0.0480138
36	0x3d39c0cb	0.045349877
37	0x3d60e12d	0.054902244
38	0xbd6880c0	-0.05676341
39	0xbd4bbbfc	-0.049739823
40	0x3c2a160f	0.010381236
41	0x3d136813	0.035987925
42	0x3d7e657b	0.062108498
43	0x3b719942	0.003686503
44	0xbd4d28dd	-0.0500878
45	0x3d32004c	0.043457314
46	0x3d03d12e	0.03218191
47	0x3c86df0d	0.01646378
48	0xbd20d522	-0.03926576
49	0xbcc6caec	-0.024266683
50	0xbd76ebce	-0.060283475
51	0xbd547cfb	-0.051877003
52	0x3d806687	0.062695555
53	0xbd5aa10b	-0.05337624
54	0xbb1f1deb	-0.0024279307
55	0x3b706a73	0.0036684542
56	0xbd1abf6d	-0.037780214
57	0xbce68460	-0.028139293
58	0xbb98a8c2	-0.0046587894
59	0xbc101827	-0.008794821
60	0x3d59156d	0.05299895
61	0x3cfacb62	0.030614559
62	0xbd9030b8	-0.07040542
63	0x3d065688	0.032797366
64	0xbc82caa1	-0.015965762
65	0x3d802653	0.0625731
66	0x3d88c41b	0.06678029
67	0xbd4e272a	-0.05033032
68	0x3d866b17	0.065633945
69	0xbcf092d1	-0.029366883
70	0x3c8ccc28	0.017187193
71	0xbd44d467	-0.048054125
72	0x3bdb6ab0	0.0066960678
73	0xbd4ac413	-0.049503397
74	0x3cde62cb	0.027146718
75	0xbd81c1f5	-0.063358225
76	0x3d687fc0	0.056762457
77	0xba883165	-0.0010390697
78	0xb9443c16	-0.000187144
79	0xbc13387f	-0.008985638
80	0xbc4c7a02	-0.012480261
81	0x3d835ec0	0.064145565
82	0x3d1afe10	0.03783995
83	0x3d0e1ef8	0.034697503
84	0x3ce2fc42	0.027708177
85	0xbc9b5584	-0.018961675
86	0xbc7869d4	-0.01516195
87	0xbd1a63d1	-0.03769285
88	0x3d8105f8	0.062999666
89	0xbd33d48f	-0.043903884
90	0xbd91f094	-0.07125965
91	0x3c15ebab	0.009150426
92	0x3d1ff266	0.03904953
93	0x3cd086c0	0.025454879
94	0x3d434e59	0.04768214
95	0xbcf58102	-0.029968742
96	0xbcd1715d	-0.025566751
97	0x3d0a37a5	0.033744473
98	0x3d3c2e8a	0.04594282
99	0xbc57c0b1	-0.0131685
100	0x3d7f6b22	0.06235803
101	0x3c9ca32a	0.019120771
102	0xbd8b578f	-0.0680381
103	0xbd2de510	-0.04245478
104	0x3d6f88a4	0.05847992
105	0xbd1fe49a	-0.03903637
106	0x3d261032	0.04054279
107	0x3cdd153d	0.026987666
108	0x3d667696	0.056265436
109	0x3d35b3a6	0.04436078
110	0xbd64072f	-0.055670913
111	0x3ccc4655	0.02493588
112	0xbd6129e1	-0.05497158
113	0x3c5afe12	0.013366239
114	0xbcfa85b6	-0.030581336
115	0x3b291b4d	0.0025803626
116	0x3d789771	0.0606913
117	0xbd4a37a0	-0.049369454
118	0xbd511c33	-0.051052283
119	0xbd6b708d	-0.057480384
120	0xbd12530d	-0.035723735
121	0x3d4cd08e	0.05000358
122	0xbd8972e3	-0.06711366
123	0xbd43d229	-0.047807846
124	0x3d6f460e	0.05841642
125	0x3d2f7a05	0.042840976
126	0x3d62b661	0.05534971
127	0xbd373c6d	-0.04473536
128	0xbc7957c7	-0.015218682
129	0xbc1cebb1	-0.009577678
130	0xbd64d447	-0.055866506
131	0xbd52eeec	-0.051497385
132	0xbcc96c67	-0.024587823
133	0xbd76d3fe	-0.060260765
134	0x3d027a58	0.031854957
135	0x3c25e676	0.010125747
136	0x3d07f458	0.03319201
137	0x3d965b7e	0.073416695
138	0x3d6ab361	0.057299975
139	0xbcf60328	-0.030030802
140	0x3cc9cfb6	0.024635177
141	0x3b486832	0.0030579683
142	0xbd2148e9	-0.039376173
143	0x3d5077f2	0.05089564
144	0x3c95c657	0.018283052
145	0x3d6927d9	0.056922767
146	0xbd3f1cac	-0.046658203
147	0xbd816238	-0.06317562
148	0x3c16ba2d	0.009199661
149	0xbd696afb	-0.05698679
150	0x3d7bd3ad	0.061481167
151	0xbd6d5726	-0.05794444
152	0xbd406461	-0.04697073
153	0xbcf8706f	-0.03032705
154	0x3d200da6	0.039075516
155	0x3ce4fb1c	0.02795177
156	0xbcca87f2	-0.024723027
157	0x3becc670	0.007225804
158	0x3d3e6030	0.04647845
159	0xbd14f36d	-0.03636496
160	0x3bcfc6ba	0.0063408287
161	0xbd8e67d0	-0.069533944
162	0x3d546ca8	0.051861435
163	0xbd3b6f74	-0.045760587
164	0x3c7d6904	0.015466932
165	0xbd2c76fb	-0.042105656
166	0x3d001802	0.031272896
167	0xbd2da687	-0.04239514
168	0x3d6e3f0e	0.058165602
169	0xbd9d06f7	-0.07667344
170	0xbc2d9936	-0.01059561
171	0xbd88271e	-0.06648086
172	0x3cf0136f	0.029306142
173	0xbc58f562	-0.013242098
174	0xbd21b162	-0.039475806
175	0xbd5929a4	-0.053018227
176	0x3c789a23	0.015173468
177	0xbd3ace66	-0.045606993
178	0x3c84410c	0.016144298
179	0xbb973fa0	-0.004615739
180	0xbd117be8	-0.035518557
181	0xbce2df5d	-0.027694399
182	0xbd2221c2	-0.039582975
183	0xbd5f8b6f	-0.054576334
184	0xbd13da43	-0.036096822
185	0x3d3d0bd5	0.046153862
186	0x3c988222	0.01861674
187	0xbcf4d58d	-0.029886985
188	0x3c86fbb3	0.016477441
189	0x3cea9dd2	0.028639708
190	0xbcae0a60	-0.021245182
191	0xbc985ca7	-0.018598868
192	0xbcfc84b0	-0.03082499
193	0x3cf463d8	0.029832765
194	0x3c930a89	0.01794936
195	0xbd8f83db	-0.07007571
196	0xbd77a2bd	-0.060457934
197	0xbcab936f	-0.020944325
198	0xbd3601ea	-0.04443542
199	0x3b874d44	0.004129084
200	0xbbcab7fe	-0.0061864844
201	0x3d3f4e8e	0.046705775
202	0xbab0f2c6	-0.0013500086
203	0x3c81e7c4	0.015857585
204	0x3d8df99f	0.06932377
205	0xbcb4cc9b	-0.02207022
206	0x3d346cd3	0.044049095
207	0xbd3f1dc9	-0.046659265
208	0x3d2b9552	0.04189045
209	0x3d7229e3	0.059121978
210	0xbd44fdd1	-0.04809362
211	0xbd803339	-0.0625977
212	0xba759bd5	-0.0009369229
213	0x3d828d9d	0.06374667
214	0xbd873af1	-0.06603039
215	0xbd925191	-0.07144464
216	0x3d3dbce2	0.04632271
217	0x3d7ed08e	0.062210612
218	0xbd689528	-0.05678287
219	0xbd78990e	-0.06069284
220	0xbce982de	-0.028504785
221	0x3d12699e	0.035745256
222	0xbc017bd0	-0.007903054
223	0x3d138ad0	0.036021054
224	0x3d53691b	0.05161391
225	0xbd941651	-0.07230819
226	0x3c850bb7	0.016240938
227	0xbd4bb027	-0.04972854
228	0xbd1a34a9	-0.037647877
229	0x3d835375	0.064124025
230	0xbd5e0612	-0.054205008
231	0x3ce42f78	0.027854666
232	0xbd736dba	-0.059430815
233	0xbd8b2709	-0.06794555
234	0x3d41f32c	0.047351047
235	0x3d5e2286	0.054232143
236	0x3d81601b	0.06317159
237	0xbcc4841b	-0.023988774
238	0xbd98b813	-0.07456984
239	0x3b80ea93	0.0039342134
240	0xbcd4196d	-0.02589103
241	0xbc3db92b	-0.011579792
242	0xbcd02c2a	-0.025411684
243	0xbd81c182	-0.06335737
244	0xbc5379d3	-0.012907463
245	0xbc0d8a94	-0.008638997
246	0x3d26bebb	0.04070924
247	0xbd83f65c	-0.06443474
248	0xbd06bd7f	-0.03289556
249	0x3d7ae754	0.061255768
250	0xbc765734	-0.015035439
251	0x3d30dfad	0.043182064
252	0x3d030aa7	0.03199258
253	0xbd292a0a	-0.041299857
254	0xbd357f65	-0.044310946
255	0x3c9f7541	0.01946509

sequential_2/conv2d_3/Conv2D f4 [64, 2, 2, 64]
0	0xbda1b872	-0.07896508
1	0x3d9e1b21	0.07720018
2	0x3dc578ba	0.096421674
3	0x3da4573d	0.08024452
4	0x3c0f589b	0.0087491525
5	0xbd8e28ca	-0.06941374
6	0xbd5a1758	-0.05324492
7	0xbdbf9a78	-0.093556345
8	0xbda76a0e	-0.08174525
9	0xbd202be1	-0.039104346
10	0xbd8da0e7	-0.06915455
11	0x3da6c922	0.08143832
12	0x3ce38a85	0.027776012
13	0xbc94d759	-0.018169092
14	0x3d9e88fe	0.07740973
15	0x3d9ab13b	0.07553335
16	0xbd16fb4b	-0.036860745
17	0xbdefd686	-0.11710839
18	0x3cf36fcf	0.0297164
19	0x3dc064e1	0.09394241
20	0x3d4e9738	0.050437182
21	0x3dca5f15	0.09881417
22	0x3da196ef	0.078901164
23	0x3da47c30	0.080314994
24	0xbd644633	-0.05573101
25	0xbdd14281	-0.10217763
26	0x3d89928e	0.06717406
27	0xbce181d7	-0.027527733
28	0xbda5928c	-0.08084592
29	0xbd16ab67	-0.036784556
30	0x3db516e6	0.08842258
31	0x3d2df482	0.04246951
32	0x3d1370cd	0.035996247
33	0xbc8569f1	-0.016285868
34	0x3aa52118	0.0012598364
35	0xbcee79c1	-0.029110791
36	0x3da87a4c	0.08226451
37	0x3d698436	0.05701085
38	0xbcd797a7	-0.02631743
39	0xbdd4d10f	-0.10391437
40	0xbdd09978	-0.10185522
41	0xbc8bdc33	-0.017072773
42	0x3cebdc11	0.02879146
43	0x3d917a4f	0.07103407
44	0x3cb1cc85	0.021703968
45	0xbda40999	-0.08009643
46	0xbc4e7f09	-0.01260353
47	0xbc2ccbfe	-0.010546682
48	0xbdbb8d59	-0.09157819
49	0x3db8242d	0.08991275
50	0xbda871d1	-0.08224834
51	0x3db44c8b	0.08803662
52	0xbdb26672	-0.08710946
53	0xbd0a65dc	-0.033788547
54	0xbd94a9c6	-0.07258944
55	0xbdad70fe	-0.08468817
56	0xbc4217c2	-0.011846485
57	0xbd6f219e	-0.05838167
58	0x3b51aed6	0.003199508
59	0xbc812ac8	-0.01576747
60	0xbda6af82	-0.08138944
61	0xbb002a91	-0.0019556622
62	0x3b675a22	0.0035301526
63	0xbd0cb2c9	-0.03435019
64	0xbd66e89c	-0.056374177
65	0xbd12c72c	-0.035834476
66	0x3cbe2953	0.023213064
67	0x3db980b9	0.09057755
68	0xbc1a9f34	-0.009437371
69	0x3d294d0f	0.041333254
70	0xbd6256a8	-0.055258423
71	0xbd0e22a7	-0.034701016
72	0xbd74773f	-0.059684034
73	0x3d0a4489	0.033756766
74	0x3d1d775a	0.0384439
75	0xbdb9d49d	-0.09073756
76	0x3dedfa25	0.11619977
77	0x3cadb0b9	0.021202432
78	0x3cb068c5	0.021534333
79	0xbd29b3d4	-0.041431263
80	0xbdbb1e48	-0.09136635
81	0x3dcd7567	0.10032158
82	0x3d888352	0.06665672
83	0xbc5820af	-0.013191386
84	0xbd173583	-0.036916267
85	0x3d881220	0.06644082
86	0x3db771da	0.08957262
87	0xbc3c06e6	-0.011476254
88	0x3c69f296	0.014279028
89	0x3dcdd605	0.100505866
90	0x3cf070f1	0.02935073
91	0x3dc3a420	0.09552789
92	0x3db72bd5	0.08943907
93	0x3db58f2a	0.08865197
94	0xbd6918cb	-0.05690841
95	0x3d7014f2	0.058613725
96	0xbd6acfaf	-0.05732697
97	0xbdb803f8	-0.08985132
98	0x3db1c18a	0.08679493
99	0xbdb4e351	-0.0883242
100	0x3ca14fff	0.019691465
101	0x3c64b54b	0.013959239
102	0xbdce8de0	-0.10085654
103	0xbdaf6669	-0.08564455
104	0xbdbceca2	-0.092248216
105	0x3d62060e	0.055181555
106	0xbd9caae4	-0.07649782
107	0xbc88137d	-0.016610855
108	0x3c871a37	0.016491992
109	0xbd5903da	-0.05298219
110	0x3dcc77ec	0.09983811
111	0xbcc36cc0	-0.023855567
112	0x3d71c06b	0.059021395
113	0x3d5d5a70	0.054041326
114	0x3d2d025d	0.042238582
115	0xbdca7663	-0.09885862
116	0x3d7e4a25	0.06208243
117	0x3cd80340	0.026368737
118	0x3ca83eb0	0.020537704
119	0xbda56087	-0.08075052
120	0x3d0584dd	0.03259741
121	0xbd3755a5	-0.04475941
122	0xbdca61c2	-0.09881927
123	0xbdd30384	-0.10303405
124	0x3cf73638	0.03017722
125	0x3d028fb1	0.031875316
126	0x3d97d0f0	0.074128985
127	0xbd0c9caa	-0.034329094
128	0x3d53b99e	0.05169069
129	0x3cb01dad	0.021498526
130	0x3dc85354	0.097815186
131	0xbd366eae	-0.044539146
132	0xbd182baf	-0.037151035
133	0xbd6ec243	-0.05829073
134	0xbb53eac7	-0.0032335983
135	0x3db1a52a	0.08674081
136	0x3cf2073d	0.029544467
137	0x3c507b47	0.012724704
138	0x3dafc778	0.085829675
139	0x3dbe6749	0.09297044
140	0x3dbdf941	0.09276057
141	0x3db207b5	0.08692876
142	0xbd61eafe	-0.055155747
143	0x3db42673	0.08796396
144	0x3d9f9ae7	0.07793217
145	0x3d834070	0.06408775
146	0xbc15c387	-0.009140856
147	0x3c534dc6	0.012896961
148	0x3d964660	0.07337642
149	0x3d3f5a4c	0.046716973
150	0x3d87ee89	0.06637294
151	0x3cf8204c	0.030288838
152	0xbd929929	-0.07158119
153	0xbd072a8a	-0.032999553
154	0x3d8d9a62	0.06914212
155	0xbc00d1be	-0.007862506
156	0xbd99d466	-0.07511215
157	0x3db80789	0.08985812
158	0xbd5d4249	-0.054018293
159	0xbd048d5d	-0.032361377
160	0x3d3687a3	0.044562947
161	0x3bedf5f6	0.007261987
162	0x3b4a3d84	0.003085942
163	0x3dc88690	0.09791291
164	0x3daf34b8	0.08554977
165	0x3b85ebe6	0.004086959
166	0xbd9588f0	-0.073015094
167	0xbde66168	-0.112490475
168	0xbd12d777	-0.035850015
169	0xbd1a36c8	-0.0376499
170	0xbb818ad8	-0.003953319
171	0x3dc6f66c	0.0971497
172	0x3d491763	0.04909457
173	0xbdbc0fcd	-0.09182701
174	0x3d8dfd5b	0.06933089
175	0xbdd0e261	-0.10199428
176	0xbcd8b048	-0.026451245
177	0x3cd6a216	0.026200335
178	0x3d4b1ba7	0.04958692
179	0x3d9727f1	0.07380665
180	0x3c283537	0.010266594
181	0xbd3a37c4	-0.04546334
182	0x3d9830c7	0.074311785
183	0xbc3e306a	-0.0116082225
184	0xbda8436b	-0.08215984
185	0xbd979c6b	-0.07402881
186	0xbd388cda	-0.0450562
187	0x3ca45e46	0.020064484
188	0x3d363442	0.04448343
189	0xbde3bd01	-0.11120034
190	0x3d6abf74	0.05731149
191	0x3cc807ec	0.02441784
192	0x3dc4aaf6	0.09602921
193	0xbd470e6a	-0.04859773
194	0x3d2f0dbf	0.04273772
195	0xbdd5563a	-0.10416837
196	0xbdbfd532	-0.09366836
197	0xbd498a5d	-0.04920422
198	0x3d6423b9	0.05569813
199	0xbd69f863	-0.057121646
200	0xbd14a13b	-0.036286574
201	0xbdbb7dd6	-0.09154861
202	0xbc2b8ae8	-0.01047013
203	0x3dbbdd6a	0.09173091
204	0xbd7119df	-0.058862563
205	0xbd5c11b8	-0.053727835
206	0xbd8d7d99	-0.069087215
207	0x3d848527	0.06470709
208	0x3d5864b5	0.052830417
209	0x3cd40c4d	0.025884772
210	0x3d338d0f	0.043835696
211	0xbd520249	-0.05127171
212	0xbd916e94	-0.07101169
213	0xbd237008	-0.039901763
214	0x3d93af09	0.0721112
215	0xbc9fb2aa	-0.019494373
216	0xbde04069	-0.10949785
217	0x3db1dbfa	0.08684535
218	0xbdaa1d61	-0.08306385
219	0xbdc23552	-0.09482826
220	0x3d9c3829	0.07627899
221	0x3d7c3a5d	0.061579097
222	0xbd17314d	-0.03691225
223	0xbc53a3de	-0.012917487
224	0xbd8fca5e	-0.0702102
225	0x3cb041ef	0.021515815
226	0x3cd6e375	0.026231507
227	0x3b27e4be	0.0025618519
228	0xbda617d4	-0.081100136
229	0xbd524ddb	-0.05134378
230	0xbda15e3b	-0.07879301
231	0xbbb0688b	-0.0053835562
232	0xbdc2d8d4	-0.09514013
233	0x3da2a507	0.07941633
234	0x3d328529	0.043584023
235	0x3da9e3b1	0.08295382
236	0xbd4028cc	-0.046913907
237	0xbc149a59	-0.0090700025
238	0xbd33903b	-0.04383872
239	0x3d97a217	0.07403963
240	0x3dde2391	0.108466275
241	0x3ddfede7	0.10934048
242	0xbdb36e3b	-0.08761259
243	0xbcd8f1d6	-0.026482504
244	0xbd11c669	-0.03558961
245	0x3c8662c6	0.01640452
246	0x3ddabd42	0.10680629
247	0xbc4c13d4	-0.012455899
248	0xbcf605fc	-0.03003215
249	0x3d1bf591	0.038075987
250	0xbdec9610	-0.1155206
251	0x3db7f041	0.08981372
252	0xbcfe99c2	-0.031079177
253	0x3c93b444	0.018030293
254	0xbd8bee67	-0.06832581
255	0xbc9778ac	-0.018490158

sequential_2/conv2d_4/Conv2D f4 [64, 2, 2, 64]
0	0xbd5fe61c	-0.05466281
1	0xbb217544	-0.0024636546
2	0xbbf28c4b	-0.007401978
3	0xbda32593	-0.07966151
4	0xbdbc8537	-0.09205096
5	0xbd24d1a8	-0.040239006
6	0xbd3d42b1	-0.04620618
7	0xbd24f91a	-0.040276624
8	0xbcee0b46	-0.02905811
9	0xbd473331	-0.048632804
10	0xbdc9b1bf	-0.098483555
11	0x3d94cd1a	0.072656825
12	0x3d38836b	0.045047205
13	0x3dac8d6c	0.084254116
14	0x3d2945b8	0.041326255
15	0xba7dba28	-0.00096789235
16	0xbda20cf4	-0.07912627
17	0xbb95a883	-0.0045672073
18	0x3b86bc3a	0.004111794
19	0x3d60c16b	0.054871958
20	0x3d13b2a1	0.036059026
21	0x3d25ac1d	0.040447343
22	0x3d34beac	0.04412715
23	0xbb73df67	-0.0037212016
24	0xbc8bb287	-0.017052902
25	0x3b7d6ca8	0.00386695
26	0x3db0887c	0.08619782
27	0x3c9e0ba0	0.019292653
28	0x3c8d214b	0.01722779
29	0xbda5e237	-0.08099788
30	0x3d398fa5	0.045303006
31	0x3d2c3248	0.04204014
32	0xbd81b756	-0.06333797
33	0xbacdf26e	-0.0015712508
34	0xbd853daf	-0.06505906
35	0xbd86e7de	-0.06587194
36	0xbd9c395d	-0.07628129
37	0xbd861c8e	-0.06548415
38	0xbca0dc1b	-0.019636204
39	0x3b088060	0.002082847
40	0x3e040045	0.12890728
41	0xbdb0988b	-0.08622845
42	0x3dbece16	0.093166515
43	0x3deb5420	0.11490655
44	0xbd53ac0a	-0.05167774
45	0xbd85ad39	-0.0652718
46	0x3ca40f0e	0.02002671
47	0x3dfafa65	0.1225479
48	0x3db6b42c	0.08921084
49	0x3db21c5b	0.086968146
50	0x3d0e8f8e	0.034804873
51	0x3d469a76	0.04848715
52	0x3c6ebd0b	0.014571439
53	0x3e154b5a	0.14579526
54	0x3da84152	0.08215584
55	0x3dc94ffc	0.09829709
56	0x3d99dc3d	0.0751271
57	0xbd939593	-0.072062634
58	0x3dfe7287	0.12424188
59	0xbdcb3a81	-0.09923268
60	0xbdc84c71	-0.09780205
61	0x3d49592e	0.049157314
62	0x3d386228	0.045015484
63	0x3ccf6b42	0.0253197
64	0x3cc60cc4	0.024176009
65	0xbd05ae0f	-0.0326367
66	0xbd0fe32f	-0.03512877
67	0x3d1f9823	0.03896345
68	0x3cabe929	0.020985203
69	0x3d2a4720	0.041571736
70	0x3b8da11c	0.0043221842
71	0xbd9a4dea	-0.07534392
72	0xbdb52579	-0.08845038
73	0xbcf77626	-0.030207705
74	0x3d6e6586	0.05820229
75	0x3df45cae	0.1193174
76	0xbd489261	-0.048967723
77	0x3d66092c	0.05616109
78	0xbdb2b4b1	-0.087258704
79	0x3cf45485	0.029825458
80	0xbc808763	-0.015689557
81	0xbd145a3c	-0.036218867
82	0xbba02cc3	-0.0048881485
83	0xbd704597	-0.058660116
84	0xbbcfc644	-0.006340774
85	0xbd7f002d	-0.062256027
86	0x3db98914	0.09059349
87	0x3cf3e797	0.029773517
88	0x3da598bc	0.080857724
89	0x3c117372	0.008877622
90	0xbd2d823f	-0.04236054
91	0xbd36004d	-0.04443388
92	0x3cf1b594	0.029505529
93	0xbce61381	-0.028085472
94	0x3d93d1a0	0.07217717
95	0xbd8313a0	-0.064002275
96	0x3d8f496a	0.069964245
97	0x3d0b5522	0.034016736
98	0x3da29ad6	0.07939689
99	0xbdc3a84f	-0.09553587
100	0x3dd4ac1b	0.10384389
101	0xbcca865a	-0.024722267
102	0xbdbcbc08	-0.092155516
103	0x3d4080fe	0.046998017
104	0xbd9a3487	-0.0752955
105	0xbdbc807f	-0.09204196
106	0xbdb9123f	-0.09036683
107	0xbbd94899	-0.006630969
108	0x3d6d1574	0.057881787
109	0x3bb424ae	0.0054975366
110	0x3db0964e	0.08622418
111	0x3da6b270	0.08139503
112	0x3d1b6cf7	0.037945714
113	0x3d2cf6c2	0.042227514
114	0x3df1337a	0.117773965
115	0xbcf539c2	-0.029934768
116	0xbd21a08e	-0.039459758
117	0x3dd13cb9	0.1021666
118	0xbdb10dd6	-0.08645217
119	0xbb03a6ed	-0.002008851
120	0xbcb8dfea	-0.022567708
121	0x3d33ac17	0.04386529
122	0x3dd1dc51	0.102471
123	0x3db04d17	0.08608454
124	0xbd9eb009	-0.0774842
125	0x3dbd875f	0.092543356
126	0x3d467265	0.04844894
127	0x3b713eef	0.0036811193
128	0x3ce168c7	0.027515782
129	0xbd2efbd5	-0.042720634
130	0xbc9bb258	-0.01900594
131	0x3cea94ac	0.028635345
132	0xbdcb0927	-0.09913855
133	0xbc95b3e0	-0.018274248
134	0x3dab5c39	0.083671995
135	0xbd50802a	-0.050903477
136	0xbd9f6690	-0.07783234
137	0xbdaad17b	-0.083407365
138	0xbd20c449	-0.039249692
139	0x3d2c695b	0.042092662
140	0x3d92be45	0.07165197
141	0xbda0f8cb	-0.078599535
142	0x3d87d63e	0.0663266
143	0xbd1bdd4f	-0.038052853
144	0xbdcc8937	-0.09987109
145	0xbd0dac1a	-0.034587957
146	0x3ccc648e	0.024950292
147	0x3d35b10c	0.0443583
148	0x3d6e215f	0.058137294
149	0x3d91e5e7	0.071239285
150	0x3c85f125	0.016350338
151	0xbd844fb5	-0.064605154
152	0x3d9e3edf	0.077268355
153	0xbe012983	-0.12613492
154	0x3c4eedea	0.012629965
155	0xbdb5db5c	-0.0887973
156	0xbdd191dd	-0.10232899
157	0xbd4e014b	-0.0502942
158	0xbd2196c2	-0.039450414
159	0x3dd2794c	0.10277042
160	0xbd2895cf	-0.041158494
161	0xbaa1312c	-0.001229798
162	0x3d4617be	0.048362486
163	0x3db9bc6b	0.09069141
164	0x3d192c3c	0.0373957
165	0x3dd4b3c8	0.10385853
166	0x3d93c010	0.072143674
167	0xbda5850c	-0.08082017
168	0x3d8d7b07	0.06908231
169	0x3cabd1db	0.02097409
170	0xbae693bc	-0.0017591636
171	0x3cc5a163	0.024124807
172	0x3d38f983	0.045159828
173	0x3d53342a	0.05156342
174	0x3d01fca5	0.03173508
175	0x3d9321df	0.07184195
176	0x3d9e560d	0.07731257
177	0xbb42047f	-0.002960473
178	0x3e144800	0.14480591
179	0x3db8d45c	0.09024879
180	0xbdc51615	-0.096233524
181	0xbc256d1a	-0.010096813
182	0x3da818d9	0.08207864
183	0xbd8ccf6c	-0.068755
184	0xbd01625e	-0.03158795
185	0x3d8a1c9e	0.067437395
186	0x3d997ecf	0.0749489
187	0x3db2641c	0.087105006
188	0x3d2f50a1	0.042801503
189	0xbc13e780	-0.009027362
190	0x3d8c4608	0.06849295
191	0xbdb72593	-0.089427136
192	0x3b826fe8	0.0039806254
193	0xbbba6b97	-0.0056890952
194	0xbc3cadaf	-0.011516019
195	0x3cbff7d4	0.023433603
196	0x3dc30c02	0.09523775
197	0x3dafbd60	0.08581042
198	0x3d581898	0.05275783
199	0x3ddadf41	0.106871136
200	0x3bcf9360	0.006334707
201	0xbd683a46	-0.0566962
202	0xbd80e41e	-0.0629351
203	0x3d490203	0.049074184
204	0xbdaaac8a	-0.083336905
205	0xbd9fb322	-0.07797839
206	0xbda59bb1	-0.080863364
207	0xbd5e001c	-0.054199323
208	0xbd974624	-0.07386425
209	0x3d9adc08	0.07561499
210	0xbd862906	-0.06550793
211	0xbd9fcac0	-0.07802343
212	0xbda86b55	-0.08223597
213	0x3cfa32f3	0.030541873
214	0xbcc4a722	-0.024005476
215	0xbd0a6b13	-0.03379352
216	0x3d00a6aa	0.031408943
217	0xbdc1dbd8	-0.0946576
218	0xbd9fd73a	-0.07804723
219	0x3d8601de	0.06543325
220	0x3d520315	0.05127247
221	0xbdb95bb1	-0.09050692
222	0x3d5894e3	0.052876364
223	0x3de3301a	0.11093159
224	0xbd943225	-0.07236127
225	0xbdd8d161	-0.10586811
226	0x3d528f8c	0.05140643
227	0x3d756389	0.059909377
228	0xbd5a8728	-0.05335155
229	0x3dbe1a19	0.092823215
230	0x3d3cdac7	0.04610708
231	0x3be164e5	0.0068784826
232	0x3d102866	0.035194777
233	0xbd2adc62	-0.04171408
234	0x3cc7700b	0.024345418
235	0x3cf38fd6	0.029731672
236	0xbdb0cd7e	-0.086329445
237	0x3d5c1552	0.05373127
238	0xbdaddb41	-0.08489085
239	0xbc3a509e	-0.01137176
240	0x3d21ac12	0.03947074
241	0x3dc4ea98	0.09615058
242	0xbcb491b8	-0.02204214
243	0x3dfa9d81	0.12237073
244	0x3d579fed	0.05264275
245	0x3e07a6f2	0.13247278
246	0x3d8f184b	0.069870554
247	0x3c4681b4	0.012115885
248	0xbc8973f6	-0.016778927
249	0x3d1eafcc	0.03874187
250	0xbd366fa1	-0.04454005
251	0xbcbf3f45	-0.023345599
252	0xbdc4af04	-0.09603694
253	0x3d5ca992	0.053872652
254	0xbd1d707c	-0.03843735
255	0xbd67b9af	-0.056573566

sequential_2/conv2d_5/Conv2D f4 [64, 2, 2, 64]
0	0xbd584d8a	-0.052808322
1	0xbc63dbd3	-0.013907391
2	0xbcf8b68c	-0.030360483
3	0x3dd0657b	0.10175606
4	0x3cbcc128	0.023041323
5	0x3d30e223	0.04318441
6	0xbdb39e4c	-0.08770427
7	0x3d7582ae	0.05993908
8	0xbc98c530	-0.018648714
9	0xbdad654c	-0.084665865
10	0xbd18e27c	-0.037325367
11	0xbdb17c96	-0.08666341
12	0xbd40cfba	-0.047073103
13	0x3c648477	0.013947598
14	0x3dc1b2d0	0.09457934
15	0x3d76e501	0.06027699
16	0x3d773cc6	0.060360692
17	0x3c9b0a57	0.018925829
18	0x3de6a8c0	0.11262655
19	0x3d4887a1	0.04895747
20	0xbd80136a	-0.06253703
21	0x3997ff64	0.00028991245
22	0xbc95cc73	-0.018285966
23	0xbdacdea5	-0.084409036
24	0xbdb7d54c	-0.0897623
25	0x3d8d72d5	0.06906668
26	0xbdd9f566	-0.10642509
27	0x3d0a9d5d	0.03384148
28	0xbd8dad7e	-0.06917857
29	0x3db3978a	0.08769138
30	0xbcdee239	-0.02720748
31	0xbdb2cb69	-0.08730204
32	0xbba6a4b9	-0.0050855544
33	0x3d69503a	0.056961276
34	0xbcd4c0f3	-0.025970912
35	0x3dab641d	0.083687045
36	0x3dcb4159	0.099245735
37	0xbdb85c85	-0.09002022
38	0xbd760771	-0.06006569
39	0x3da4d67a	0.08048721
40	0xbdd10b18	-0.10207194
41	0xbdbabe91	-0.09118379
42	0x3da01e66	0.07818298
43	0x3ce1d08a	0.02756526
44	0xbd606dd4	-0.05479224
45	0x3b0466d5	0.0020202894
46	0x3c85b3ff	0.01632118
47	0x3d60b393	0.054858755
48	0x3d04ac6e	0.032391004
49	0x3ce56114	0.028000392
50	0xbc18cfcc	-0.009326886
51	0x3cb3ba8a	0.021939535
52	0xbd9f3c14	-0.07775131
53	0xbc3cc9cf	-0.011522724
54	0x3d9bef64	0.076140195
55	0x3ddd8398	0.10816115
56	0x3d28828d	0.041140128
57	0x3d7cedb5	0.061750133
58	0x3d416e1f	0.04722416
59	0xbd676ec0	-0.056502104
60	0x3c824225	0.01590068
61	0x3d9442fb	0.07239338
62	0xbd7b12b2	-0.061297126
63	0x3caa255e	0.020769771
64	0x3da44523	0.08020999
65	0xbdc20fae	-0.09475647
66	0x3d088d98	0.03333816
67	0xbd96bf79	-0.07360739
68	0x3e17f2af	0.1483867
69	0xbce35076	-0.027748328
70	0xbd888a7f	-0.06667041
71	0xbdec6961	-0.11543537
72	0x3ccfd166	0.025368404
73	0xbd621d3f	-0.055203672
74	0xbc8c562b	-0.017130932
75	0xbd7774b6	-0.06041404
76	0x3d2ceb46	0.04221656
77	0x3bc5d908	0.006037835
78	0x3d932d46	0.071863696
79	0x3a371a77	0.00069848396
80	0xbc4ce5b8	-0.012505941
81	0xbd931f29	-0.07183678
82	0x3de32957	0.11091869
83	0x3d3b562f	0.045736488
84	0xbca27867	-0.019832803
85	0x3d5aa6a0	0.053381562
86	0x3d098c51	0.03358108
87	0xbdb538b9	-0.088487096
88	0x3d0d4510	0.03448969
89	0xbd626d05	-0.05527975
90	0x3c925fc5	0.017867932
91	0xbcef17a3	-0.029186076
92	0x3dd8f524	0.10593632
93	0x3d764837	0.060127463
94	0xbdc7adca	-0.097499445
95	0xbd3f46b7	-0.0466983
96	0x3d34acf0	0.04411024
97	0x3c8e6de3	0.017386382
98	0x3ce0a20a	0.027421016
99	0xbdbf3ea2	-0.09338118
100	0xbd6d44b1	-0.057926837
101	0xbc2de8a2	-0.010614546
102	0xbcdc4bbb	-0.02689158
103	0xbda96635	-0.082714476
104	0x3d80db17	0.06291788
105	0x3d7e25a1	0.062047604
106	0xbd8b20b7	-0.06793349
107	0x3cfe05ce	0.031008627
108	0xbcfeaf0c	-0.031089328
109	0xbd306ff1	-0.043075506
110	0x3dad645e	0.08466409
111	0xbdc91e96	-0.09820287
112	0x3c70a8b5	0.01468866
113	0x3d29c0e5	0.041443724
114	0x3d9e03a0	0.07715535
115	0x3dd90c2c	0.10598025
116	0xbce7786b	-0.028255662
117	0xbd3327f2	-0.043739267
118	0x3d452110	0.048127234
119	0x3d988ea6	0.07449083
120	0xbceae731	-0.028674694
121	0xbcf05fd3	-0.029342568
122	0xbe132db9	-0.1437291
123	0x3d896a35	0.067097105
124	0xbd4ad61b	-0.049520593
125	0x3c91bcca	0.017790217
126	0xbd8eee37	-0.069790296
127	0xbd27183f	-0.040794607
128	0x3ca351ad	0.019936407
129	0x3be882c0	0.0070956647
130	0x3c8f6927	0.017506195
131	0x3db3a544	0.08771756
132	0xb9b3915a	-0.00034249836
133	0xbd3f7040	-0.04673791
134	0x3d0a528d	0.033770133
135	0x3bc75e41	0.006084234
136	0xbd8977ac	-0.06712279
137	0x3d29931b	0.041400056
138	0x3d3c1f01	0.045928005
139	0xbdd2b334	-0.102880865
140	0x3ce1c34b	0.027558943
141	0xbcf4b07a	-0.029869307
142	0x3d39e4a4	0.045384064
143	0xbd87284b	-0.06599482
144	0x3db641d7	0.08899277
145	0x3d0bdfa4	0.034148827
146	0xbc5a14dc	-0.013310637
147	0x3d1aa368	0.037753493
148	0x3da9f2d1	0.08298267
149	0xbc8a0306	-0.016847145
150	0x3cdade3c	0.026717298
151	0xbd461f25	-0.048369545
152	0x3d410e9b	0.04713307
153	0x3db3aee6	0.087735936
154	0xbca6eb29	-0.020375805
155	0xbdc836d5	-0.097760834
156	0xbc9ff1cd	-0.01952448
157	0x3c0a3189	0.008434662
158	0x3d80beb4	0.06286374
159	0x3d3d7114	0.046250418
160	0x3b91bd1a	0.0044475915
161	0xbd1b1d20	-0.037869573
162	0xbd680802	-0.05664826
163	0xbdc144ed	-0.09436975
164	0xbc4c0840	-0.012453139
165	0x3dde6875	0.10859767
166	0x3dbda08f	0.0925914
167	0xbdeb56e3	-0.11491182
168	0x3d5989f5	0.05311008
169	0xbbf58d08	-0.007493619
170	0x3d3113fe	0.043231957
171	0x3d9d3170	0.07675445
172	0xbd8f937d	-0.07010553
173	0x3cb8529b	0.022500327
174	0x3da2699b	0.07930299
175	0x3c8e63b2	0.017381523
176	0x3d734571	0.059392396
177	0x3dcf1d37	0.10112994
178	0x3d862a28	0.065510094
179	0x3d99b16a	0.07504542
180	0x3d62c2af	0.055361446
181	0xbdac59c4	-0.08415559
182	0xbd103d3f	-0.03521466
183	0xbc4821be	-0.012215076
184	0x3dbae37c	0.091254205
185	0xbd2d7c74	-0.042355016
186	0xbc77654c	-0.015099835
187	0xbcba4ca6	-0.022741627
188	0xbccd6a31	-0.02507505
189	0xbcaff8ff	-0.021481035
190	0x3de26c98	0.11055869
191	0xbdba913d	-0.09109733
192	0x3ddb88f3	0.1071948
193	0x3ccf9590	0.025339872
194	0xbd8a2962	-0.067461744
195	0xbdc77fde	-0.097411856
196	0x3d39ac0c	0.045330092
197	0xbdcf0250	-0.10107863
198	0x3c0456f7	0.008077375
199	0xbe0507c8	-0.1299125
200	0xbd34712e	-0.04405325
201	0xbd046fab	-0.032333057
202	0xbd9def1c	-0.07711622
203	0xbe05fd5e	-0.13084933
204	0xbd95d826	-0.07316618
205	0x3bc58fdc	0.0060291123
206	0xbb8a544a	-0.004221474
207	0x3cc268c7	0.023731602
208	0x3de438db	0.11143657
209	0x3d8b821a	0.06811924
210	0x3dbc30d8	0.09189004
211	0xbcf4780a	-0.029842395
212	0x3cfb807b	0.030700913
213	0xbdafddf5	-0.08587257
214	0x3cbd711e	0.023125228
215	0x3d166b4c	0.03672342
216	0x3c831e98	0.0160058
217	0xbcee3e57	-0.02908246
218	0xbd599b9d	-0.05312692
219	0xbc94dec4	-0.01817263
220	0x3cc0a699	0.02351694
221	0xbd2b0c82	-0.041759975
222	0xbbb95030	-0.005655311
223	0x3d031aab	0.032007854
224	0xbcdf285c	-0.027240925
225	0xbdffd4ca	-0.12491758
226	0xbc705f7d	-0.014671204
227	0x3d5db6d9	0.054129455
228	0x3db83cb3	0.089959525
229	0xbdb8c618	-0.090221584
230	0x3d928c50	0.07155669
231	0x3daa18b9	0.08305497
232	0xbcfad42a	-0.030618746
233	0xbc4f4933	-0.012651729
234	0xbc896ac5	-0.016774544
235	0xbb8cc726	-0.0042962013
236	0x3dcfac11	0.10140241
237	0x3debeb6e	0.11519514
238	0x3dcfbdd7	0.10143631
239	0xbdf0576f	-0.11735427
240	0x3ceb75a2	0.028742615
241	0xbdb265d6	-0.0871083
242	0xbb3492cd	-0.002755332
243	0x3d927d38	0.0715279
244	0xbd8b1c9a	-0.06792565
245	0xbd9b96d6	-0.07597129
246	0xbd8a0120	-0.06738496
247	0xbc174631	-0.0092330435
248	0x3d5f0f9f	0.054458257
249	0x3c94d96a	0.018170077
250	0xbd3cdcc8	-0.04610899
251	0xbcce97e5	-0.025218913
252	0xbc128b25	-0.008944307
253	0x3cd4a311	0.025956662
254	0x3d9f85ae	0.07789169
255	0xbd07a9f3	-0.03312106
